hw3/preTrained/ddpg_actor_Pendulum-v1_05062024_013452_.pth (torch_old, 69700 bytes, 5 tensors)

actor.0.weight f4 [128, 3]
0	0xbdcf7fe7	-0.10131817
1	0xbe864d8b	-0.26231036
2	0xbe7acdd3	-0.24492578
3	0x3e38626e	0.18006298
4	0xbf1b2bf0	-0.6061392
5	0x3ca3252a	0.019915182
6	0x3c809534	0.015696146
7	0x3f4bf9be	0.7967795
8	0x3e2b918a	0.16754737
9	0xbe77f2b0	-0.24213672
10	0xbe3412c8	-0.1758529
11	0xbe0f3ccd	-0.13988037
12	0x3c94465e	0.01809996
13	0x3f2551cb	0.6457793
14	0x3edc5564	0.43033898
15	0x3f62d4c5	0.8860591
16	0xbe49cd4d	-0.19707222
17	0xbb87387d	-0.004126607
18	0x3ea2e5a3	0.31815824
19	0x3dd41639	0.10355801
20	0xbd176613	-0.03696258
21	0xbe756f84	-0.23968321
22	0xbf858775	-1.0431963
23	0xbf2230f2	-0.63355935
24	0xbf069df8	-0.5258479
25	0xbf6ff54c	-0.9373367
26	0xbece773a	-0.40325338
27	0xbf0ec863	-0.55774516
28	0xbf48fdc7	-0.78512233
29	0x3ea1bf9a	0.31591493
30	0x3d800a43	0.06251957
31	0x3f4ebc27	0.8075585
32	0x3ea04ae1	0.31307128
33	0x3e3c31fb	0.18378441
34	0x3ea84557	0.32865402
35	0xbea6c124	-0.3256923
36	0x3ee41db4	0.44553912
37	0x3e0d17d2	0.13778618
38	0x3eff68f8	0.49884772
39	0x3e3fe093	0.18738012
40	0x3f643a13	0.89151114
41	0x3ed9d819	0.42547682
42	0xbe87584a	-0.26434547
43	0xbe974cef	-0.29550883
44	0x3d792363	0.060824763
45	0x3d51c501	0.05121327
46	0x3eaa05c2	0.33207518
47	0x3eb17c06	0.34664935
48	0xbece763f	-0.4032459
49	0xbd9a1040	-0.07522631
50	0xbf011a24	-0.5043051
51	0x3f22f394	0.6365292
52	0xbf024ec3	-0.5090143
53	0x3e5a5758	0.21322381
54	0xbe832db8	-0.25620818
55	0x3f3a3ee6	0.72752225
56	0xbd8d4a54	-0.068989426
57	0x3cf17317	0.029473824
58	0x3f7c9950	0.98671436
59	0x3ee39418	0.44448924
60	0xbea3aae5	-0.3196632
61	0xbf913fe0	-1.1347618
62	0xbd34a1a6	-0.044099472
63	0x3e2967d6	0.16543517
64	0x3e60a540	0.21938038
65	0x3f0eb416	0.5574354
66	0x3f0e3c6a	0.55560935
67	0xbef6e0cb	-0.48218378
68	0xbecdfd43	-0.40232286
69	0x3ec84de3	0.39121923
70	0x3f3f12ae	0.7463788
71	0xbe99ecd0	-0.30063486
72	0xbefc57b9	-0.49285677
73	0x3d474c93	0.04865701
74	0xbedb30dd	-0.42810717
75	0x3c26d043	0.010181489
76	0xbf872891	-1.0559255
77	0x3d96b631	0.07358969
78	0xbe40875a	-0.18801633
79	0xbf1e50b2	-0.6184188
80	0xbeaa2208	-0.3322909
81	0xbe652588	-0.22377598
82	0x3ebc0216	0.3672034
83	0xbdad2b87	-0.08455568
84	0x3f4c4ef1	0.79807955
85	0xbe68109d	-0.22662587
86	0xbe21f99a	-0.15817872
87	0x3f1b99f6	0.607818
88	0xbf0d523e	-0.55203617
89	0xbea320fc	-0.31861103
90	0xbe78355a	-0.24239102
91	0x3f8ca7bc	1.0988688
92	0x3e64c9eb	0.2234265
93	0xbe6ea38c	-0.23304576
94	0xbef4a88d	-0.47784844
95	0x3e738f10	0.23785043
96	0xbe2b6117	-0.16736256
97	0x3e1210d8	0.14264238
98	0xbea6b8af	-0.32562777
99	0xbea26ae1	-0.31722167
100	0x3e06c433	0.13160782
101	0x3ec68cd4	0.38779318
102	0x3f1ea1ac	0.6196544
103	0x3e576762	0.21035531
104	0xbe8ff576	-0.2811696
105	0x3efc0f77	0.4923055
106	0x3efd2a3f	0.49446294
107	0x3e351583	0.17683987
108	0xbe669ee2	-0.22521546
109	0xbded49e8	-0.11586362
110	0x3e8278ea	0.25482875
111	0x3e41e768	0.1893593
112	0x3f2b2192	0.668481
113	0xbeddd20d	-0.4332432
114	0x3ec02f6a	0.37536174
115	0xbdc6323f	-0.096775524
116	0xbe2ed4ab	-0.17073314
117	0xbe986e55	-0.29771677
118	0xbdbd53fe	-0.09244536
119	0x3eead6bd	0.45866957
120	0x3f55c4f9	0.8350368
121	0x3d630705	0.055426616
122	0xbef79a76	-0.48360032
123	0xbefc7aa3	-0.49312314
124	0x3f1bc062	0.6084043
125	0xbe6d5a8f	-0.23179077
126	0xbedad5a1	-0.4274111
127	0xbe19923e	-0.14997193
128	0xbf14b134	-0.5808289
129	0xbb640e00	-0.0034798384
130	0xbd915d08	-0.070978224
131	0x3bb55700	0.005534053
132	0xbd4660b4	-0.048432067
133	0xbe537323	-0.2064939
134	0xbeaac53b	-0.333536
135	0xbf05fae0	-0.5233593
136	0x3ef3150d	0.47476998
137	0x3f05d151	0.52272516
138	0xbe8c4da7	-0.27402994
139	0xbf85ffea	-1.0468724
140	0xbe9a7034	-0.3016373
141	0x3e9fc5e5	0.3120567
142	0x3f2cf513	0.67561454
143	0xbf11c42d	-0.56939965
144	0x3e4cb926	0.19992504
145	0x3ca49429	0.02009018
146	0x3f0985f4	0.5372002
147	0xbe8e86e3	-0.27837285
148	0x3ccbfaac	0.024899803
149	0xbe9ebc41	-0.31003
150	0xbf1c555f	-0.61067766
151	0xbdd20536	-0.102549
152	0xbea3d480	-0.31998062
153	0xbe529a5b	-0.20566694
154	0xbf29d743	-0.6634409
155	0xbf04b1e7	-0.5183396
156	0x3f0f3f44	0.5595591
157	0x3f07d054	0.5305226
158	0x3ebedf6f	0.3727984
159	0x3e0ca9a8	0.13736594
160	0xbf64e578	-0.8941264
161	0xbed2b8e7	-0.41156694
162	0xbd768190	-0.060182154
163	0xbde840f2	-0.11340512
164	0xbf08cfc6	-0.5344204
165	0x3ee6a6c4	0.45049107
166	0xbf29d130	-0.6633482
167	0xbd936085	-0.07196144
168	0xbf2152c7	-0.63016933
169	0x3ed4c948	0.41559815
170	0x3c9dbc27	0.019254757
171	0x3f1c3272	0.61014473
172	0x3e062e9d	0.13103719
173	0xbf023e6f	-0.50876516
174	0x3f4205a4	0.75789857
175	0xbf5e44e5	-0.86823875
176	0x3e3a0a74	0.1816805
177	0xbf1184d0	-0.5684328
178	0x3e5dd914	0.2166484
179	0x3e5d91a6	0.21637592
180	0x3db013c5	0.08597521
181	0xbecd4257	-0.40089676
182	0x3f27ea6c	0.65592074
183	0x3f77af50	0.9675188
184	0x3daea811	0.0852815
185	0xbe24d3ce	-0.16096422
186	0xbdc32a7d	-0.09529588
187	0x3f07320a	0.5281073
188	0x3f06d306	0.52665746
189	0x3f203b71	0.625907
190	0x3ef8602a	0.48510867
191	0x3d501915	0.05080517
192	0xbebc41dd	-0.36769
193	0xbf1ca5aa	-0.61190283
194	0x3f056f3b	0.5212285
195	0xbee6fae9	-0.45113304
196	0xbc4dda38	-0.012564234
197	0x3f002fa7	0.5007271
198	0xbede368f	-0.43401
199	0xbf169754	-0.5882466
200	0xbf11186b	-0.56677884
201	0x3e6584b3	0.22413902
202	0x3ed18069	0.40918282
203	0x3ebb8224	0.36622727
204	0xbcd8e6ca	-0.026477236
205	0xbedfa0a2	-0.4367724
206	0x3f2c121e	0.67215145
207	0xbef5fd12	-0.4804464
208	0xbea7694e	-0.3269753
209	0x3f0b106d	0.5432194
210	0x3f2aad7f	0.66670984
211	0xbedd04e0	-0.43167782
212	0xbf0c6020	-0.54834175
213	0x3e04bfd8	0.12963808
214	0x3e256aa3	0.1615396
215	0x3e615cab	0.22008006
216	0x3efd96b8	0.49529052
217	0xbdf2d55a	-0.118571
218	0xbed0d534	-0.4078766
219	0x3e3fed49	0.18742861
220	0x3e94ccfd	0.29062644
221	0x3d741142	0.05958677
222	0xbf307707	-0.6893162
223	0xbd583bf3	-0.052791547
224	0xbe322e3b	-0.17400448
225	0xbe3d22ad	-0.18470259
226	0x3f5cdf59	0.862783
227	0x3e0496c3	0.12948136
228	0x3f076ff2	0.5290519
229	0x3ebae77f	0.36504743
230	0x3d5b94fc	0.05360888
231	0xbef3b0ab	-0.47595724
232	0x3e8a7129	0.2703946
233	0x3ec75846	0.38934535
234	0x3f05ba8d	0.5223778
235	0x3f27f2a9	0.65604645
236	0x3e715713	0.23568372
237	0x3dd14ab0	0.10219324
238	0x3d428930	0.047494113
239	0x3ea62373	0.3244892
240	0xbefc4128	-0.4926846
241	0x3f4cc191	0.7998286
242	0x3e4eb7b5	0.20187266
243	0x3e48b489	0.19600119
244	0xbef9a32f	-0.48757312
245	0x3e1b6fad	0.1517932
246	0x3ea94862	0.33063036
247	0xbf83fc7a	-1.0311425
248	0xbdf9d80e	-0.12199412
249	0x3ee20172	0.44141728
250	0xbf02d988	-0.51113176
251	0xbe5cdc52	-0.2156842
252	0x3ea6e1cb	0.3259414
253	0x3f23f2d3	0.64042395
254	0xbefd4815	-0.49469057
255	0x3e92cb91	0.28670934

actor.0.bias f4 [128]
0	0x3e8317b3	0.2560402
1	0x3e987214	0.29774535
2	0x3e556bf6	0.20841965
3	0xbbe5be63	-0.0070112213
4	0x3e8921d5	0.26783624
5	0x3ca12697	0.019671721
6	0xbebbcbbe	-0.3667888
7	0xbf0159ee	-0.50527847
8	0x3e9fbdef	0.31199595
9	0x3d8dfff4	0.06933585
10	0x3e60ffa7	0.21972524
11	0xbea3d8e3	-0.3200141
12	0x3eca0c20	0.39462376
13	0xbe215e50	-0.15758634
14	0x3f07c20b	0.5303046
15	0x3e8f138a	0.27944595
16	0xbebfb33e	-0.37441438
17	0xbbc08bb8	-0.005876031
18	0x3f080fec	0.53149295
19	0x3e77d832	0.24203566
20	0x3e49e76f	0.19717191
21	0xbeabd307	-0.3355944
22	0xbeb47348	-0.35244203
23	0x3e6688f0	0.22513175
24	0xbe19881d	-0.1499333
25	0x3eb96906	0.3621294
26	0x3ed3d185	0.41370788
27	0x3e8785c3	0.2646924
28	0xbe5745f6	-0.21022782
29	0xbe98f545	-0.29874626
30	0x3e092af0	0.13395286
31	0x3dfa1882	0.12211706
32	0x3f0865cd	0.53280336
33	0xbebd5ae0	-0.36983395
34	0x3f082983	0.5318834
35	0xbea575d0	-0.32316446
36	0x3d817795	0.063216366
37	0x3f0bf587	0.5467152
38	0xbde5b5dc	-0.112163275
39	0xbdcd2def	-0.10018527
40	0xbea8b592	-0.32951027
41	0x3b41120e	0.0029460224
42	0xbef0eaad	-0.47054043
43	0xbefbc699	-0.49174955
44	0x3d5f4297	0.054506864
45	0xbeda81e7	-0.42677233
46	0xbdb9382f	-0.09043919
47	0xbe11b739	-0.1423005
48	0xbcefa572	-0.029253695
49	0xbeb9290b	-0.36164126
50	0x3e13101c	0.14361614
51	0xbef208bc	-0.4727229
52	0xbe9db2e1	-0.30800536
53	0x3ebf9f2d	0.3742613
54	0x3e0dd0e5	0.13849218
55	0x3e2462d5	0.16053326
56	0x3f0a9c31	0.5414458
57	0xbe11b0ef	-0.14227651
58	0x3eed67d3	0.46368274
59	0x3dd6136d	0.10452924
60	0xbe53c2f8	-0.20679843
61	0xbe14e82c	-0.14541692
62	0xbea4ec39	-0.32211474
63	0x3f0f0ad1	0.5587588
64	0xbe87f59b	-0.2655457
65	0x3cd9d50b	0.026590845
66	0xbeab716b	-0.3348497
67	0xbe49de75	-0.19713767
68	0xbe1dd84d	-0.15414543
69	0xbe7b2bb2	-0.24528387
70	0xbe9511f8	-0.29115272
71	0xbe55bf10	-0.20873666
72	0xbee60cb2	-0.4493156
73	0xbf0df8cf	-0.55457777
74	0x3e02b606	0.12764749
75	0x3e8a5c86	0.27023715
76	0xbf16c7b7	-0.5889849
77	0x3f16ae9a	0.5886017
78	0xbe8eca1d	-0.27888575
79	0x3e87360f	0.2640843
80	0xbe971969	-0.29511574
81	0x3e1719b1	0.14755894
82	0x3ea315da	0.3185261
83	0xbe6d6d2b	-0.23186176
84	0xbeb2c857	-0.34918472
85	0x3e51c2a2	0.20484403
86	0xbdb9aa3d	-0.090656735
87	0x3e80c2f3	0.25148734
88	0x3e355653	0.17708711
89	0x3efb4ba9	0.49081162
90	0x3eaf1380	0.34194565
91	0x3ef312a3	0.47475156
92	0x3ef71553	0.48258457
93	0x3f02c05d	0.51074773
94	0xbe1a21fa	-0.15052024
95	0xbe9a2e5d	-0.30113497
96	0x3f08fa7d	0.53507215
97	0x3de814b6	0.11332075
98	0x3dd1b396	0.102393314
99	0x3cd8a94e	0.026447918
100	0xbf0935df	-0.53597826
101	0xbe9be29e	-0.30446333
102	0xbd592e22	-0.05302251
103	0xbeb47459	-0.35245016
104	0xbe205f61	-0.15661384
105	0xbdb6ebf1	-0.08931721
106	0xbedb39b1	-0.42817453
107	0xbe882ed2	-0.2659822
108	0x3e9114da	0.2833622
109	0xbed666f3	-0.4187542
110	0xbca20ebb	-0.019782415
111	0x3e575f94	0.21032554
112	0xbef34e3e	-0.47520632
113	0xbf190a9a	-0.597818
114	0x3e341521	0.17586185
115	0xbf248cbc	-0.64277244
116	0xbe1cd005	-0.15313728
117	0xbe8637fc	-0.26214588
118	0xbec96570	-0.39335203
119	0x3ee77a55	0.4521052
120	0x3c63a434	0.01389413
121	0xbed36401	-0.41287234
122	0x3df9a250	0.12189162
123	0x3e1a0dfa	0.15044394
124	0xbf1059b2	-0.56386864
125	0x3eb43b83	0.35201654
126	0x3d1236e4	0.03569688
127	0x3edd973f	0.43279454

actor.2.weight f4 [128, 128]
0	0xbc996fcc	-0.018730067
1	0x3ca2156f	0.019785611
2	0x3e17c5da	0.14821568
3	0x3dd097d0	0.10185206
4	0x3ccbde5a	0.024886299
5	0xbd6984ce	-0.057011418
6	0xbf10f97a	-0.5663067
7	0x3c90856a	0.017641742
8	0x3b37bbbf	0.002803549
9	0x3c72f7ed	0.014829618
10	0x3c9ecf21	0.019385876
11	0xbb0fc8d8	-0.002193978
12	0x39a3391d	0.00031132335
13	0x3e116769	0.14199604
14	0x3d9d88aa	0.07692082
15	0xbd81e8d3	-0.06343236
16	0xbd41cae8	-0.047312647
17	0xbbe0a684	-0.0068557877
18	0x3c041725	0.008062159
19	0xbd831f65	-0.064024724
20	0x3d28387e	0.0410695
21	0xbdcd1b05	-0.10014919
22	0x3da74ea7	0.081692986
23	0xbd1dcd91	-0.03852612
24	0x3d5ef53d	0.054433096
25	0xbcaddd27	-0.021223618
26	0x3db9a8a1	0.090653665
27	0x3d76db62	0.060267814
28	0x3e193471	0.14961411
29	0xbd8241fd	-0.063602425
30	0xbc98d4e6	-0.018656205
31	0xbd39b15a	-0.04533515
32	0xbc95752c	-0.018244348
33	0xbe9a10ca	-0.30090934
34	0x3c8df8e7	0.0173306
35	0xbd2958c3	-0.041344415
36	0xbd87168a	-0.06596096
37	0xbd5f6f14	-0.05454929
38	0xbe1c6af5	-0.15275176
39	0xbe9c868c	-0.305714
40	0xbd2ca0b7	-0.042145457
41	0xbce1ded5	-0.027572075
42	0xbd400cca	-0.046887197
43	0xbd8f5b16	-0.06999795
44	0xbcafbf0c	-0.021453403
45	0xbd79cc39	-0.060985778
46	0xbc97f0b5	-0.018547395
47	0x3d5f0dee	0.054456644
48	0xbe33cc5d	-0.17558427
49	0xbd623dbd	-0.05523466
50	0x3be44e4f	0.006967343
51	0x39bc658a	0.00035933807
52	0x3dad6cf2	0.08468045
53	0xbd39b0ad	-0.045334507
54	0x3d73e6b2	0.05954618
55	0xbdf0c6d7	-0.11756676
56	0xbad78c0b	-0.0016444934
57	0xbcd38388	-0.025819555
58	0xbc7ab489	-0.015301832
59	0xbc6e5040	-0.0145455
60	0xbe5d395a	-0.21603909
61	0x3da048c2	0.078263775
62	0xbd9570db	-0.07296916
63	0x3c94b444	0.018152364
64	0xbc422663	-0.011849972
65	0xbc50e30a	-0.012749443
66	0xbcbc515f	-0.02298802
67	0x3db6713d	0.08908317
68	0xbee029b9	-0.43781832
69	0xbe157a9c	-0.14597553
70	0x3d22b3b7	0.03972217
71	0xbe2f3b22	-0.17112401
72	0x3dba3f6f	0.0909413
73	0x3b610f68	0.0034341458
74	0x3cdfe947	0.027332915
75	0x3d0f7638	0.03502485
76	0x3f3dd6e9	0.7415605
77	0x3d859d80	0.06524181
78	0xbd2a0ceb	-0.041516226
79	0xbd8318b6	-0.064011976
80	0x3dd38f12	0.10330023
81	0xbe270c04	-0.16313177
82	0xbd17e03d	-0.037079085
83	0xbd5611f1	-0.052263204
84	0xbb880d6e	-0.0041519916
85	0xbde62be1	-0.11238838
86	0xbe3d1182	-0.1846371
87	0x3d4cd6be	0.05000948
88	0xbdf46c1f	-0.11934685
89	0x3e014bb0	0.12626529
90	0xbc5161cb	-0.012779663
91	0x3db9bcad	0.0906919
92	0x3ca74a61	0.020421209
93	0xbdf43381	-0.11923886
94	0xbe6837a7	-0.2267748
95	0xbc4086e7	-0.011750913
96	0x3da5eab3	0.08101406
97	0x3d6e8947	0.058236387
98	0xbbfc01d5	-0.007690648
99	0x3e0922a1	0.13392116
100	0xbdd52dc2	-0.10409118
101	0x3e1c1f51	0.15246321
102	0xbc23faa4	-0.010008488
103	0xbd655ed2	-0.05599863
104	0x3e5926ab	0.21206157
105	0x3dc25af6	0.09490006
106	0xbdbfcb9c	-0.09365007
107	0x3d7080f5	0.058716733
108	0xbe23da8d	-0.1600134
109	0xbdbcea0d	-0.09224329
110	0x3c19c45e	0.0093851965
111	0x3d7b4d63	0.0613531
112	0xbdfe6a78	-0.12422651
113	0xbdddfbf1	-0.1083907
114	0x3d2fdbd2	0.042934246
115	0x3f0bf293	0.54667014
116	0xbde731b3	-0.11288776
117	0x3c056fb2	0.008144306
118	0x3dd16c13	0.10225692
119	0xbd2a7c07	-0.041622188
120	0x3d9ffde9	0.078121014
121	0xbcbc45f0	-0.022982568
122	0x3cb7cd91	0.022436889
123	0xbd03784b	-0.032097142
124	0xbddc3895	-0.1075298
125	0x3d9ffd34	0.078119665
126	0xbd02a1b8	-0.03189251
127	0xbbf846af	-0.0075767855
128	0xbe5a6cff	-0.21330641
129	0x3d53eb49	0.051738057
130	0xbdd63893	-0.104600094
131	0xbefd4524	-0.49466813
132	0x3ca090d1	0.019600304
133	0x3c5262d5	0.012840946
134	0x3e029717	0.12752949
135	0x3ca71f98	0.020400807
136	0x3b990009	0.0046691936
137	0x3e086364	0.13319165
138	0x3cad9561	0.021189393
139	0xbdb96143	-0.09051754
140	0x3c92d6e0	0.017924726
141	0x3e05e136	0.13074192
142	0x3d754c8c	0.059887454
143	0x3dc737cb	0.097274385
144	0xbf07ad6e	-0.5299901
145	0xbda16f2e	-0.07882534
146	0xbd44fe4d	-0.048094083
147	0x3dbdb4a0	0.09262967
148	0x3dd120b1	0.102113135
149	0x3d434a6a	0.04767839
150	0xbd551c9c	-0.052029237
151	0xb7d42751	-2.5290678e-05
152	0xbdae1de9	-0.08501799
153	0xbd204fde	-0.039138667
154	0xbdb0b596	-0.08628385
155	0xbdd60326	-0.10449819
156	0x3bf5fa24	0.0075066257
157	0x3d515998	0.051110834
158	0x3d64e4ee	0.055882387
159	0x3da694e7	0.081338696
160	0x3d8c6891	0.06855882
161	0xbc83ea52	-0.016102944
162	0xbd129484	-0.035786167
163	0xbd7b1b88	-0.061305553
164	0x3d62d7dc	0.05538164
165	0xbd7b1ee0	-0.06130874
166	0x3d14677a	0.036231495
167	0x3dfe9624	0.12430981
168	0xbc27081b	-0.010194804
169	0xbe301271	-0.17194535
170	0xbf2392e1	-0.63895994
171	0x3da7cb11	0.08193029
172	0xbe00663e	-0.12539002
173	0x3d7e6450	0.062107384
174	0x3de03719	0.10948009
175	0x3dab5f3d	0.08367775
176	0x3d96f037	0.07370036
177	0xbd85f6ca	-0.06541212
178	0xbd7046fe	-0.058661453
179	0xbdae9c9a	-0.08525963
180	0x3d49189b	0.04909573
181	0x3db80754	0.08985773
182	0xbdc42e19	-0.09579105
183	0xbca79bc4	-0.020460017
184	0xbbddda46	-0.006770405
185	0x3d7e4e6e	0.062086515
186	0x3d2d03a3	0.042239796
187	0x3c156b61	0.009119839
188	0x3da055fb	0.078288995
189	0x3d9ebbaf	0.077506416
190	0x3d878127	0.06616431
191	0x3e08f82d	0.13375922
192	0x3dd0d93a	0.10197683
193	0xbcd2197f	-0.025646923
194	0x3b969dfd	0.0045964704
195	0x3bc47222	0.005995051
196	0x3d08cc94	0.033398226
197	0x3da5475d	0.08070252
198	0x3c1e23c3	0.009652081
199	0xbc456273	-0.012047398
200	0xbd00e020	-0.031463742
201	0xbe30db3a	-0.17271128
202	0xbcb3e008	-0.021957412
203	0xbd82ddf9	-0.06389994
204	0xbf6954a7	-0.91144794
205	0xbcfca085	-0.03083826
206	0x3d5b9dba	0.053617217
207	0x3da03f3a	0.078245595
208	0xbaf9d0b9	-0.0019059397
209	0x3d6357fc	0.05550383
210	0x3db2aee1	0.08724762
211	0xbdb93286	-0.0904284
212	0x3d32e972	0.043679662
213	0x3c9ad0b8	0.018898353
214	0x3d5d4b3e	0.054026835
215	0xbd816308	-0.06317717
216	0xbb21a763	-0.002466642
217	0x3c8fc6c9	0.017550843
218	0x3bfe3637	0.0077579278
219	0xbd470828	-0.048591763
220	0x3dd6b2be	0.10483311
221	0x3ce9c6bb	0.028537145
222	0x3d8506b3	0.064954184
223	0xbd901696	-0.07035558
224	0x3d9e092b	0.077165924
225	0xbdb8cd0e	-0.09023486
226	0xbdc7e2cd	-0.09760056
227	0x3d6e7e61	0.058225993
228	0x3e472044	0.19445902
229	0x3d274fca	0.040847577
230	0xbdeffd5a	-0.11718245
231	0xbe38b801	-0.18038942
232	0xbd1b2048	-0.037872583
233	0xbc47e70a	-0.01220108
234	0xbd3b9b19	-0.04580221
235	0xbe3538e8	-0.1769749
236	0x3d96fd7f	0.07372569
237	0x3dc538e6	0.09629993
238	0xbdcb2771	-0.09919632
239	0xbc4c84c3	-0.012482825
240	0x3daa0549	0.08301789
241	0xbc83c609	-0.016085641
242	0xbd1ca908	-0.03824714
243	0xbf477358	-0.77910376
244	0xbd8c3be1	-0.068473585
245	0x3e154304	0.14576346
246	0x3d7be766	0.061499976
247	0xbc9592d6	-0.018258493
248	0x3a845558	0.0010096235
249	0x3dad423c	0.08459899
250	0x3d1c3e13	0.038145136
251	0xbb2fe62f	-0.002684008
252	0xbe10d7ce	-0.14144823
253	0xbd522649	-0.051306043
254	0xbd3cc6e1	-0.046088103
255	0x3d8b0b02	0.06789209

actor.2.bias f4 [128]
0	0x3d43d848	0.047813684
1	0x3d135070	0.035965383
2	0x3db8739b	0.09006425
3	0x3d19dd29	0.03756443
4	0x3cff7508	0.031183735
5	0xbd9b3707	-0.07578855
6	0x3c20f90d	0.009825003
7	0xbcdb4a0c	-0.026768707
8	0xbdc53bd9	-0.09630556
9	0x3c21a4e2	0.009865971
10	0xbd0cb377	-0.03435084
11	0xbdcef36c	-0.10105023
12	0xbc481797	-0.0122126555
13	0xbd21d7ff	-0.03951263
14	0xbdbaefc1	-0.09127761
15	0xbd04be37	-0.032407966
16	0xbd417190	-0.047227442
17	0x3d9812a2	0.07425429
18	0x3d32adee	0.043622904
19	0x3d491653	0.049093556
20	0x3d33b137	0.043870177
21	0xbd28ad75	-0.041181047
22	0xbd1f3848	-0.038872033
23	0x3db3835d	0.0876529
24	0x3cd50f30	0.026008219
25	0xbb87c1e1	-0.004142985
26	0xbcfc41c7	-0.030793084
27	0x3d769437	0.060199942
28	0xbd670eca	-0.05641059
29	0xbcc046a3	-0.023471182
30	0x3de613bb	0.11234232
31	0x3d4171b5	0.04722758
32	0xbe03da8b	-0.12876336
33	0xbda91b94	-0.08257213
34	0x3d9791e8	0.07400876
35	0xbcc816b7	-0.024424894
36	0x3d984603	0.07435229
37	0xbcfee89e	-0.03111678
38	0x3d49fe6f	0.049314912
39	0x3d90e82e	0.07075535
40	0xba97989e	-0.0011565869
41	0x3dc3162b	0.095257126
42	0xbd341a51	-0.04397041
43	0x3d8392b2	0.06424464
44	0x3d01f014	0.031723097
45	0x3da2634f	0.07929098
46	0xbd00b2a3	-0.03142036
47	0x3ccde036	0.025131326
48	0xbcf22e27	-0.029563023
49	0xbbac3f41	-0.005256564
50	0x3de08ca9	0.10964329
51	0xbce55854	-0.02799622
52	0x3d51edac	0.051252052
53	0x3cd200be	0.02563512
54	0x3dcfe1ea	0.101505116
55	0xbc3014df	-0.010747164
56	0xbd180cc2	-0.03712154
57	0x3dc713a2	0.097205415
58	0xbd32ece8	-0.043682963
59	0x3d9d9cdc	0.07695934
60	0xbd06ea0c	-0.03293805
61	0xbd4d9963	-0.05019511
62	0xbdae3d5c	-0.08507797
63	0x3d6e7856	0.05822023
64	0xbd868551	-0.06568397
65	0x3c915af6	0.017743569
66	0x3d176e6d	0.036970545
67	0x3cb479f4	0.022030808
68	0x3d31fd8d	0.043454695
69	0x3d9eeeec	0.077604145
70	0x3d69c8b8	0.057076186
71	0x3d3b3025	0.04570021
72	0xbb931c95	-0.004489491
73	0x3d86f4a4	0.0658963
74	0x3d98ecab	0.07467016
75	0xbd138d7e	-0.03602361
76	0xbcbc6443	-0.022997027
77	0xbca8654a	-0.02055611
78	0xb90d2e58	-0.00013464072
79	0xbd67b392	-0.056567736
80	0xbcf35397	-0.029702945
81	0xbc296a3a	-0.010340268
82	0x3d4ce796	0.050025545
83	0xbd823146	-0.063570544
84	0xbd41fd4e	-0.04736071
85	0xbd14747f	-0.03624391
86	0xbc8aeaa2	-0.016957585
87	0x3d5b253f	0.053502318
88	0x3b9f15b2	0.004854881
89	0xbda17b62	-0.078848615
90	0x3d7823de	0.06058108
91	0x3e05ee0f	0.13079093
92	0xbd9d2971	-0.0767392
93	0x3c48fc8d	0.012267244
94	0x3d8ad1e0	0.06778312
95	0xbda861c7	-0.082217745
96	0x3d2db553	0.042409252
97	0xbdb00776	-0.08595173
98	0xbdef15da	-0.1167409
99	0xbd7dcb7d	-0.06196164
100	0x3daf5b65	0.08562354
101	0x3d2f7b78	0.04284236
102	0x3dcc37da	0.0997159
103	0xbd089c85	-0.033352394
104	0xbd3cb6c4	-0.046072736
105	0x3daf827e	0.08569811
106	0x3dd951b3	0.10611286
107	0xbcc7f90a	-0.024410743
108	0x3d8ba0ff	0.06817817
109	0x3db18304	0.08667567
110	0x3cc8bfd7	0.024505539
111	0x3d6846c8	0.056708127
112	0x3d18af02	0.037276275
113	0xbdbf7711	-0.09348882
114	0x3d3fed37	0.046857085
115	0x3d906dd7	0.070522
116	0xbc448073	-0.011993515
117	0xbd24bcf1	-0.04021925
118	0x3cbf8bd0	0.023382097
119	0xbd098672	-0.033575483
120	0x3dd055f6	0.10172646
121	0x3daabda8	0.08336955
122	0x3dc1ffad	0.094725944
123	0x3daaef43	0.08346417
124	0xbc3e93b4	-0.011631895
125	0xbce42ab4	-0.027852394
126	0xbd909486	-0.070595786
127	0xbbdd1606	-0.00674701

actor.4.weight f4 [1, 128]
0	0xbdbfd95f	-0.09367632
1	0x3e2545b6	0.16139874
2	0x3db69786	0.089156196
3	0xbd8c639d	-0.06854937
4	0xbdb97393	-0.09055247
5	0x3dbf7b17	0.093496494
6	0x3e40df1d	0.18835111
7	0xbe0541cd	-0.13013382
8	0xbe8d99e6	-0.27656478
9	0x3e2bace9	0.16765179
10	0xbd3d59a4	-0.046228066
11	0xbe0fc2e3	-0.14039187
12	0x3ebe5484	0.37173855
13	0x3d19d67b	0.03755806
14	0xbde54553	-0.11194863
15	0x3e05dd2d	0.13072653
16	0xbec70a18	-0.38874888
17	0xbdabf8c1	-0.083970554
18	0x3e1439ee	0.14475223
19	0xbda262c9	-0.07928998
20	0xbdc6892a	-0.09694131
21	0x3d1ecd3f	0.038769957
22	0xbdec4853	-0.11537232
23	0xbd7d1b31	-0.06179351
24	0xbe093208	-0.13397992
25	0x3e5c624d	0.21521874
26	0x3da16255	0.078800835
27	0xbd2cec9b	-0.042217832
28	0xbece5a7e	-0.40303415
29	0xbe066958	-0.13126123
30	0x3ef04d35	0.46933904
31	0xbd790387	-0.06079438
32	0x3e0df9b3	0.13864784
33	0x3da4b9a9	0.08043224
34	0xbd971c54	-0.0737845
35	0xbd9f2cb0	-0.07772195
36	0xbdfbf41a	-0.12302418
37	0xbe8835bd	-0.266035
38	0xbdb839c4	-0.08995393
39	0xbd8e6e19	-0.06954593
40	0xbe341261	-0.17585136
41	0x3e295a5d	0.16538377
42	0x3da0184b	0.078171335
43	0xbcfcf89a	-0.030880261
44	0x3e384863	0.17996363
45	0x3e34265e	0.17592761
46	0x3e3a1a45	0.18174084
47	0x3e1de2bd	0.15418525
48	0xbd7f7849	-0.062370572
49	0xbe169084	-0.14703566
50	0xbee4a2ce	-0.4465546
51	0xbe4df245	-0.2011195
52	0x3e51579e	0.2044358
53	0xbd920993	-0.071307324
54	0x3f1093c4	0.5647547
55	0xbdbd664b	-0.092480265
56	0x3d83bb68	0.06432229
57	0x3e8261fd	0.25465384
58	0xbe1541dd	-0.14575906
59	0x3e74ceb8	0.23906982
60	0x3e3b8ebd	0.18316169
61	0xbd815bea	-0.06316359
62	0xbd115dc1	-0.0354898
63	0xbd7b5378	-0.0613589
64	0xbcdb151a	-0.02674346
65	0xbe5ff497	-0.21870647
66	0xbe389c98	-0.18028486
67	0x3ec5024d	0.38478318
68	0xbd933120	-0.07187104
69	0x3e0351c5	0.12824161
70	0xbe2fec7b	-0.17180054
71	0xbe965b0b	-0.29366335
72	0x3d4fac52	0.050701447
73	0x3e54e839	0.20791711
74	0xbe24d432	-0.16096571
75	0x3e84b869	0.25921944
76	0x3e6e1b7a	0.23252669
77	0xbe186a04	-0.14884192
78	0x3d4d6a47	0.050150182
79	0x3dea8e71	0.1145295
80	0xbdd29a45	-0.10283331
81	0xbe6f8e22	-0.23394063
82	0x3dad3fdd	0.084594466
83	0x3e56610a	0.20935455
84	0xbe5129ce	-0.20426103
85	0x3df3cbca	0.11904104
86	0x3ea55b5f	0.32296273
87	0xbdde67ab	-0.10859617
88	0x3e83b3a1	0.25722983
89	0xbd0c014e	-0.03418093
90	0x3efaa06b	0.48950514
91	0x3e6ad320	0.229321
92	0xbddd42cd	-0.10803757
93	0xbe87864f	-0.26469657
94	0xbc75b1b6	-0.014995983
95	0x3ced9187	0.029000057
96	0x3e2889eb	0.16458862
97	0x3e31c22a	0.17359224
98	0x3e0459f4	0.1292494
99	0x3ee3532a	0.44399387
100	0xbd6399ad	-0.05556648
101	0x3d9495f8	0.07255167
102	0xbe1fb886	-0.15597734
103	0x3de947b8	0.113906324
104	0xbdc6196e	-0.09672819
105	0xbe44190b	-0.19150178
106	0x3e8052e5	0.25063244
107	0xbe3f0868	-0.1865555
108	0xbe38ca41	-0.18045904
109	0xbe284b2a	-0.16434923
110	0xbe642e5f	-0.22283314
111	0x3d86cdea	0.06582244
112	0x3d10cead	0.03535335
113	0xbe7dcf4d	-0.2478611
114	0x3dcfb60f	0.10142147
115	0xbdeb3714	-0.11485115
116	0xbd396e3c	-0.045271143
117	0xbd8a7f8c	-0.06762609
118	0x3d7b075d	0.06128632
119	0xbe5d5e76	-0.21618065
120	0x3e3e4f52	0.18584946
121	0xbd7d0457	-0.061771717
122	0x3e455f6e	0.19274685
123	0x3d7a2d26	0.061078213
124	0xbe06aa2c	-0.13150853
125	0xbe3bea3f	-0.18351077
126	0x3f3ba347	0.73296016
127	0xbd515630	-0.051107585
