hw3/preTrained/ddpg_critic_Pendulum-v1_05062024_013452_.pth (torch_old, 70202 bytes, 5 tensors)

critic.0.weight f4 [128, 4]
0	0xbefe16d0	-0.4962678
1	0x3e6a7147	0.22894774
2	0xbe51213d	-0.20422836
3	0x3ce16497	0.027513785
4	0xbede4a2e	-0.4341597
5	0xbf7f49b8	-0.9972186
6	0x3e8c9c80	0.2746315
7	0xbef75cc9	-0.48312977
8	0xbf06e586	-0.52693975
9	0xbf0e6fc4	-0.5563929
10	0xbe2da1c5	-0.16956241
11	0x3d9d0763	0.076674245
12	0xbf006037	-0.5014681
13	0x3f114734	0.5674927
14	0xbe50c37c	-0.20387071
15	0xbdcbbdb5	-0.09948293
16	0xbf9554d5	-1.1666514
17	0x3f475c98	0.7787566
18	0xbe105519	-0.14094962
19	0xbc9c01eb	-0.019043883
20	0x4003e38e	2.0607638
21	0xbf412139	-0.7544132
22	0xbeb08f41	-0.34484294
23	0x3e496dca	0.19670787
24	0x3ee9e566	0.4568283
25	0x3e0e0636	0.13869557
26	0xbe3e68d1	-0.18594672
27	0x3ed2321d	0.41053858
28	0xbe586671	-0.21132828
29	0xbf461958	-0.7738242
30	0xbe08231a	-0.1329464
31	0xbe41427a	-0.18873015
32	0xbf544657	-0.8291983
33	0x3e428eef	0.18999837
34	0x3e552f25	0.20818765
35	0xbd85ad32	-0.06527175
36	0x3f09daea	0.5384966
37	0x3fa21054	1.2661233
38	0x3e557cf8	0.20848453
39	0x3d8f2d0a	0.069910124
40	0xbf830f4e	-1.0239046
41	0x3f28c8c1	0.65931326
42	0x3e11bf58	0.14233148
43	0xbea29dfe	-0.31761163
44	0xbf602f1f	-0.875719
45	0x3f35e058	0.71045446
46	0x3e8a3042	0.26989943
47	0x3d656b2d	0.056010414
48	0xbf864a10	-1.0491352
49	0x3e6bcbea	0.23027006
50	0x3e0b25dd	0.13588662
51	0x3dc773be	0.09738873
52	0x401f2c5a	2.487082
53	0xbeb29a1d	-0.34883204
54	0xbeb90499	-0.3613632
55	0x3e909bfc	0.28244007
56	0xbe40326e	-0.18769237
57	0xbfbef951	-1.4919835
58	0xbf09cf7f	-0.5383224
59	0x3dd4eb54	0.10396448
60	0x3e5290fc	0.2056312
61	0xbcb51bff	-0.022108076
62	0x3b406f2d	0.002936314
63	0xbe719e76	-0.23595604
64	0xbf21c5db	-0.6319253
65	0xbf4eef75	-0.8083413
66	0xbea3d8b6	-0.32001275
67	0x3d7625ab	0.060094517
68	0x3d1771f0	0.036973894
69	0x3f93b33c	1.1539073
70	0xbe918b80	-0.28426743
71	0x3f86eb10	1.0540485
72	0x3d08fcb3	0.033444118
73	0x402d20bb	2.7051227
74	0x3f152173	0.58254164
75	0x3e129d76	0.14317879
76	0x3dd4a184	0.10382369
77	0xbf47a21f	-0.7798175
78	0xbf0f539b	-0.55986947
79	0x3d9cf3cb	0.07663687
80	0x3ed427d3	0.41436633
81	0xbe70d8f6	-0.23520264
82	0x3e9985a1	0.29984763
83	0x3f46ef9a	0.7770935
84	0xbe12ef03	-0.14348988
85	0x3d98b28c	0.0745593
86	0xbeb9b7f1	-0.3627315
87	0xbe6d77e7	-0.2319027
88	0xbf0b0ff8	-0.5432124
89	0x3ea00e5b	0.31260952
90	0xbe775731	-0.24154355
91	0x3e5bd5dd	0.21468301
92	0xbdd40990	-0.103533864
93	0x3f316be3	0.6930525
94	0xbd5ebe19	-0.05438051
95	0x3e4b4b5a	0.19852963
96	0xbd70a5e6	-0.058751963
97	0x3edac558	0.42728686
98	0x3d45c693	0.04828508
99	0x3e735c40	0.2376566
100	0xbe21c114	-0.1579631
101	0xbfa87491	-1.3160573
102	0xbecba1ea	-0.39771968
103	0x3cb79e58	0.022414371
104	0xbf6f447e	-0.93463886
105	0x3f75f50f	0.96077055
106	0x3ea28d62	0.31748492
107	0x3dabe6cd	0.08393631
108	0xbf25fa04	-0.6483462
109	0xbef621ef	-0.48072764
110	0x3e64138d	0.22273083
111	0x3d7737a7	0.06035581
112	0xbec013d7	-0.37515137
113	0x3ff76728	1.9328356
114	0x3ebb3e49	0.36570957
115	0x3dc51895	0.09623829
116	0xbf2404e6	-0.64069974
117	0x3f5386ac	0.8262737
118	0xbe5435c3	-0.20723633
119	0x3d3527b6	0.044227324
120	0xbe9c1cf9	-0.30490854
121	0x3dd7da4e	0.10539685
122	0x3e31d1fd	0.1736526
123	0x3e82954c	0.2550453
124	0xbf1ff577	-0.62483925
125	0xbf48921d	-0.7834795
126	0xbe859dba	-0.26096898
127	0xbec603c1	-0.3867474
128	0x3def130d	0.116735555
129	0x3f20a055	0.6274465
130	0xbef64244	-0.48097432
131	0x3d234e48	0.039869577
132	0xbf87602d	-1.0576226
133	0xbe370d9b	-0.17876284
134	0xbeb98fd3	-0.36242542
135	0xbf080c4f	-0.5314378
136	0xbedfa225	-0.43678394
137	0xbec67f6c	-0.3876909
138	0xbe90d378	-0.28286338
139	0xbe806539	-0.25077227
140	0x3f10b240	0.5652199
141	0xbeafa241	-0.34303477
142	0xbe2228a0	-0.1583581
143	0xbf3e5824	-0.7435324
144	0xbd9c3de0	-0.07628989
145	0x3e230aa3	0.15922026
146	0xbcaf7c5f	-0.02142161
147	0xbed1a208	-0.40943933
148	0xbf0f7f24	-0.56053376
149	0xbea424b0	-0.3205924
150	0x3de7e4b6	0.1132292
151	0xbeb04615	-0.34428468
152	0xbd61d861	-0.055137996
153	0xbba4c00d	-0.005027777
154	0xbdc9a74c	-0.098463625
155	0x3dc1af50	0.09457266
156	0xbdd6391f	-0.10460114
157	0x3fd2e058	1.6474714
158	0x3caee9f1	0.021351786
159	0x3d23801f	0.039917108
160	0xbf4cda38	-0.80020475
161	0xbe26c07c	-0.16284364
162	0xbdcddeb3	-0.10052242
163	0xbc99a06b	-0.018753251
164	0xbf9a81d0	-1.2070866
165	0x3e469439	0.1939248
166	0xbe45c860	-0.19314718
167	0xbe3b0d8c	-0.18266886
168	0xbebdf8a2	-0.37103754
169	0xbdbf0ce4	-0.093286306
170	0x3e06e99d	0.13175054
171	0x3e609060	0.21930075
172	0xbe801005	-0.25012222
173	0x3eb5804f	0.35449454
174	0x3f499417	0.7874159
175	0xbee30ab2	-0.44344097
176	0x3cf9007e	0.030395743
177	0xbdfab0b7	-0.12240737
178	0x3f4f6ba6	0.81023633
179	0x3d9636d0	0.073346734
180	0xbe963c3c	-0.2934283
181	0xbfe6f8fe	-1.8044736
182	0x3f0dc921	0.55385023
183	0x3e74b116	0.23895678
184	0xbeb3750f	-0.35050246
185	0xbe2c287b	-0.16812317
186	0x3e3a4396	0.18189844
187	0x3dc08393	0.09400096
188	0x3ffdd55f	1.9830741
189	0x3e9016a6	0.2814228
190	0xbd3dc71a	-0.046332456
191	0xbe7e9a42	-0.24863532
192	0x3ed2af1f	0.41149232
193	0xbf35e5d7	-0.7105383
194	0xbe10e78f	-0.14150833
195	0xbec4a691	-0.3840833
196	0xbf24060b	-0.6407172
197	0xbec5b856	-0.386172
198	0x3e708de8	0.23491633
199	0x3bcafcf6	0.006194706
200	0xbd90ca76	-0.07069866
201	0xbd20c13c	-0.039246783
202	0xbeeb6df5	-0.45982328
203	0x3ecac283	0.39601526
204	0xbf11bf19	-0.56932217
205	0x3e32d6eb	0.17464797
206	0x3eab4622	0.33451945
207	0xbd82a95d	-0.0637996
208	0xbf719a50	-0.9437609
209	0xbf838b1a	-1.0276825
210	0xbd66a313	-0.056307863
211	0x3d08ad34	0.033368304
212	0x3efd98b9	0.4953058
213	0xbfd92a2a	-1.6965992
214	0xbdfb528c	-0.12271604
215	0xbdd4d098	-0.103913486
216	0x3ee54cac	0.44785058
217	0xbef4baf0	-0.47798872
218	0xbebe34e0	-0.37149715
219	0x3d9b83c6	0.07593493
220	0xbf82812c	-1.019567
221	0x3f5f777e	0.87291706
222	0xbeb1947e	-0.34683603
223	0x3e262f02	0.1622887
224	0xbf5b0519	-0.85554653
225	0xbf124bfa	-0.5714718
226	0xbc7c35c5	-0.015393679
227	0x3e49aff0	0.19696021
228	0xbf06bf63	-0.5263578
229	0x3ec52e60	0.38511944
230	0xbe55f1c5	-0.20893009
231	0xbeee13a2	-0.46499354
232	0x3eee6d47	0.46567747
233	0xbe9d52ea	-0.3072732
234	0xbe194660	-0.14968252
235	0x3efe86a1	0.4971209
236	0x3cbbeb35	0.022939304
237	0xc013caa0	-2.3092422
238	0xbeb32438	-0.3498857
239	0xbb20661d	-0.0024474927
240	0x3e8447a0	0.25835896
241	0xbf18be38	-0.5966525
242	0xbe328e83	-0.17437176
243	0xbf18721a	-0.59549105
244	0x3e0b02fa	0.13575354
245	0xc00762a5	-2.1153958
246	0xbea0a416	-0.31375188
247	0x3d0e0546	0.034672998
248	0x3e573475	0.21016105
249	0xbf208598	-0.6270385
250	0x3f0f7f26	0.5605339
251	0x3ebbb5b0	0.36662054
252	0xbd623bfd	-0.05523299
253	0xbdcc1369	-0.0996464
254	0xbf058d88	-0.52169085
255	0xbdff39df	-0.1246221

critic.0.bias f4 [128]
0	0xbf651d26	-0.894976
1	0x3f3db938	0.74110746
2	0x3f2a71f9	0.6658016
3	0xbf14081d	-0.5782488
4	0x3cce0763	0.025150007
5	0xbe8ffa8a	-0.28120834
6	0x3f5f2b18	0.8717513
7	0x3f1a46ba	0.6026417
8	0x3f54e500	0.83161926
9	0xbd97cf0d	-0.07412539
10	0x3e64ae8d	0.22332211
11	0x3f3f1a4b	0.74649495
12	0x3e9c96c4	0.30583775
13	0x3e3223d3	0.17396478
14	0x3ec9bf8e	0.39403957
15	0x3f9035d1	1.1266423
16	0xbe717c20	-0.23582506
17	0x3f0aac87	0.54169506
18	0xbe81fbf2	-0.25387532
19	0xbf0f50d8	-0.5598273
20	0x3f8864f0	1.0655804
21	0xbf42c7d9	-0.76086193
22	0x3e13b736	0.14425358
23	0x3f80fe53	1.0077614
24	0xbf0761a9	-0.5288339
25	0x3e7e4ecd	0.24834748
26	0x3f45902f	0.7717313
27	0x3f533a48	0.82510805
28	0xbd0bc832	-0.034126468
29	0xbea41a49	-0.32051304
30	0x3f8b053b	1.0860971
31	0x3f082427	0.53180164
32	0xbde60df8	-0.11233133
33	0x3d28c03b	0.04119895
34	0x3f6f4ff5	0.9348138
35	0x3f654aad	0.8956707
36	0x3f8d5717	1.1042203
37	0x3f220017	0.6328139
38	0x3f1aafb8	0.60424376
39	0xbe8a2f92	-0.26989418
40	0x3e93096a	0.2871812
41	0xbdc636e6	-0.0967844
42	0x3f5c3c42	0.86029446
43	0xbee8b679	-0.45451716
44	0xbee7489d	-0.45172587
45	0x3e91b174	0.28455698
46	0x3f80ac13	1.0052513
47	0xbe894720	-0.26812077
48	0x3f5af138	0.8552432
49	0x3f842539	1.032386
50	0xbf2a6e33	-0.665744
51	0x3f24dd2a	0.6439997
52	0x3dfcdda7	0.12346964
53	0x3f1fb9c3	0.62392825
54	0xbc2eb7de	-0.010663955
55	0x3ef9d14a	0.48792487
56	0xbb18789e	-0.0023265253
57	0x3efd85f8	0.49516273
58	0x3f655d2c	0.89595294
59	0x3db2b404	0.087257415
60	0x3f329302	0.69755566
61	0x3e05c610	0.13063836
62	0xbec5662c	-0.38554513
63	0xbf6e0494	-0.92975736
64	0x3efe673b	0.49688134
65	0x3b05b5b8	0.0020402502
66	0x3f1950e3	0.5988905
67	0xbfd1bbe0	-1.638546
68	0x3dfa1b52	0.12212242
69	0x3f86cad2	1.0530646
70	0x3f364369	0.7119661
71	0xbfb991a6	-1.4497573
72	0x3f53d0d1	0.82740504
73	0x3f4b1b0b	0.7933814
74	0x3e959c2c	0.29220712
75	0x3ede1c12	0.4338079
76	0xbefac174	-0.48975718
77	0x3e27e76b	0.16396873
78	0xbe4cb70a	-0.19991699
79	0xbe681596	-0.22664484
80	0xbf0f819f	-0.5605716
81	0x3f532840	0.8248329
82	0x3f2c8510	0.6739054
83	0xbe0c2d23	-0.13689093
84	0x3ed76bf4	0.4207455
85	0x3f4615f6	0.7737726
86	0x3f33fc44	0.703068
87	0x3ed600b2	0.41797405
88	0x3f810044	1.0078206
89	0x3d12be23	0.03582586
90	0x3f88639c	1.0655398
91	0x3f8241ca	1.0176327
92	0xbdb062f7	-0.08612626
93	0x3f1028d7	0.56312317
94	0x3f476baf	0.7789869
95	0x3f2eff10	0.68357944
96	0x3e95ee8e	0.29283565
97	0x3f4425ba	0.76620066
98	0x3edab9b4	0.42719805
99	0x3e85ed3b	0.26157555
100	0xbf03f7c0	-0.5154991
101	0xbef2cc67	-0.47421572
102	0xbd9db736	-0.0770096
103	0x3f141527	0.57844776
104	0xbe931746	-0.28728694
105	0x3f3af65d	0.7303217
106	0x3dcb7ba2	0.099356905
107	0xbfa884b7	-1.3165501
108	0x3f1ef99d	0.6209963
109	0x3f4f91c9	0.81081825
110	0x3e9a8c68	0.30185246
111	0xbe7c3e71	-0.24633195
112	0xbf08c50a	-0.5342566
113	0x3f05100d	0.51977617
114	0x3f6bc556	0.92097986
115	0x3eae0770	0.3399005
116	0xbdcb5393	-0.0992805
117	0x3e92870b	0.28618655
118	0xbe1ff27f	-0.15619849
119	0x3f5b6d79	0.85713917
120	0xbe7e4149	-0.24829592
121	0xbf4b715e	-0.7946986
122	0x3ee9af84	0.4564172
123	0xbf285d12	-0.65767014
124	0x3f47a532	0.77986443
125	0x3ed8c727	0.4233944
126	0xbf7eee9d	-0.99582845
127	0x3f7c1d76	0.98482454

critic.2.weight f4 [128, 128]
0	0xbda23763	-0.079207204
1	0xbd7b8f66	-0.061416052
2	0x3d8d13b8	0.06888527
3	0xbcf53d78	-0.029936537
4	0xbd7a2bab	-0.0610768
5	0x3b8f6558	0.004376095
6	0xbca76032	-0.020431612
7	0x3d9dfe26	0.077144906
8	0x3d911b8c	0.07085332
9	0x3c53b298	0.012920998
10	0x3c6209ac	0.013796251
11	0xbcc720e3	-0.024307674
12	0x3d7c03f9	0.061527226
13	0xbd6868e1	-0.056740645
14	0xbd673d33	-0.05645485
15	0xbcefa815	-0.029254952
16	0x3d1d2c96	0.0383726
17	0xbda66107	-0.08123975
18	0xbd8508e5	-0.06495837
19	0x3d0e2208	0.034700423
20	0x3b411b54	0.0029465752
21	0xbd579335	-0.052630622
22	0x3d1caccc	0.03825073
23	0x3b67e293	0.0035382851
24	0xbc370298	-0.011170052
25	0x3d991485	0.07474617
26	0xbcb1fb98	-0.021726415
27	0xbd4bc928	-0.049752384
28	0x3cae0b2c	0.021245562
29	0xbd79bc2a	-0.060970463
30	0xbcb1b9a9	-0.021694975
31	0x3d28f780	0.04125166
32	0xbd0d4d3d	-0.03449749
33	0x3da1abbc	0.07894084
34	0xbd49308a	-0.049118556
35	0x3c10030d	0.00878979
36	0xbd85f4a7	-0.06540804
37	0x3c9d15ec	0.019175492
38	0x3d94675c	0.07246277
39	0x3dab6811	0.083694585
40	0x3ce6d878	0.028179392
41	0xbdca7454	-0.09885469
42	0xbdc62d93	-0.09676661
43	0xbd43ee87	-0.0478349
44	0x3d2005d2	0.03906805
45	0xbd437675	-0.04772039
46	0x3c5db8cb	0.013532828
47	0x3c87b9e8	0.01656814
48	0xbd6ab41c	-0.057300672
49	0x3d067838	0.032829493
50	0xbd667a6c	-0.056269094
51	0x3d4ccec7	0.050001886
52	0xbd107d39	-0.03527567
53	0xbdd5500b	-0.104156576
54	0x3d9852e9	0.07437689
55	0x3c555832	0.013021516
56	0x3d6a8ecf	0.0572651
57	0x3da5cb9d	0.08095477
58	0xbd8d13ff	-0.068885796
59	0xbd1461de	-0.036226146
60	0xbc96ad43	-0.018393165
61	0x3cceba3a	0.025235284
62	0xbd9df6df	-0.077131025
63	0x3da9c58f	0.082896344
64	0xbd17d374	-0.03706689
65	0x3d2ca9f9	0.042154286
66	0xbce614d3	-0.028086102
67	0x3d8d2cf7	0.06893342
68	0xbc3bcb18	-0.011461996
69	0x3c92da52	0.017926369
70	0x3d10d4b8	0.035359114
71	0xbd5c31a5	-0.053758282
72	0xbd9c7cdb	-0.07641002
73	0x3d822022	0.06353785
74	0x3d0c932e	0.03432005
75	0xbb52f3d9	-0.0032188802
76	0xbd2418bf	-0.040062662
77	0x3d6e880c	0.058235213
78	0xbb11533f	-0.0022174863
79	0x3da5dc89	0.08098704
80	0xbc3c73a9	-0.011502185
81	0xbcded8c6	-0.027202975
82	0xbd5497ff	-0.051902767
83	0xbb95bdac	-0.00456973
84	0x3d8b2e47	0.06795936
85	0xbdadcb5a	-0.08486052
86	0xbda1d0ea	-0.07901175
87	0xbc8309cd	-0.015995884
88	0x3d22c6dc	0.03974043
89	0xbdacfe7c	-0.084469765
90	0xbda9d6ef	-0.082929485
91	0xbd9930c2	-0.07480003
92	0xbcfda658	-0.030963108
93	0x3cd4b2cf	0.025964169
94	0xbcf92f0f	-0.030417947
95	0x3cde3c88	0.027128473
96	0xbc9d1996	-0.01917724
97	0xbd3e5623	-0.046468865
98	0xbd8e7ed7	-0.069577865
99	0xbd9450bd	-0.07241962
100	0x3d43b97e	0.04778432
101	0x3d184069	0.0371708
102	0xbd17faf4	-0.037104562
103	0xbccb83f2	-0.02484319
104	0xbd54207d	-0.051788796
105	0xbdcd5d0f	-0.10027515
106	0x3da94d83	0.08266737
107	0xba61b500	-0.000861004
108	0xbdc5eafd	-0.09663961
109	0x3d9e0223	0.07715251
110	0xbdb46d5e	-0.08809923
111	0xbb27e500	-0.0025618672
112	0x3d894bc3	0.067039035
113	0xbdb7a078	-0.08966154
114	0xbb52125f	-0.0032054407
115	0xbcb6e33f	-0.022325156
116	0x3d619711	0.05507571
117	0x3ba6ab10	0.00508631
118	0xbd684a30	-0.056711376
119	0xbba144a7	-0.004921514
120	0x3bec3a00	0.0072090626
121	0x3d7ff4e2	0.062489398
122	0x3c81e745	0.015857348
123	0x3c3b40f8	0.011429064
124	0x3c2ee698	0.010675095
125	0x3d7ead57	0.06217703
126	0xbd6e8b19	-0.058238123
127	0xbdb03cb0	-0.08605325
128	0x3de161cf	0.11004984
129	0x3ea956fc	0.33074176
130	0x3e1775b1	0.1479099
131	0xbe41ccdc	-0.18925804
132	0x3e87d242	0.265276
133	0x3e3db0fa	0.18524542
134	0x3e934275	0.2876164
135	0x3e85139c	0.25991523
136	0x3a6801fc	0.00088503934
137	0x3fd96e33	1.6986755
138	0xbda34657	-0.07972401
139	0xbd99a856	-0.07502811
140	0x3e2517b7	0.16122328
141	0x3f271130	0.652606
142	0xbf434656	-0.762792
143	0x3e83df2e	0.2575621
144	0xbf016746	-0.5054821
145	0x3d978982	0.073992744
146	0xc03bf45e	-2.93679
147	0x3ee7a8da	0.4524601
148	0x3f831a94	1.0242486
149	0x3f05be91	0.52243906
150	0x3e309674	0.17244893
151	0x3e5d4c44	0.21611124
152	0x3c6227d0	0.013803437
153	0xbf5766e5	-0.8414138
154	0xbe8fea9c	-0.2810868
155	0x3c4ce62d	0.01250605
156	0xc04dbf25	-3.2147915
157	0xbd8234b5	-0.06357709
158	0x3edd3937	0.43207714
159	0x3db2aa68	0.08723909
160	0xbd26b2f3	-0.040698003
161	0x3e20c2e6	0.15699348
162	0x3cd24d82	0.025671724
163	0x3d85e398	0.06537551
164	0x3d6c4a20	0.05768788
165	0x3e66018a	0.22461525
166	0x3e6f2a10	0.2335589
167	0xc0075356	-2.1144614
168	0x3e4e4fe9	0.20147671
169	0x3ec5fa23	0.38667402
170	0x3eac40a9	0.33643082
171	0xbe9cafca	-0.30602866
172	0xc00119c4	-2.0171976
173	0xbff745de	-1.9318197
174	0x3ecadd76	0.39622086
175	0x3f678f94	0.9045346
176	0x3e8b198d	0.2716793
177	0x3e7d7192	0.24750355
178	0x3ea0397f	0.31293866
179	0x3e01ee1d	0.1268849
180	0x3e99d87f	0.30047986
181	0xbfc70b5a	-1.5550339
182	0x3edc73e4	0.43057168
183	0x3af55010	0.0018715877
184	0x3ef5958d	0.4796566
185	0x3e01e0a3	0.12683348
186	0x3df6c18c	0.12048635
187	0xbf851186	-1.0395973
188	0x3d3c7089	0.04600576
189	0xbff2a1d8	-1.8955641
190	0x40775d5c	3.8650732
191	0x3f136994	0.57582974
192	0x3dd39edd	0.10333035
193	0xbedc0e06	-0.4297945
194	0x3ba3420f	0.00498224
195	0xc1634d40	-14.20636
196	0xbde092bf	-0.109654896
197	0x3e6f826c	0.23389596
198	0xbb848f50	-0.0040454045
199	0xc1994812	-19.16019
200	0x3eafbde0	0.3432455
201	0xbe23d28d	-0.15998287
202	0xbe98dcee	-0.29856056
203	0x3c27d302	0.010243179
204	0x3e4332e8	0.19062388
205	0x3d89eea6	0.06734972
206	0xbf306464	-0.68903184
207	0x3f21327a	0.62967646
208	0xc0e2320c	-7.068609
209	0x3dc532ee	0.09628855
210	0x3e450693	0.19240789
211	0xbefcafa3	-0.4935275
212	0x3e11d412	0.14241055
213	0xbddf657d	-0.10908029
214	0x3e510f49	0.20415987
215	0x3d9e2570	0.077219844
216	0x3e8dde21	0.27708533
217	0xbe21d2bd	-0.15803047
218	0x3e39d008	0.18145764
219	0x3ea8bcab	0.32956442
220	0x3fe2c4b5	1.771628
221	0xbd1308c3	-0.035897028
222	0xbcfab1da	-0.030602384
223	0xbd74254d	-0.059605885
224	0xc06a11b9	-3.6573317
225	0x3e38c10a	0.18042389
226	0xbe6008e3	-0.2187839
227	0xbf9b3b26	-1.2127426
228	0xbd25066a	-0.04028932
229	0x3eb88f68	0.3604691
230	0x3e352471	0.17689683
231	0xbd361d01	-0.044461254
232	0xbfb6e360	-1.4288139
233	0x3daf9872	0.085739985
234	0x3f6a52ce	0.915326
235	0xc05032a1	-3.2530901
236	0x3da77ad3	0.08177724
237	0x3eb44458	0.35208392
238	0xc009485d	-2.1450417
239	0x3e09b545	0.13448055
240	0x3cf03a61	0.029324712
241	0xbdbf2518	-0.09333247
242	0x3de2ac9d	0.110680796
243	0x3e4209bc	0.18949026
244	0x3df966c9	0.12177808
245	0x3e23497b	0.15946
246	0xbf031506	-0.51203954
247	0x3ef7df62	0.48412615
248	0x3f0e41d2	0.55569184
249	0x3e7114fb	0.2354316
250	0x3c8b6d65	0.017019937
251	0x3f0b38dc	0.54383636
252	0x3e584bc8	0.21122658
253	0x3ea77e88	0.32713723
254	0xc08505ec	-4.156973
255	0x3e80e37f	0.25173566

critic.2.bias f4 [128]
0	0xbcce445a	-0.025179077
1	0x3e2ac253	0.16675691
2	0xbd2e34d9	-0.04253087
3	0xbda9f9c4	-0.08299592
4	0x3f0a22f7	0.539596
5	0x3f16fcb9	0.58979374
6	0x3f069b95	0.5258115
7	0x3e108749	0.14114107
8	0xbd896ec9	-0.06710584
9	0x3efdb2eb	0.49550566
10	0x3edd6b40	0.43245888
11	0x3d229b20	0.03969872
12	0xbdda18de	-0.10649274
13	0x3f14b2d7	0.5808539
14	0x3f144140	0.57912064
15	0xbda9f67d	-0.08298967
16	0x3e403da9	0.18773521
17	0xbd093106	-0.033494018
18	0x3f0c70ba	0.5485951
19	0x3f08d3b1	0.53448015
20	0xbde10326	-0.10986929
21	0x3edacf06	0.4273607
22	0x3e0933d5	0.13398679
23	0xbddaaca3	-0.10677459
24	0xbe273fff	-0.16333006
25	0x3ef9a34e	0.48757404
26	0x3f0c098d	0.54702073
27	0xbdab565f	-0.08366083
28	0xbcc506a6	-0.024051022
29	0x3eedb8e2	0.46430117
30	0x3d6c4b58	0.05768904
31	0xbd4418bb	-0.047875147
32	0x3f0375bf	0.5135154
33	0x3d09e32b	0.03366391
34	0x3c2a4c0d	0.0103941085
35	0xbd022ef2	-0.03178305
36	0x3f110da9	0.5666147
37	0xbd896dcc	-0.06710395
38	0xbdb819f0	-0.08989322
39	0x3f1253ae	0.57158935
40	0xbd1f8a76	-0.038950406
41	0x3e223004	0.15838629
42	0x3f020529	0.50789124
43	0x3f0e079c	0.5548036
44	0x3f1c430c	0.61039805
45	0xbe0f96f7	-0.14022432
46	0xbda1bae8	-0.07896978
47	0xbd883968	-0.066515744
48	0xbc87ea91	-0.016591342
49	0x3ef6c8b6	0.48200005
50	0xbcdbdb11	-0.026837857
51	0xbd2ffaff	-0.042963978
52	0xbe21421a	-0.15747872
53	0x3f18b7dc	0.5965555
54	0xbd964b19	-0.073385425
55	0x3ef9c0aa	0.48779804
56	0xbd5bdc4e	-0.053676896
57	0xbceec0c0	-0.029144645
58	0x3ef2b53b	0.47403893
59	0xbc852a4c	-0.01625552
60	0xbde36af8	-0.11104387
61	0x3ed6da77	0.4196355
62	0x3f0e7f3a	0.5566288
63	0x3f07dad2	0.5306827
64	0xbdaf35c8	-0.0855518
65	0x3f0537a4	0.52038026
66	0xbe47f337	-0.19526373
67	0x3d2343fc	0.039859757
68	0xbbe4229f	-0.006962135
69	0xbbb992d3	-0.0056632548
70	0x3cfa8950	0.030583054
71	0x3cba9cb2	0.022779796
72	0x3d10fe78	0.03539893
73	0xbdefa9fa	-0.11702342
74	0x3c66c597	0.014085195
75	0x3c80d493	0.015726363
76	0x3f045394	0.5169003
77	0xbe02ca42	-0.12772468
78	0x3eece03a	0.4626482
79	0x3f13f5f6	0.5779718
80	0x3f14de6b	0.5815188
81	0x3f1a9fb7	0.60399956
82	0xbd6b581a	-0.057457067
83	0x3d3791c8	0.044816762
84	0xbdb1ab1c	-0.08675215
85	0x3d79f881	0.061028007
86	0xbd232d25	-0.039837975
87	0x3d33ef70	0.043929517
88	0xbc996210	-0.018723518
89	0x3ef2fbc6	0.47457713
90	0xbdf9059b	-0.12159272
91	0xbe943c98	-0.2895248
92	0x3f016706	0.50547826
93	0x3f0da6f8	0.553329
94	0xbdaedccb	-0.08538207
95	0xbd0ad9c5	-0.033899087
96	0xbdb9901c	-0.0906069
97	0xbcb10532	-0.021608923
98	0x3f0110d0	0.5041628
99	0x3cc68d92	0.024237428
100	0xbbc72eed	-0.006078592
101	0x3e920182	0.28516775
102	0xbdd3aa75	-0.103352465
103	0x3d4a1ca2	0.049343713
104	0x3f3216de	0.6956614
105	0x3d8d97ac	0.06913695
106	0xbd9dc029	-0.07702667
107	0x3f14c478	0.5811229
108	0xbd93c069	-0.07214434
109	0x3effb547	0.4994299
110	0x3ed59bc7	0.4172041
111	0x3f05d7e6	0.5228256
112	0x3f0947f1	0.536254
113	0x3f12873b	0.57237595
114	0x3ef2e882	0.47443014
115	0xbbc34eda	-0.0059603276
116	0xbd13cada	-0.036082126
117	0x3e751259	0.2393278
118	0xbd808597	-0.0627548
119	0x3f0f54e4	0.5598891
120	0x3f097aef	0.53703207
121	0x3f16e723	0.58946437
122	0x3ee91cc6	0.45529765
123	0xbc8f4148	-0.017487183
124	0xbcc34010	-0.023834258
125	0xbd890a02	-0.06691362
126	0x3e977624	0.29582322
127	0x3efd87cc	0.49517667

critic.4.weight f4 [1, 128]
0	0x3c1252c2	0.008930864
1	0x405c5f5e	3.4433208
2	0x3c74cf20	0.014941961
3	0xbd7e352e	-0.062062435
4	0xbf038576	-0.5137552
5	0xbf0409f1	-0.5157767
6	0xbefac46c	-0.48977983
7	0x40447901	3.0698855
8	0xbc698656	-0.01425322
9	0xbeebfeba	-0.46092778
10	0xbeef7126	-0.46766013
11	0x40114d13	2.2703292
12	0x3c0b73c8	0.008511491
13	0xbef56f23	-0.47936353
14	0xbee06112	-0.4382406
15	0x3d74083e	0.059578173
16	0x3f85e10f	1.0459307
17	0x3add48ca	0.0016882655
18	0xbee39bb0	-0.44454718
19	0xbefaeec3	-0.49010286
20	0x3cac6b2f	0.021047203
21	0xbf0165c4	-0.5054591
22	0x3fb4e3b4	1.413199
23	0xbccfe570	-0.025377959
24	0x3f64d21b	0.89383096
25	0xbee16782	-0.44024283
26	0xbed4d249	-0.41566685
27	0x3c598dbf	0.013278424
28	0x3f36746b	0.7127139
29	0xbef64521	-0.48099616
30	0x3c4454e1	0.011983127
31	0x3c718b98	0.014742754
32	0xbee9d82a	-0.45672733
33	0xbc210406	-0.009827619
34	0x3d3451cc	0.04402332
35	0x3bb8a164	0.0056344736
36	0xbf034552	-0.5127765
37	0x3db2e99c	0.08735964
38	0x3d85ae8c	0.06527433
39	0xbee2ab1f	-0.4427118
40	0x3d0f5918	0.034997076
41	0x3f83635d	1.0264698
42	0xbeef3edf	-0.46727654
43	0xbee337a4	-0.44378388
44	0xbedcd10e	-0.43128246
45	0x3f493f5f	0.7861232
46	0x3f4f5a0d	0.8099678
47	0x3f50bfe0	0.8154278
48	0x3d33a118	0.043854803
49	0xbefbec6d	-0.49203816
50	0xbc1acfed	-0.009448987
51	0x3cbba230	0.022904485
52	0x3f432677	0.7623057
53	0xbedf2a92	-0.43587166
54	0x3a04462c	0.0005045857
55	0xbf059949	-0.5218702
56	0xbcb0963c	-0.021556012
57	0xbc07931a	-0.008274818
58	0xbf0565ee	-0.5210866
59	0xbd66009d	-0.05615293
60	0x3d500d73	0.050794076
61	0xbf015b91	-0.50530344
62	0xbefbf26d	-0.49208394
63	0xbedf9bf7	-0.4367368
64	0x3da01702	0.078168884
65	0xbefea578	-0.49735618
66	0x3f07fde4	0.5312178
67	0x3d16ba09	0.03679851
68	0x3bc549f3	0.0060207783
69	0x3d60f7f3	0.054923963
70	0x3b28c363	0.0025751225
71	0x3f46ec7c	0.77704597
72	0xbcdc59e9	-0.026898341
73	0x3d479888	0.04872945
74	0x3d1d437a	0.03839443
75	0x3d7c7377	0.061633553
76	0xbee0a14d	-0.43873063
77	0x3d04db20	0.032435536
78	0xbefdb444	-0.49551594
79	0xbee795fa	-0.4523161
80	0xbee6c40f	-0.45071456
81	0xbee330b2	-0.4437309
82	0x3d973967	0.073839955
83	0x3fd0d738	1.631568
84	0x3cc95894	0.02457837
85	0x3d9c416c	0.07629666
86	0x3b03f4c8	0.0020134915
87	0x3d73d745	0.05953147
88	0x3d4daee9	0.050215635
89	0xbeddfbb1	-0.43356088
90	0xbb928065	-0.004470872
91	0x3f28f9cc	0.6600616
92	0xbf0419f6	-0.51602113
93	0xbef44e45	-0.47715965
94	0x38874e18	6.451848e-05
95	0x3c98af56	0.018638294
96	0xbd19ab01	-0.037516598
97	0x3c85b72f	0.0163227
98	0xbee50a9e	-0.44734663
99	0x3fae36ed	1.3610512
100	0x3d23cb17	0.039988603
101	0x402e91d2	2.7276502
102	0xbd0fef32	-0.035140224
103	0x3d70fff8	0.05883786
104	0xbf298ea9	-0.6623331
105	0x3fe7b8e9	1.8103305
106	0x3d80c513	0.06287589
107	0xbef6d7e1	-0.48211578
108	0x3f754a6f	0.958167
109	0xbf009d17	-0.502397
110	0xbf04aaf3	-0.5182335
111	0xbef24859	-0.47320822
112	0xbef8709f	-0.48523423
113	0xbf031c2d	-0.5121487
114	0xbeeb9a05	-0.46015945
115	0x3d5f6813	0.054542612
116	0xb966eb49	-0.0002202216
117	0x3f9125dd	1.133968
118	0xbd006451	-0.03134567
119	0xbedf8f68	-0.43664098
120	0xbf057ef2	-0.5214683
121	0xbef2cfcd	-0.47424164
122	0xbefbdcea	-0.49191982
123	0x3c5f5545	0.01363117
124	0x3d8271d0	0.06369364
125	0xbb96dc71	-0.0046039154
126	0x3fe6e42b	1.8038381
127	0xbeed0be9	-0.4629815
