hw2/preTrained/LunarLander_gae_0.015_lambda_0.98.pth (torch_old, 74643 bytes, 7 tensors)

shared_layers.0.weight f4 [128, 8]
000000 e2 d5 ba 3d 9a 22 0a be ac bf b2 bd 78 7c e8 3e
       0.09122826 -0.13489762 -0.08727965 0.45407462
000010 42 39 52 3e 0c b1 73 3d 05 66 be be 91 d9 8f be
       0.20529655 0.059495017 -0.3718721 -0.28095677
000020 0a b7 80 bd f0 f1 70 3f 58 44 34 be ea 16 04 40
       -0.06284912 0.9411917 -0.17604196 2.0638986
000030 15 0a 2d bf 79 3b 28 3d 1a 9a 87 3f c2 99 ff 3d
       -0.6759351 0.041072343 1.0593903 0.12480499
000040 8d 05 6d be 14 11 30 bf 88 5e 4d 3e 50 f8 b4 bf
       -0.23146649 -0.6877606 0.20055592 -1.4138279
000050 f2 8d 22 bf b7 10 06 bf 56 38 05 bf 92 bc a8 be
       -0.6349784 -0.52369255 -0.52039087 -0.32956368
000060 20 29 51 3f 03 74 e2 be 35 2a 93 3f fc 5f a0 bf
       0.81703377 -0.44229135 1.1497256 -1.2529292
000070 52 3c 12 bf ab ca 1b be 00 d6 27 3b 3a b6 84 bf
       -0.5712329 -0.1521403 0.0025609732 -1.0368111
000080 e5 8b a7 be a3 f7 3b be 40 63 f4 3c b9 83 30 3f
       -0.3272392 -0.18356185 0.029832482 0.6895099
000090 68 a1 0a c0 99 fe b4 bf 08 f8 6d 3d 39 6b 8b bd
       -2.1661015 -1.4140197 0.05809787 -0.068075605
0000a0 8d fa c5 3d 04 bc 7a bf b9 ae 3f be 43 88 0b 3e
       0.096669294 -0.9794314 -0.18718995 0.13626198
0000b0 01 01 91 be 8c c7 19 bb 33 52 28 bf 84 17 d9 be
       -0.28321078 -0.0023464886 -0.65750426 -0.42400753
0000c0 a5 30 11 be fa 39 92 bd f2 27 dd 3d d0 cb 4c 3d
       -0.14178713 -0.071399644 0.107986346 0.04999906
0000d0 a4 ea 25 bf 8f 23 f8 be 96 13 d8 be b7 77 ac bd
       -0.6481116 -0.4846463 -0.42202443 -0.08421271
0000e0 0e ee c6 bc ad 1f e9 be 59 70 2d 3f 29 07 fc bd
       -0.024283435 -0.4553198 0.67749554 -0.12306053
0000f0 85 7a 48 c0 53 53 bd bf b5 73 71 3e a1 56 50 bd
       -3.132478 -1.4791054 0.23579295 -0.050863866
000100 ce 6c 2f be 56 88 d9 be ed 62 37 bf b1 62 23 3f
       -0.1713135 -0.4248683 -0.71635324 0.63822466
000110 4a 8f 4c 3f 27 94 db 3e c8 e1 b2 3c b6 00 5e 3f
       0.7990614 0.4288647 0.021836177 0.86719835
000120 7f 20 1a bf 48 f6 3c 3f d0 0b 83 bf f6 48 a8 3f
       -0.60205835 0.73813295 -1.023798 1.3147266
000130 4c ec 9c 3f 1e fc 87 3f a8 a0 ef 3c 45 c2 4c 3f
       1.2259612 1.0623815 0.029251412 0.7998393
000140 60 f1 58 3e 3a 43 be be c8 40 a0 be 85 d7 59 be
       0.21185827 -0.37160665 -0.31299424 -0.2127362
000150 c6 5e 34 3f 45 f7 47 3e 14 3b 48 bd 1b e6 df 3e
       0.7045711 0.1952792 -0.048884466 0.43730244
000160 f5 e5 36 3d f3 5d 96 be 57 34 60 bd ff 7a 56 3d
       0.044652898 -0.29368553 -0.054737415 0.052363392
000170 e1 e6 ed bc 27 90 d1 bc 25 81 19 be cf 05 1d be
       -0.029040756 -0.025581433 -0.14990671 -0.15334247
000180 e6 72 3e bc 8b ff 94 be 1c 8d a9 3d fb 21 ca 3d
       -0.011624074 -0.29101214 0.082788676 0.098697625
000190 cf a4 f3 3c f9 0b 2b bd 90 9f cd be 8a 03 2f 3e
       0.029741673 -0.041759465 -0.401608 0.17091194
0001a0 91 9c 69 3f 43 91 f0 be bb f5 87 3f ae 7a a8 bf
       0.91254526 -0.46985826 1.0621866 -1.3162439
0001b0 84 9f 91 bf 12 76 33 bf 7c 1b 4a 3e 1c a9 ea bd
       -1.1376805 -0.70102036 0.19737047 -0.11458036
0001c0 84 76 ef 3e bd 07 20 bf 61 fb d7 3e 6d d6 fe bf
       0.46770108 -0.6251181 0.42183974 -1.9909188
0001d0 78 27 a1 3e 07 72 8c 3e 39 84 c6 be 79 ce a3 be
       0.31475425 0.27430746 -0.38772753 -0.31993464
0001e0 13 6a 3d bf 7e 96 16 3e f2 10 9e bf 3b 8e 39 bf
       -0.7398998 0.14705846 -1.2348921 -0.7248265
0001f0 c7 7e 68 40 5c ff 16 40 97 6c 20 3f a1 42 d6 3e
       3.6327379 2.359336 0.62665695 0.4184771
000200 cf 28 32 3e 17 c5 66 be 88 12 5b be f8 8e 80 3e
       0.1739838 -0.22536121 -0.21393788 0.25109076
000210 92 8d 0f 3e 33 90 d0 bd ee 95 24 be 83 98 52 be
       0.14018849 -0.10183754 -0.16072819 -0.20565991
000220 e9 9b 01 bf 6a 71 48 3f 19 86 7f bf 7b fe bf 3f
       -0.50628525 0.78298056 -0.9981399 1.4999536
000230 3b 10 47 3f 70 c2 be 3f 90 05 2c 3e 68 12 21 3e
       0.7775914 1.4903088 0.16798997 0.15729678
000240 31 89 67 bf 3c 45 5a 3f 55 4e 7c bf 17 a6 86 3f
       -0.9044371 0.85261893 -0.98557025 1.0519437
000250 7a ba 29 3f 8b c4 c9 3f b0 d9 1b 3f aa d4 f8 3d
       0.66300166 1.5763105 0.6087904 0.121499375
000260 64 4e d4 3e f1 40 2a bf 6d 17 9a 3e 24 89 84 3f
       0.41466057 -0.6650534 0.30095997 1.0354352
000270 26 9f 3c bf 5f fe 92 3d 5a 3c 9f be 0b ed e5 be
       -0.7368034 0.07177424 -0.31100732 -0.44907412
000280 74 42 30 bf 51 65 86 3f 34 8d 8a be 93 1b 02 40
       -0.688514 1.0499669 -0.27060854 2.032933
000290 2d ae 33 bf b0 e3 f3 3c b0 9b 93 3f 88 c8 72 3f
       -0.70187646 0.029771656 1.1531887 0.94837236
0002a0 4a 52 6e be 2b 39 43 bf 36 fe e8 3b 7d a0 89 bf
       -0.23273578 -0.76259106 0.0071103824 -1.0752102
0002b0 a4 c4 af 3f 5b dc 21 3f 7d 8c 1c be 0f bb 46 be
       1.3731885 0.6322686 -0.15287967 -0.19407295
0002c0 3c 53 14 bd 6f 79 2d bd da d6 4a 3f dc a1 02 3f
       -0.03621219 -0.042352136 0.7923409 0.5102823
0002d0 79 a4 9e bf 14 e5 dd bf 70 37 0e 3d 8d 89 fb 3e
       -1.2393943 -1.7335534 0.034720838 0.4912838
0002e0 ba 50 72 be 0a d9 ab be 46 f1 8f 3d c5 8f 0d bf
       -0.23663607 -0.33564025 0.07028441 -0.552975
0002f0 bd b2 a8 bf a3 ce 30 bf 56 28 5d bd 74 05 6d be
       -1.3179547 -0.690653 -0.053993545 -0.23146611
000300 9a ca 65 3d f1 d7 4e be 22 5f 03 bf a3 60 1d 3f
       0.05610142 -0.20199563 -0.51317036 0.6147558
000310 c3 bc a0 3e 53 62 cc 3d cc ab 39 be 82 94 90 3f
       0.31394014 0.09979691 -0.18131942 1.1295321
000320 a0 bb 13 be e0 06 93 be 51 24 b0 3d 33 cb 00 3e
       -0.14427042 -0.28716183 0.08600677 0.12577514
000330 2b 74 2d 3e 24 5f a1 3e f9 bc 6b b9 b8 7a 6c 3e
       0.16938846 0.315179 -0.00022481744 0.23093688
000340 7b f9 5d bf c4 cb 9f bf da 90 36 bf ca 47 0c 3f
       -0.867088 -1.2484059 -0.71314776 0.5479704
000350 97 e4 db 3e 80 d4 0f bf 18 6d a0 3c f8 16 b7 3f
       0.42947838 -0.56183624 0.01958327 1.4303885
000360 59 7d e8 3e d5 ac 15 bf 6c 94 62 3e e5 77 53 ba
       0.45408133 -0.58466846 0.22126931 -0.0008066877
000370 bc 31 31 3f 21 23 3b 3e cc 47 80 be 3e 85 2e 3d
       0.69216514 0.1827512 -0.25054777 0.04260754
000380 ea 2b 0d be da a9 94 be 0c ba 86 bd a0 4a 34 3e
       -0.13786283 -0.29035836 -0.065784544 0.17606592
000390 1b 99 82 bd 83 a6 17 3e 37 4f f0 be ae ef 47 bd
       -0.06376859 0.14809613 -0.46935436 -0.04881256
0003a0 64 08 62 be 22 3e 91 be 4d 19 9e 3e 3a 49 ff 3d
       -0.22073513 -0.28367716 0.30878678 0.12465139
0003b0 2b 29 d0 be 7f 0f e1 be 01 dd d9 be 0c 35 33 3f
       -0.4065641 -0.43957135 -0.42551425 0.7000282
0003c0 54 6e fa 3f 6e 45 52 3e 08 2a bb 3f 95 3e 90 3e
       1.956492 0.20534298 1.4622202 0.28172746
0003d0 45 b7 48 bf fb 17 38 bf 32 eb 69 3e 82 9a 8c 3e
       -0.7840465 -0.7191159 0.22843626 0.2746163
0003e0 02 c1 a3 bb 2e 69 50 be 0e f7 48 bd 8d 18 ff 3d
       -0.0049973736 -0.20352623 -0.049063735 0.124558546
0003f0 c0 36 92 bd 6c 9a 65 3d 85 04 65 be 36 bd 6d be
       -0.07139349 0.05605547 -0.22365005 -0.2321671

shared_layers.0.bias f4 [128]
000000 be 7c c9 bd 77 3f fb 3e 70 7f c0 be 09 b0 a6 3d
       -0.09838246 0.49071857 -0.37597227 0.08139045
000010 e2 5f 2d be 07 1f c9 be 79 e7 b1 be 4a 93 6b 3e
       -0.16931108 -0.39281484 -0.34746912 0.23005405
000020 25 7f 0b bf ac 40 c3 3e 1e e9 af be cb e9 86 be
       -0.5449088 0.38135278 -0.34357542 -0.26350245
000030 2d 45 6c be 82 82 09 3e 57 26 47 3d fb b4 70 3e
       -0.23073263 0.13428691 0.048620548 0.23506539
000040 a1 f6 81 be fe d9 c6 3e a0 68 b2 b9 53 6d 80 be
       -0.25383475 0.3883819 -0.00034028757 -0.25083408
000050 61 05 25 3f 67 e5 95 3e b3 5b 5f be 7f b1 b2 be
       0.6446133 0.29276583 -0.21812324 -0.34901044
000060 4c 1c 23 bf 67 ac a3 be 20 27 97 3d 00 e2 96 bd
       -0.6371505 -0.3196747 0.073805094 -0.07367325
000070 22 d0 85 be c1 8f 05 bf cc 33 01 3d 3d b6 82 be
       -0.26135355 -0.52172476 0.031543538 -0.25529662
000080 56 29 07 be 6f 87 3d 3f 37 ac 25 bf 98 e8 da be
       -0.13199362 0.7403478 -0.64715904 -0.4275558
000090 81 56 b1 3e e1 79 7d be 42 d2 15 3e 0e 9c 8b be
       0.3463631 -0.24753524 0.14630988 -0.27267498
0000a0 72 18 90 be 63 0e dd be 8c 94 44 3e 38 b6 27 3e
       -0.2814365 -0.4317504 0.19197291 0.16378105
0000b0 ed e1 c4 3d 90 c7 b6 3e fd e3 05 bf e5 d8 0f bf
       0.096134044 0.3569913 -0.5230101 -0.5619033
0000c0 c0 8f 9c 3d 17 3b 18 bf ca a5 16 be db f9 81 be
       0.07644606 -0.59465164 -0.14711681 -0.25385937
0000d0 c1 46 1c bd fb b5 bb be 09 ac 26 bf 3b cc 2f 3e
       -0.038153414 -0.36662278 -0.65106255 0.17167751
0000e0 fd 5a d4 be a0 cd 00 3e 95 2f f6 bc 45 59 e3 3e
       -0.4147567 0.1257844 -0.030051986 0.44404045
0000f0 6f 15 b1 3e 52 e9 b1 3d 88 b5 ab be 16 71 4f be
       0.34586665 0.086870804 -0.33536935 -0.20257983
000100 15 3a fb be 02 ff 04 bd 93 18 41 3e 50 db 14 bf
       -0.4906775 -0.032469757 0.1885703 -0.58147144
000110 a8 e8 b0 3e 08 c7 79 be c7 d5 53 3e a9 e3 77 be
       0.34552503 -0.2439233 0.20687018 -0.24207939
000120 8b 0f 4f be 86 41 64 3e 2b d0 48 be 60 fb 88 3e
       -0.20220773 0.2229062 -0.1961066 0.26754284
000130 2b 9f fa 3d 84 16 89 bd a8 47 a5 3e 32 9c 2d be
       0.1223739 -0.06693748 0.32281232 -0.16954115
000140 23 e0 29 bf f3 d5 96 3e 85 4a 11 3e 88 d0 b9 be
       -0.6635763 0.29460105 0.14188583 -0.3629191
000150 3b 95 05 bf 72 07 e3 bb 30 3f 94 3e 64 4e ca be
       -0.5218083 -0.006928378 0.28954458 -0.39512932
000160 ae 5a 4e be 59 83 01 bf 4c ed 40 3d 96 38 be be
       -0.20151779 -0.50591046 0.047101304 -0.37152547
000170 32 80 b5 be 8c cb d2 bd 64 38 22 3e 60 31 03 bf
       -0.35449368 -0.1029273 0.15841824 -0.51247215
000180 de b3 8d 3e 29 51 9b be af a5 9d be 17 fa b5 be
       0.2767629 -0.30335358 -0.3079047 -0.35542366
000190 ec 40 be be 65 5e 26 3c 3d f4 dc bd d0 13 81 be
       -0.37158906 0.010154341 -0.10788772 -0.25210428
0001a0 15 aa 7e 3e 45 7e 27 bf 96 af a3 3d 8f 39 56 3e
       0.24869569 -0.65427047 0.07992475 0.20920394
0001b0 be 44 87 3e 72 49 eb 3d ed 32 bd be fb 56 89 bd
       0.26419634 0.11488618 -0.36952916 -0.06706043
0001c0 5d cb 54 3e d9 6b 32 3f 24 8d 6b be f4 a5 dd be
       0.20780702 0.6969581 -0.2300306 -0.43290675
0001d0 a5 02 6d be aa 21 b0 be 75 71 c1 be ed 9a 89 be
       -0.2314554 -0.34400684 -0.37781873 -0.26876011
0001e0 00 d2 5e be 3d 7c d1 3e ff 98 1d 3e 14 fd 8a be
       -0.21759796 0.409151 0.15390395 -0.27146208
0001f0 a6 0b ab be 9f 84 bb be ba d8 99 bd c1 e6 ca bd
       -0.33407325 -0.3662462 -0.075120404 -0.09907294

actor.0.weight f4 [4, 128]
000000 0f c7 40 be 84 a3 64 be a3 4d b6 be b9 c6 0e bf
       -0.18825935 -0.22328001 -0.35606107 -0.55771977
000010 80 8c a4 3d 77 9d ee bd 6c 13 1e bd 93 9e d6 be
       0.08034611 -0.11651128 -0.03859274 -0.41917858
000020 0b 19 8a be 0f 2d fc be 7c 18 3c ba 1b f0 07 3e
       -0.2697223 -0.49253127 -0.00071752793 0.13275187
000030 4f 56 96 3c d2 30 cd be e0 61 60 bf 6d 2a f2 be
       0.018351702 -0.4007631 -0.87649345 -0.47297993
000040 bc fc de 3c 6d b9 c8 be 42 d7 b1 be 7d a1 de bd
       0.027220123 -0.3920397 -0.3473454 -0.10870645
000050 fa 0f 7a be e0 f1 3d bf 86 fd 11 3e 28 f4 88 3d
       -0.24420157 -0.74197197 0.14256868 0.06687194
000060 b0 08 a9 bc 8e b8 a7 be 7d 6b 47 3d e3 4f 18 bf
       -0.020634025 -0.32757992 0.048686493 -0.594969
000070 c3 12 62 3c e1 dd 04 be 93 95 7e bd b7 5c c0 3c
       0.013798418 -0.12975265 -0.062154364 0.02348171
000080 8d 63 b5 bd 43 84 20 3e ca 22 e4 bd fa 19 db bd
       -0.088568784 0.15675454 -0.11139448 -0.10698314
000090 a0 3e 4a be 70 ad 69 bd a0 07 1f bf 7b cc 3f be
       -0.19750452 -0.05705017 -0.6212101 -0.18730347
0000a0 21 79 e7 bd dc a1 33 be ad 3b 97 be 12 6f 19 bf
       -0.113024004 -0.17542213 -0.29537717 -0.59935105
0000b0 c1 37 cd be 5e 54 90 be 5a 82 94 bd a0 04 90 bd
       -0.400816 -0.28189367 -0.07251425 -0.07032132
0000c0 83 58 bc bd 84 7a 22 bd 04 dc f1 bd b3 41 fe bd
       -0.0919657 -0.03966762 -0.11809543 -0.12414875
0000d0 22 ab 22 bf 92 72 39 be 5a ea 2d be 54 7a ff be
       -0.6354238 -0.18110111 -0.1698393 -0.49898016
0000e0 48 84 b4 3d 80 c4 39 bf 05 4a 4a be c0 e5 20 be
       0.08814293 -0.7256546 -0.19754799 -0.15712643
0000f0 3f 37 6f 3d a2 c2 0e bf ad e4 5c bd e7 d2 1d 3e
       0.058402296 -0.55765736 -0.05392902 0.15412484
000100 38 f5 ab bd 8e cc a7 bd 2f 98 f9 be 3d 5e cf bc
       -0.08396381 -0.081933126 -0.4874892 -0.025313491
000110 91 3c 31 be 4d 55 18 be ca 58 b5 be db 60 61 be
       -0.1730826 -0.1487629 -0.35419303 -0.22009604
000120 a3 98 9c 3d 54 24 8c bd 58 65 0d bf 98 4c da be
       0.07646301 -0.068428665 -0.55232763 -0.4263656
000130 13 a1 a4 be bc 77 02 bc 55 97 4f be a4 4e d8 bd
       -0.3215414 -0.007963117 -0.20272572 -0.105618745
000140 0f d4 95 bc 46 41 53 bc f8 02 75 bd 08 6c ec be
       -0.018289594 -0.01289398 -0.059817284 -0.4617617
000150 ab 7a f4 be 9c 82 be be 02 e8 1c bf cd 49 09 be
       -0.47749838 -0.37209022 -0.61291516 -0.13407059
000160 f6 a7 67 3d 74 b4 f7 3d bf 0a 56 bf 61 e1 32 be
       0.056556664 0.120949656 -0.8361015 -0.17468788
000170 cc 97 09 be 2b da ff be 1a 4e be be e9 07 c9 3c
       -0.13436812 -0.49971136 -0.37168962 0.024539905
000180 3f b7 dd bc df 40 46 be 6f 69 12 be 95 19 fa bd
       -0.027064918 -0.19360684 -0.14298032 -0.12211911
000190 25 16 7f bd 33 3e 20 bf 0c 0c 8b be 34 13 ba be
       -0.062276978 -0.6259491 -0.2715763 -0.36342776
0001a0 81 68 75 be 8f 45 a5 bd a5 64 ea be 8f f9 01 bf
       -0.23965646 -0.08069908 -0.4577991 -0.5077142
0001b0 21 ba 22 be a4 c2 8d be 56 31 3e 3d 1d dc 7d be
       -0.15891315 -0.27687562 0.04643377 -0.24790998
0001c0 dd 26 98 3d 20 3c e0 bd 91 28 3a be de 32 a1 be
       0.074292876 -0.10948968 -0.18179537 -0.3148412
0001d0 e6 8a dd bd a5 91 d2 3c a5 cf 09 be 4b 35 ed bd
       -0.108175084 0.025704214 -0.13458116 -0.115824305
0001e0 5f eb a5 3c 9d bc 01 bf 16 56 19 bf ec b0 6d be
       0.020253835 -0.50678426 -0.5989698 -0.23212022
0001f0 7d d1 f8 be 4b 8a 68 be fe dc f6 be d4 07 52 bd
       -0.48597327 -0.22709005 -0.4821548 -0.051276997
000200 b0 2b c5 bd 3f 7a 97 3f b1 17 a7 bd d6 ae 92 3e
       -0.09627473 1.1834182 -0.08158816 0.28649014
000210 74 bc 51 3f 23 6a 2a bf 28 34 90 3e 98 3a 54 3f
       0.8192818 -0.665682 0.28164792 0.82901907
000220 7f 2e 82 3e db 73 06 3f b9 9a 97 3d fe 9c 00 3e
       0.254261 0.5252053 0.07402558 0.12559888
000230 e9 8d 3e 3d 46 ff a2 3e b2 e5 27 bf cb 99 a9 bf
       0.046522055 0.31835383 -0.6558486 -1.3250059
000240 0c 08 36 be 72 ae 07 3f 78 56 81 3e fd 96 25 3d
       -0.17776507 0.5300056 0.25261283 0.040427197
000250 1d 05 b7 3f 95 fa c3 be 5e fd 30 3f 62 df 81 3e
       1.4298435 -0.38277116 0.6913661 0.2536574
000260 f6 e9 16 3f 25 53 02 3e a2 3e 96 3e c2 f8 40 bd
       0.58950746 0.1272703 0.2934466 -0.047112234
000270 de 57 3a 3e 31 21 a5 3d a9 8d fb 3e 56 ac 77 3e
       0.18197581 0.080629714 0.49131516 0.24186835
000280 36 8e e2 3e 0b c9 94 3f 73 af 2a 3e a1 18 89 be
       0.44249123 1.1623853 0.16668491 -0.26776603
000290 5d a7 90 3f 51 e7 36 3f f6 aa f5 be 23 4a 85 be
       1.1301075 0.7144671 -0.47981995 -0.26033124
0002a0 5c ec 1a 3f 25 95 ab be 45 9b 2c bf 0a ca ca bf
       0.60516906 -0.33512226 -0.6742442 -1.5842907
0002b0 ff a4 74 bf fe 54 df 3f cb 64 46 bd 71 ba 73 be
       -0.95564264 1.7447813 -0.048435967 -0.2380159
0002c0 aa d1 5f bf 12 97 cd 3e d1 24 a3 3e 7c 55 e2 3d
       -0.87429297 0.4015432 0.31864026 0.11051461
0002d0 b7 0b a2 be ed ae 8a be ce 99 15 3f c6 65 ec bf
       -0.31649563 -0.27086583 0.5843781 -1.8468559
0002e0 6a 56 74 3e 00 ac 1f bf 1b c2 13 3f 11 da 1d be
       0.2386109 -0.62371826 0.57718056 -0.15415217
0002f0 b6 23 8b 3f 86 5b 73 3d b3 d9 ea bd cd d5 d4 3e
       1.0870273 0.059413455 -0.11467304 0.41569367
000300 b6 b6 17 3f 6d 43 dd 3e 53 d4 78 bf cd 3b a3 3e
       0.5926317 0.43215504 -0.9719898 0.31881562
000310 d3 0f 52 bf c5 f8 43 bd 8f 48 c2 3d 02 2e eb 3e
       -0.82055396 -0.047844667 0.09486496 0.4593354
000320 c0 5d 60 bc b4 23 1b 3f 11 27 8f 3d d1 3c 88 3f
       -0.013694227 0.60601354 0.06989873 1.064356
000330 da a8 02 3f cb 41 46 3f 8f a5 56 3f 73 3a 00 bd
       0.510389 0.7744414 0.8384637 -0.03130574
000340 bb b0 3c 3e e9 33 77 3f 9a 45 36 3f 48 de 90 be
       0.18426792 0.96563584 0.71199954 -0.28294587
000350 91 5b 91 3e ae ca 97 bd 76 2f 8e bf 53 9a 94 bd
       0.28390172 -0.07411705 -1.1108234 -0.072559975
000360 d2 89 a9 3d 75 e9 16 3f a9 80 69 be 53 52 22 bd
       0.0827824 0.5894998 -0.22802986 -0.03962929
000370 37 b4 7c 3e 4f d2 08 bf 31 63 a9 3f 03 55 8d 3e
       0.24678122 -0.53445905 1.3233396 0.2760392
000380 96 e6 a0 3f 36 05 b9 3e 0e 66 27 be 33 1f 43 3e
       1.2570369 0.36136788 -0.16347525 0.1905487
000390 b9 30 0a bc 37 a5 66 3d 47 80 04 bf 1b 83 f2 3d
       -0.008434468 0.056309905 -0.51758236 0.11841413
0003a0 53 18 05 be b1 9e af 3d f6 ac 1f be 8e 17 92 bf
       -0.1299756 0.0857519 -0.15593323 -1.1413438
0003b0 33 20 be 3f 00 7a 51 3f 82 3c 56 3c f3 5c 89 3e
       1.4853576 0.8182678 0.01307595 0.26828727
0003c0 28 29 8b 3f fa 9c ea 3f 12 c8 4c 3e c0 de 26 3d
       1.0871935 1.8329155 0.19998196 0.040739775
0003d0 f3 aa a2 3e 8f 4e 00 be 98 52 b1 bc 04 2b 02 3e
       0.3177105 -0.12529968 -0.02164583 0.12711722
0003e0 ad fd b7 3e 57 d3 81 3f ce ae 09 bf 6f 1c f8 3e
       0.35935727 1.0142621 -0.53782356 0.48459193
0003f0 68 74 94 3e a5 bf b6 3e ae cc 80 3b f9 9c 2f 3e
       0.2899506 0.35693088 0.0039306497 0.17149724

actor.0.bias f4 [4]
000000 f6 c4 91 be 70 8e 29 3e 16 b5 79 3e 40 31 2e 3e
       -0.28470582 0.16558242 0.24385485 0.17010975

critic.0.weight f4 [128, 128]
000000 28 98 68 3d cf 4c 9b bd e0 69 34 bc 80 82 6a 3c
       0.056785733 -0.075830095 -0.011011571 0.01431334
000010 66 ad 7c bd 43 6b 1c be 75 63 cc bd 98 2d a6 3d
       -0.061688803 -0.15275292 -0.099799074 0.08114165
000020 23 cd 80 bd 60 41 9e bd e0 45 89 3d a0 ae 0d 3d
       -0.06289127 -0.07727313 0.06702781 0.034590364
000030 5c b1 5b bd 22 fd fa 3d ce 25 94 bd af 73 1a be
       -0.05363594 0.122553125 -0.07233773 -0.15083192
000040 ea b3 c2 bd 26 8e 8e 3d 1a eb 92 3d ea 80 dc bd
       -0.09506972 0.069607064 0.07173748 -0.10766776
000050 dc d0 24 3d 48 f8 5b bd b2 2b ff bd 70 60 c9 3c
       0.040238246 -0.053703576 -0.12459506 0.024582118
000060 ba 03 9f bd 35 45 01 be ee e3 15 be 77 76 0d 3e
       -0.07764383 -0.12624057 -0.1463773 0.13814722
000070 6f 23 16 3e 37 ea 02 3e da 90 8c 3d 69 d8 03 3e
       0.14661954 0.12784658 0.06863566 0.12875523
000080 e8 23 2d 3d 3e a1 b9 bd 8c f4 61 bd 12 30 eb bd
       0.04227057 -0.09063958 -0.05516486 -0.11483778
000090 1c 15 19 be 4a 25 f5 bd 6d 5d 04 be e3 bb 01 3e
       -0.14949459 -0.11970003 -0.12926264 0.1266933
0000a0 72 af 40 bd 7c 8b 92 3d 64 f1 29 3d 80 0e c6 3a
       -0.047042318 0.07155511 0.041489974 0.0015110523
0000b0 04 88 13 be e5 9f 19 3e 31 2e 00 3e ab 88 ca bd
       -0.14407355 0.15002401 0.1251762 -0.098893486
0000c0 6c 0f 1b bd 05 b1 a4 bd 34 33 88 3d 28 71 c8 bd
       -0.037856504 -0.08041576 0.06650391 -0.09787208
0000d0 d2 a4 eb bd 88 db 40 bd 00 0a 9c 3d 68 d2 b9 bd
       -0.11506046 -0.04708436 0.07619095 -0.09073335
0000e0 7e 77 9f 3d 6e bf 73 bd 20 1d d8 bd 20 26 63 3d
       0.07786463 -0.059508733 -0.1055243 0.05545628
0000f0 08 73 c2 bc b1 93 1a be 30 b2 0c bc a7 82 03 3e
       -0.023736492 -0.15095402 -0.008587405 0.12842809
000100 41 7e 1c 3e dd 28 a2 bd df 68 0c 3e 90 6b 74 3d
       0.15282537 -0.0791795 0.1371188 0.059672892
000110 c4 a9 99 bd 88 c2 03 bd a2 f4 e8 3d 76 76 ef 3d
       -0.07503083 -0.03216794 0.11374785 0.116925165
000120 03 96 0a 3e c5 f7 18 3e b4 96 f3 bd cc 91 16 be
       0.13533787 0.14938267 -0.11893979 -0.14704055
000130 7e 45 e1 3d a8 84 1d 3d bc 17 5e 3d bc 57 2e 3d
       0.10999583 0.03845659 0.054221854 0.04256414
000140 c0 4c 63 3c ad 32 1a 3e d9 73 0d 3e 00 32 02 3b
       0.013873279 0.15058394 0.13813724 0.0019866228
000150 9a 58 cd 3d 70 18 e2 3c e0 35 52 3d 60 7f da bc
       0.10026665 0.027599543 0.05132091 -0.026672065
000160 38 96 d7 bc 97 dc e2 bd 6d 3b a7 bd b8 72 2d 3d
       -0.026316747 -0.110772304 -0.081656314 0.042345732
000170 1c 81 46 3d 60 f2 ff 3c 23 88 90 bd c2 26 f2 bd
       0.048462972 0.031243503 -0.07057216 -0.11823799
000180 be 74 87 3d 1c 01 7f 3d 02 d4 af bd 72 06 b7 3d
       0.06614064 0.062256917 -0.08585359 0.08936776
000190 d8 47 8a 3d 18 43 c3 3c 00 03 b6 3a a7 3b 14 3e
       0.06751984 0.023835704 0.0013886392 0.1447588
0001a0 1a a4 1e bd 40 64 1e bc 8c 15 e0 bd cd c0 11 be
       -0.03873072 -0.009667456 -0.1094161 -0.14233704
0001b0 f9 42 14 be 93 61 0c be 46 32 c1 bd 64 e0 b8 3d
       -0.14478673 -0.13709097 -0.09433417 0.09027174
0001c0 2c 7a fc bd 80 45 77 3c d4 52 bc bd 70 2e d2 bc
       -0.1232799 0.015092254 -0.09195486 -0.025656909
0001d0 32 e1 8b bd ca df d4 bd 4e d0 7c bd 40 1a 0c bb
       -0.06830062 -0.10394247 -0.061722092 -0.002137795
0001e0 e9 42 ac bd 46 94 c7 bd d1 b5 bf bd bf 94 16 3e
       -0.084111996 -0.09745078 -0.093608506 0.1470518
0001f0 80 33 83 3a 32 6c e6 3d 22 42 f2 bd 41 0e 1c 3e
       0.0010009855 0.11251105 -0.1182902 0.15239812
000200 e1 04 8c bd ac ec 49 bd a0 d5 7e 3d fc d6 f6 bc
       -0.06836868 -0.049297974 0.062215447 -0.03013181
000210 c4 18 05 be b8 f9 a9 bc 83 9f 19 be 80 39 e1 3b
       -0.12997729 -0.020748958 -0.15002255 0.0068733096
000220 62 bd 67 bd c0 5c 12 3d 58 7f ab bd 08 7d 47 3d
       -0.056577094 0.035732985 -0.08373898 0.048703223
000230 b8 68 df bd 00 51 48 bc 0a e5 c9 3d 12 ea b5 3d
       -0.109086454 -0.012226343 0.09858139 0.08882536
000240 58 46 a5 3c df c7 01 3e 44 34 5d 3d f0 6a 8e 3c
       0.020175144 0.12673901 0.054004923 0.017384976
000250 10 2a 06 bc 0a 50 75 bd 22 8d aa 3d 01 a0 0e 3e
       -0.008188739 -0.059890784 0.083277 0.13928224
000260 6d c2 0f 3e a6 11 b2 3d b6 8e c4 3d 08 86 74 bd
       0.14039011 0.086947724 0.095975325 -0.059698135
000270 4e 57 6b bd a3 24 16 3e 43 d3 ca bd 50 ef 29 bc
       -0.057456307 0.14662413 -0.09903576 -0.010371998
000280 a0 60 d6 bb ae 3c f5 3d a0 c9 6c 3d b1 80 8e bd
       -0.0065422803 0.11974464 0.057809472 -0.0695814
000290 1a 01 f8 bd 82 3c 1a be 7a 38 0d be a2 ef cd bd
       -0.12109585 -0.15062144 -0.13791075 -0.10055472
0002a0 be 04 81 3d 4f 63 04 be 30 67 4f 3c b9 35 1a 3e
       0.062997326 -0.12928508 0.012658879 0.15059556
0002b0 a7 72 fd bd 66 6a 0b be a0 9a 20 3c 88 f9 b1 bc
       -0.12375384 -0.13614807 0.0098024905 -0.021725431
0002c0 58 2f 2d 3d e0 6a df bb 48 92 dd bd 44 f8 28 3d
       0.04228148 -0.0068181604 -0.108189166 0.04125239
0002d0 cc 6d 54 3d 88 ae b0 3d 0d 69 8f bd 80 72 fe 3b
       0.051862523 0.08627039 -0.07002459 0.0077651143
0002e0 00 44 af ba 88 c8 79 3d a0 7d 23 3d a8 29 ba bd
       -0.0013371706 0.060982257 0.039914727 -0.090899765
0002f0 92 10 be 3d 9c eb 57 bd 20 fa 8e bd 92 f8 f4 3d
       0.09280504 -0.05271493 -0.06981301 0.119614735
000300 b2 d4 d6 3d e1 4e 05 3e 6b 30 08 be 88 c9 ce bc
       0.10489787 0.13018371 -0.1329972 -0.025242582
000310 17 c8 87 bd 2e d0 9c 3d 12 1f ec 3d 74 47 9c 3d
       -0.06629961 0.076568946 0.11529364 0.07630816
000320 aa e5 b8 3d 0c 41 07 be d4 e1 a9 3d 76 7e 85 bd
       0.0902818 -0.13208407 0.082950264 -0.06518261
000330 c0 db 74 3d 32 7d d3 3d b8 50 1d 3d d0 ae 8e 3d
       0.059779882 0.103266135 0.038407058 0.069669366
000340 e0 6a c8 bb d2 51 d1 3d a0 90 ae 3b 1c ad 0c bd
       -0.006116256 0.10220684 0.0053272992 -0.034344777
000350 57 5f 11 3e f2 e8 d1 3d 18 93 60 3d ba 54 96 3d
       0.14196526 0.10249509 0.05482778 0.07340379
000360 48 92 f5 3c a2 52 ca 3d 72 32 eb 3d d0 8c cb bd
       0.029976979 0.09879042 0.11484231 -0.09938967
000370 e0 fb e7 bc 52 c9 01 be 27 a5 0a 3e 70 70 f4 bd
       -0.028318346 -0.12674454 0.13539563 -0.11935508
000380 30 9c 51 bc 02 9a c1 3d 90 b6 a9 bc f4 7b 2e 3d
       -0.012793586 0.09453203 -0.020716935 0.04259868
000390 56 05 fa 3d bf e2 18 be 91 db 08 3e d0 42 c6 bc
       0.12208049 -0.14930247 0.13365008 -0.02420178
0003a0 50 e2 05 3c 81 c6 07 3e f6 8a f3 3d 50 69 bc 3c
       0.008171633 0.13259317 0.11891739 0.022999436
0003b0 3c 2c bd bd 9b 1b 0e 3e 49 1f 16 be 4f df 18 be
       -0.09236953 0.13877718 -0.14660372 -0.14928935
0003c0 04 4d aa bd d8 f8 68 3d 59 4d 1a 3e 67 e4 86 bd
       -0.08315471 0.05687794 0.15068568 -0.06586533
0003d0 9d fd 1a 3e 39 8e 11 3e 80 67 ae bc 0a 17 96 3d
       0.15135808 0.1421441 -0.021289587 0.07328613
0003e0 9e 34 2e bd e0 9b 90 bd 0a c8 f3 3d 0c 98 17 3d
       -0.04253065 -0.07060981 0.11903389 0.037010238
0003f0 5e 12 d6 bd 75 64 12 3e d8 1f d8 3c 80 69 c3 3c
       -0.10452722 0.14296134 0.026382372 0.023854017

critic.0.bias f4 [128]
000000 cd cc cc 3d cd cc cc 3d cd cc cc 3d cd cc cc 3d
       0.1 0.1 0.1 0.1
000010 cd cc cc 3d cd cc cc 3d cd cc cc 3d cd cc cc 3d
       0.1 0.1 0.1 0.1
000020 cd cc cc 3d cd cc cc 3d cd cc cc 3d cd cc cc 3d
       0.1 0.1 0.1 0.1
000030 cd cc cc 3d cd cc cc 3d cd cc cc 3d cd cc cc 3d
       0.1 0.1 0.1 0.1
000040 cd cc cc 3d cd cc cc 3d cd cc cc 3d cd cc cc 3d
       0.1 0.1 0.1 0.1
000050 cd cc cc 3d cd cc cc 3d cd cc cc 3d cd cc cc 3d
       0.1 0.1 0.1 0.1
000060 cd cc cc 3d cd cc cc 3d cd cc cc 3d cd cc cc 3d
       0.1 0.1 0.1 0.1
000070 cd cc cc 3d cd cc cc 3d cd cc cc 3d cd cc cc 3d
       0.1 0.1 0.1 0.1
000080 cd cc cc 3d cd cc cc 3d cd cc cc 3d cd cc cc 3d
       0.1 0.1 0.1 0.1
000090 cd cc cc 3d cd cc cc 3d cd cc cc 3d cd cc cc 3d
       0.1 0.1 0.1 0.1
0000a0 cd cc cc 3d cd cc cc 3d cd cc cc 3d cd cc cc 3d
       0.1 0.1 0.1 0.1
0000b0 cd cc cc 3d cd cc cc 3d cd cc cc 3d cd cc cc 3d
       0.1 0.1 0.1 0.1
0000c0 cd cc cc 3d cd cc cc 3d cd cc cc 3d cd cc cc 3d
       0.1 0.1 0.1 0.1
0000d0 cd cc cc 3d cd cc cc 3d cd cc cc 3d cd cc cc 3d
       0.1 0.1 0.1 0.1
0000e0 cd cc cc 3d cd cc cc 3d cd cc cc 3d cd cc cc 3d
       0.1 0.1 0.1 0.1
0000f0 cd cc cc 3d cd cc cc 3d cd cc cc 3d cd cc cc 3d
       0.1 0.1 0.1 0.1
000100 cd cc cc 3d cd cc cc 3d cd cc cc 3d cd cc cc 3d
       0.1 0.1 0.1 0.1
000110 cd cc cc 3d cd cc cc 3d cd cc cc 3d cd cc cc 3d
       0.1 0.1 0.1 0.1
000120 cd cc cc 3d cd cc cc 3d cd cc cc 3d cd cc cc 3d
       0.1 0.1 0.1 0.1
000130 cd cc cc 3d cd cc cc 3d cd cc cc 3d cd cc cc 3d
       0.1 0.1 0.1 0.1
000140 cd cc cc 3d cd cc cc 3d cd cc cc 3d cd cc cc 3d
       0.1 0.1 0.1 0.1
000150 cd cc cc 3d cd cc cc 3d cd cc cc 3d cd cc cc 3d
       0.1 0.1 0.1 0.1
000160 cd cc cc 3d cd cc cc 3d cd cc cc 3d cd cc cc 3d
       0.1 0.1 0.1 0.1
000170 cd cc cc 3d cd cc cc 3d cd cc cc 3d cd cc cc 3d
       0.1 0.1 0.1 0.1
000180 cd cc cc 3d cd cc cc 3d cd cc cc 3d cd cc cc 3d
       0.1 0.1 0.1 0.1
000190 cd cc cc 3d cd cc cc 3d cd cc cc 3d cd cc cc 3d
       0.1 0.1 0.1 0.1
0001a0 cd cc cc 3d cd cc cc 3d cd cc cc 3d cd cc cc 3d
       0.1 0.1 0.1 0.1
0001b0 cd cc cc 3d cd cc cc 3d cd cc cc 3d cd cc cc 3d
       0.1 0.1 0.1 0.1
0001c0 cd cc cc 3d cd cc cc 3d cd cc cc 3d cd cc cc 3d
       0.1 0.1 0.1 0.1
0001d0 cd cc cc 3d cd cc cc 3d cd cc cc 3d cd cc cc 3d
       0.1 0.1 0.1 0.1
0001e0 cd cc cc 3d cd cc cc 3d cd cc cc 3d cd cc cc 3d
       0.1 0.1 0.1 0.1
0001f0 cd cc cc 3d cd cc cc 3d cd cc cc 3d cd cc cc 3d
       0.1 0.1 0.1 0.1

critic.2.weight f4 [1, 128]
000000 84 63 02 3e 62 a5 03 3e cc 66 cc bd f8 0b 8a bd
       0.12733275 0.12856057 -0.099805444 -0.06740564
000010 f8 2d d1 3c a0 82 51 3c df ff 09 be 1f 36 43 be
       0.025534615 0.012787491 -0.13476513 -0.19063614
000020 48 39 dc bc 50 f1 d2 3d 92 f4 28 3e 9c 34 39 3e
       -0.026882783 0.10299933 0.16499546 0.18086475
000030 66 35 16 3e 5e c4 4f 3e 25 ee 59 be 3c 55 36 be
       0.14668807 0.20289752 -0.21282251 -0.17805952
000040 53 89 c0 bd 9e 60 97 bd fb a0 55 be 88 a3 e9 3d
       -0.094011925 -0.07391475 -0.2086219 0.11408144
000050 4c ad 05 bd 18 bf 8b 3c 30 be 70 bc 30 eb 06 3d
       -0.032635972 0.017058894 -0.014693782 0.032939136
000060 00 4c 4b 3b 34 50 00 bd 9c 52 01 be dc 28 84 bd
       0.0031020641 -0.031326488 -0.12629169 -0.06453106
000070 1c 7a 95 3d 57 93 bd bd 13 0a 45 be bc 70 09 be
       0.07298681 -0.092566185 -0.19242124 -0.13421911
000080 bf 5a cc bd 78 4a 33 be 4e 4a 08 3e dc 5f 89 3d
       -0.09978246 -0.17508876 0.13309595 0.06707737
000090 d4 d4 3d 3e a0 0a 56 3d 54 6e b1 3d a9 68 3a be
       0.18538219 0.052256227 0.086636215 -0.18203987
0000a0 30 0d 15 bc d8 a3 42 3e 42 c4 a5 bd 40 3c d1 3b
       -0.009097382 0.19007814 -0.08094074 0.006385356
0000b0 f4 e6 fc 3d 1e f9 80 bd c4 02 b9 3d c1 b9 44 be
       0.12348738 -0.06297515 0.090337306 -0.19211484
0000c0 90 bd 45 3e 24 00 b7 3d 69 e0 28 be 78 3f 0e 3e
       0.19310594 0.08935574 -0.16491856 0.13891399
0000d0 30 e5 09 bc 07 b2 fc bd d6 8a 4d 3e ad 49 1e be
       -0.008416459 -0.123386435 0.20072493 -0.15457793
0000e0 38 49 f8 3c 99 54 33 be 00 fc c5 bc 08 74 fa 3c
       0.03030835 -0.1751274 -0.024168015 0.030572906
0000f0 1e 47 ba bd 89 81 52 be 00 f0 6f 38 97 88 4d be
       -0.09095596 -0.20557226 5.7205558e-05 -0.20071636
000100 d0 ec 10 bc 18 60 88 3c 89 49 1a be 88 8a a0 bc
       -0.008845523 0.016647384 -0.15067114 -0.019597307
000110 e2 9a 28 3e 3c bf 90 bd 0c b2 12 3e 27 66 32 be
       0.16465333 -0.07067725 0.14325732 -0.1742178
000120 c4 10 20 3e 1a 74 16 3e f0 f6 88 3d db f2 da bd
       0.15631396 0.14692727 0.066877246 -0.10690852
000130 d0 9b 4f 3d 5d 87 f7 bd 58 3b d1 bc 4c c9 49 3e
       0.050685704 -0.12086365 -0.025540993 0.19705695
000140 30 4a 4f 3d 20 ce 0e 3d 7e 33 a1 bd 38 bd 4b 3d
       0.05060786 0.034864545 -0.078711495 0.049741
000150 c0 ac ce 3d 83 30 d8 bd 90 6a 75 bd 1f 5d c6 bd
       0.10091543 -0.10556128 -0.05991608 -0.0968573
000160 b0 a1 12 bd 20 c3 d8 bd 7c 5b 33 be 4b 93 13 be
       -0.03579873 -0.10584092 -0.17515367 -0.14411657
000170 a0 6e e0 3d a0 e9 a4 bc 6d 51 16 be 12 62 05 be
       0.109586 -0.020130932 -0.14679499 -0.13025692
000180 c8 b8 98 3d 80 e5 ee 3d ee ee 4d be 30 d4 17 3e
       0.07457119 0.116648674 -0.20110676 0.14827037
000190 20 d0 8c 3c 90 cc 1c bc a8 8c 15 be c0 06 a3 3d
       0.017189085 -0.009570256 -0.14604437 0.07960272
0001a0 fa ad 45 be a0 b8 0e 3e ee 04 a6 bd 78 66 38 3e
       -0.19304648 0.13937616 -0.08106409 0.18007839
0001b0 a0 6e 4b be 80 06 73 bd 38 1c 7e 3d ba bc 21 be
       -0.19866419 -0.05933237 0.06203863 -0.1579465
0001c0 60 bc 1f 3c 94 7b 8a bd 36 0d 40 3e 10 dc 36 bc
       0.009749502 -0.06761852 0.1875504 -0.011160865
0001d0 10 03 02 3e 50 70 1d bc 84 01 81 3d d6 fe a8 bd
       0.12696481 -0.009609297 0.06299117 -0.08251731
0001e0 02 5d 3f be 60 1a cc bc 90 73 54 be d0 44 03 3c
       -0.18687823 -0.02491492 -0.20747209 0.008012012
0001f0 8f b9 e7 bd c5 f2 5b be c8 dd b4 3d 44 64 88 bd
       -0.11314689 -0.21479328 0.08831364 -0.06659749
