hw2/preTrained/unarLander_gae_0.015_lambda_0.95.pth (torch_old, 74639 bytes, 7 tensors)

shared_layers.0.weight f4 [128, 8]
0	0x3eb23757	0.34807846
1	0xbe73e208	-0.23816693
2	0x3e87e8da	0.2654484
3	0xbb0fbc25	-0.0021932211
4	0x3cb6144b	0.022226473
5	0xbe13acb9	-0.14421357
6	0xbd0dbfeb	-0.034606855
7	0xbe9355ba	-0.28776342
8	0xbe93fbbf	-0.28903005
9	0x3e118fb9	0.14214982
10	0xbf170b19	-0.5900131
11	0x3dcbd515	0.099527515
12	0x3f756ece	0.958722
13	0x3f01fe2d	0.50778466
14	0x3e811e95	0.25218645
15	0x3eca0b79	0.39461878
16	0x3e5fd48c	0.21858424
17	0xbe366efa	-0.17815772
18	0xbe3b354d	-0.18282051
19	0x3e252016	0.16125521
20	0xbdf80e5a	-0.12112112
21	0x3d15f5a8	0.03661123
22	0x3f89351c	1.0719333
23	0x3ef3f7f4	0.4765011
24	0xbef0cf46	-0.47033137
25	0xbd7e21c8	-0.062043935
26	0x3e5983d1	0.2124169
27	0xbf329ece	-0.69773567
28	0x3d02154a	0.031758584
29	0x3df018fb	0.11723515
30	0xbec84006	-0.39111346
31	0xbe0ee444	-0.13954264
32	0x3f12976d	0.5726231
33	0x3dbfd3a0	0.09366536
34	0x3ec87fb9	0.39159945
35	0xbd943dcc	-0.07238349
36	0xbf1b0885	-0.60559875
37	0xbf0a796f	-0.5409154
38	0xbd50cd05	-0.05097677
39	0xbe9505c0	-0.2910595
40	0xbdea0566	-0.11426811
41	0xbe945f18	-0.289788
42	0xbf1018db	-0.56287926
43	0x3eef758e	0.46769375
44	0x3e88086c	0.26568925
45	0x3e5bbded	0.2145917
46	0x3ed0a47c	0.40750492
47	0x3ef39aeb	0.4757913
48	0x3d423403	0.047412883
49	0xbdd213a2	-0.10257651
50	0x3e13325e	0.14374682
51	0xbee0021b	-0.43751606
52	0xbe48f73a	-0.1962556
53	0xbeabc96a	-0.33552104
54	0x3f04baa7	0.5184731
55	0x3d1d6d67	0.038434412
56	0xbe877081	-0.2645302
57	0xbe14eebd	-0.14544196
58	0x3dcdaa5c	0.10042259
59	0xbf7eb5c0	-0.9949608
60	0xbe967709	-0.29387692
61	0xbf0e728f	-0.5564355
62	0xbeca05ef	-0.39457652
63	0xbf0cd2d4	-0.550092
64	0x3c836ba1	0.016042532
65	0xbe0d8311	-0.13819529
66	0xbeadfe2e	-0.33982986
67	0x3e897122	0.26844126
68	0x3e0314b0	0.1280086
69	0x3d61b610	0.05510527
70	0x3eae1cfd	0.3400649
71	0x3eccfc61	0.400363
72	0x3ce277d6	0.027645033
73	0xbdabb9d5	-0.08385054
74	0xbe38ed0e	-0.18059179
75	0x3f1d0255	0.61331683
76	0x3ed9ae5d	0.4251584
77	0x3de62771	0.112379916
78	0xbd363aa9	-0.044489536
79	0x3ce1ce81	0.027564289
80	0xbe903802	-0.2816773
81	0x3dbb8659	0.09156484
82	0xbf1a87a7	-0.6036324
83	0xbf29e5b8	-0.6636615
84	0x3f78bb08	0.9716039
85	0x3eee5173	0.46546516
86	0x3c463571	0.012097702
87	0x3cba18c8	0.022716895
88	0xbe684668	-0.22683108
89	0xbe033273	-0.12812214
90	0xbe27cefc	-0.16387552
91	0xbdd6551e	-0.104654536
92	0x3ddb73fa	0.1071548
93	0xbe586163	-0.211309
94	0xbdeffa5f	-0.11717676
95	0xbe84501d	-0.25842372
96	0xbd8fd056	-0.07022159
97	0xbe42cd2b	-0.19023578
98	0x3d91f249	0.0712629
99	0x3de768d9	0.11299295
100	0x3cf15aee	0.029462304
101	0xbd21a5f9	-0.039464924
102	0xbe85fd55	-0.2616984
103	0xbc97502b	-0.018470844
104	0xbe1c7c39	-0.15281762
105	0xbd8988d1	-0.06715549
106	0x3d348fb3	0.044082355
107	0xbf57516d	-0.8410862
108	0xbec71716	-0.388848
109	0xbe9d329b	-0.3070267
110	0xbe813d33	-0.25242004
111	0x3d156324	0.0364715
112	0xbe605128	-0.21905959
113	0xbd990721	-0.07472063
114	0xbe75eeb7	-0.24016844
115	0xbd9c85a0	-0.076426744
116	0xbc98d60e	-0.018656757
117	0xbe04964b	-0.12947957
118	0xbe5679a7	-0.20944844
119	0xbe3f6879	-0.18692197
120	0x3e5017ba	0.20321551
121	0x3e8451a1	0.25843528
122	0x3e74701e	0.23870894
123	0x3e8f89e1	0.2803488
124	0xbe698b70	-0.22807097
125	0xbe86cef7	-0.26329777
126	0x3ec9f9bf	0.39448354
127	0xbda7946b	-0.08182605
128	0xbb8f20e2	-0.0043679336
129	0xbe5f4c26	-0.21806392
130	0xbd84c785	-0.06483368
131	0x3e218bd6	0.15776
132	0x3d1443f3	0.036197614
133	0xbd5a59f1	-0.05330843
134	0x3cf45ad2	0.029828463
135	0xbe46855e	-0.19386813
136	0x3d826371	0.06366623
137	0x3ec79ee1	0.38988402
138	0xbe048041	-0.1293955
139	0x3f093282	0.53592694
140	0x3e12e028	0.14343321
141	0xbe401a17	-0.18759952
142	0xbdcaedeb	-0.099086605
143	0xbeb78af7	-0.3584821
144	0xbe6f5833	-0.23373489
145	0x3e0df98f	0.1386473
146	0x3e17cdb1	0.14824559
147	0x3f1f81ab	0.6230723
148	0xbdc6dafa	-0.09709735
149	0x3e3753fd	0.17903133
150	0x3e524c3c	0.20536894
151	0x3ed42442	0.41433913
152	0x3be3e652	0.0069549466
153	0xbebf59b4	-0.37373126
154	0xbe3b3151	-0.18280531
155	0x3e5deb3e	0.21671769
156	0xbec90728	-0.39263272
157	0x3cdfb42b	0.02730759
158	0xbe030980	-0.12796593
159	0xbe5abd35	-0.21361239
160	0xbe0aa1cf	-0.13538288
161	0x3e848c95	0.25888506
162	0x3e9395f2	0.28825337
163	0x3fb2e811	1.3977071
164	0xbe62fe47	-0.22167312
165	0xbe5160bc	-0.20447057
166	0xbf087349	-0.5330091
167	0xbf2a0218	-0.66409445
168	0x3cd698ff	0.026196001
169	0xbe79657c	-0.2435512
170	0x3d50c5d3	0.05096991
171	0x3d85e1d1	0.06537212
172	0x3de2b98d	0.11070547
173	0xbd2e5812	-0.04256446
174	0x3d4a708d	0.049423743
175	0xbe6786ee	-0.22610065
176	0x3e276ef3	0.16350918
177	0xbea8d4b2	-0.32974774
178	0x3e3f7b7a	0.18699446
179	0x3cc87c81	0.02447343
180	0x3e169a7c	0.14707369
181	0xbe0dc1a2	-0.13843396
182	0x3c33fcdc	0.010985579
183	0xbe12cc5e	-0.14335772
184	0xbdd6c06d	-0.10485921
185	0xbd22f788	-0.039786845
186	0xbe30c885	-0.17263992
187	0xbed87bcf	-0.42281958
188	0xbeb18d6c	-0.3467821
189	0xbe5b66f0	-0.21425986
190	0x3cd81abd	0.026379937
191	0x3c501bc8	0.012701936
192	0xbccc9a54	-0.024975933
193	0xbdd9badb	-0.10631343
194	0xbeb2b325	-0.349023
195	0x3e6d259d	0.2315888
196	0xbdfe9cf7	-0.124322824
197	0x3baa8f58	0.005205076
198	0x3e2d63ad	0.16932555
199	0xbf00f8c3	-0.5037958
200	0x3e261909	0.16220488
201	0xbe6e19da	-0.23252049
202	0x3e577a6c	0.21042794
203	0x3e2d318d	0.16913433
204	0x3dc4d700	0.096113205
205	0x3da44c27	0.080223374
206	0x3dd593d3	0.10428586
207	0xbda981b9	-0.08276696
208	0x3ea5daa6	0.32393378
209	0xbe6bca5c	-0.23026413
210	0x3e341a63	0.1758819
211	0x3de1a6d2	0.110181466
212	0xbe2040fc	-0.1564979
213	0x3de2d3af	0.11075532
214	0x3d4aecb9	0.049542163
215	0xbe8b38d1	-0.27191785
216	0xbca7d7b4	-0.020488597
217	0xbe142403	-0.14466862
218	0xbdf4b585	-0.119486846
219	0x3e40b8d8	0.18820512
220	0x3dabe0c2	0.083924785
221	0xbd296648	-0.04135731
222	0xbeb34664	-0.3501464
223	0xbe0e48b3	-0.1389492
224	0xbe43bd98	-0.19115293
225	0xbe628aed	-0.22123308
226	0x3d064fc0	0.0327909
227	0x3e2fc4a2	0.17164853
228	0xbe039d7a	-0.12853041
229	0x3e661f59	0.22472896
230	0x3e94b4df	0.29044244
231	0x3e2e9a7a	0.17051116
232	0xbeef8867	-0.46783754
233	0xbdccce3a	-0.10000272
234	0x3d99a320	0.07501817
235	0x3eaa9cfc	0.33322895
236	0xbda86609	-0.08222587
237	0x3e0e8602	0.13918307
238	0x3f3b2930	0.7310972
239	0x3ef157bf	0.47137257
240	0xbe1e6c4d	-0.15471001
241	0xbe3a8a92	-0.18216923
242	0xbca8af99	-0.020591544
243	0xbd75cf85	-0.06001236
244	0xbe91867c	-0.28422916
245	0xbe7847a2	-0.24246076
246	0x3e9ed8bd	0.31024733
247	0xbe87c325	-0.2651607
248	0x3c562677	0.013070694
249	0xbe385106	-0.17999658
250	0xbee5088a	-0.44733077
251	0x3ea3aa9f	0.3196611
252	0x3de83170	0.113375545
253	0xbcd36aa2	-0.025807682
254	0x3f32aaa9	0.69791657
255	0x3ee155fe	0.4401092

shared_layers.0.bias f4 [128]
0	0x3b91ebde	0.0044531664
1	0x3e285066	0.1643692
2	0x3db9bfcf	0.09069788
3	0x3eadada0	0.33921528
4	0x3e127f87	0.1430646
5	0x3d9b824b	0.07593211
6	0x3d274876	0.04084059
7	0x3ecdc3d3	0.40188465
8	0xbe4ef121	-0.20209171
9	0xbe12cd34	-0.14336091
10	0x3e22c334	0.15894777
11	0xbe23ed6f	-0.16008542
12	0xbddb1b4e	-0.10698567
13	0x3d384024	0.044983044
14	0xbdf369df	-0.11885428
15	0xbd97b865	-0.07408217
16	0xbe04995a	-0.12949124
17	0x3d1e246a	0.038608946
18	0x3d686d97	0.056745138
19	0xbd84e66f	-0.06489264
20	0x3e54064b	0.20705526
21	0xbd97ec97	-0.07418173
22	0xbe3942ed	-0.18091936
23	0x3d3faf8b	0.04679827
24	0xbe730f72	-0.2373636
25	0xbe224608	-0.15847027
26	0xbd3989a5	-0.045297284
27	0x3be6b1c2	0.0070402334
28	0xbac85a3e	-0.0015285683
29	0xbdd105a0	-0.10206151
30	0xbe28eb03	-0.164959
31	0xbecd1d2a	-0.40061313
32	0xbe0aa9a2	-0.13541272
33	0x3dc64175	0.09680454
34	0xbd3e0687	-0.046392944
35	0xbe81b774	-0.25335276
36	0x3ddf1d06	0.10894208
37	0xbdaeaec7	-0.0852943
38	0xbde45ea9	-0.111508675
39	0x3e01da8c	0.12681025
40	0x3da0f59e	0.07859348
41	0xbe087223	-0.1332479
42	0xbe2863c4	-0.16444308
43	0xbe4ae85c	-0.198152
44	0xbe9b0965	-0.30280605
45	0xbe67dafa	-0.22642127
46	0xbdc9138d	-0.09818182
47	0xbeb4c4f1	-0.35306504
48	0xbe850d39	-0.2598665
49	0xbe25b7be	-0.16183373
50	0x3e19a573	0.1500452
51	0xbe17424c	-0.14771384
52	0x3e694781	0.22781183
53	0xbe9de97e	-0.30842203
54	0xbece3771	-0.40276673
55	0x3d2543b0	0.040347755
56	0x3d45eeb3	0.048323344
57	0xbdd6202a	-0.104553536
58	0xbe8b34b0	-0.27188635
59	0xbe3b8110	-0.18310952
60	0xbe04c788	-0.1296674
61	0x3e1e31bc	0.1544866
62	0x3e4a27a8	0.1974169
63	0x3dd59f9e	0.10430835
64	0xbe107259	-0.1410612
65	0xbe1b2d92	-0.15154102
66	0xbe906aff	-0.28206632
67	0x3e5034cd	0.20332642
68	0xbe325ce0	-0.17418242
69	0x3d8a0177	0.06738561
70	0xbe61d9ee	-0.2205579
71	0xbee18317	-0.44045326
72	0xbeb5f9e1	-0.35542205
73	0xbe9751de	-0.29554647
74	0x3e35ae78	0.17742336
75	0x3de94471	0.11390007
76	0x3e397a13	0.18112974
77	0xbe310a7f	-0.1728916
78	0x3d55d8bd	0.05220865
79	0xbdbf260a	-0.09333427
80	0x3e55fbc3	0.2089682
81	0xbcdd6dfa	-0.02702998
82	0xbdcd0dcd	-0.10012398
83	0x3d01c603	0.03168298
84	0x3ecd7789	0.4013026
85	0x3e6d176c	0.23153466
86	0xbe876f5e	-0.26452154
87	0x3e79720d	0.24359913
88	0x3d97711a	0.07394619
89	0x3d2b2719	0.041785333
90	0xbdceac50	-0.1009146
91	0xbcecee7c	-0.028922312
92	0xbecdd985	-0.40205017
93	0xbe0abdf6	-0.13549027
94	0x3dfa50a3	0.122224115
95	0xbdeb8ada	-0.11501093
96	0xbcb43a2b	-0.022000393
97	0x3eb39807	0.35076925
98	0xbe9e2757	-0.3088939
99	0xbe884cec	-0.26621187
100	0xbe75bfba	-0.23998919
101	0xbe63f7ec	-0.22262543
102	0x3cf5dc75	0.030012349
103	0x3e170513	0.1474803
104	0x3e2cb357	0.16865288
105	0xbd43d0d2	-0.04780657
106	0xbadce030	-0.0016851481
107	0x3e303625	0.17208154
108	0x3de2da1f	0.110767595
109	0x3d8177ba	0.06321664
110	0xbd8e5ee8	-0.06951696
111	0x3db5688b	0.088578306
112	0xbd4d292b	-0.05008809
113	0x3e8447cc	0.25836027
114	0x3da492af	0.0803579
115	0xbe1ef28c	-0.15522212
116	0xbd75ea8e	-0.060038142
117	0xbe35b114	-0.17743331
118	0x3e19f582	0.1503506
119	0xbe2a5995	-0.16635735
120	0xbe64155e	-0.22273776
121	0x3d68bc82	0.0568204
122	0x3e835276	0.2564885
123	0xbec32748	-0.38115907
124	0xbe2360ef	-0.15954946
125	0x3e25de47	0.16198073
126	0x3eb78b84	0.3584863
127	0x3e94dbff	0.29074094

actor.0.weight f4 [4, 128]
0	0x3dc1a5b1	0.09455431
1	0x3e20389b	0.15646593
2	0x3edd28e9	0.43195274
3	0xbf16431a	-0.5869614
4	0x3d2a00dd	0.04150473
5	0x3ead0936	0.3379609
6	0x3c9496cb	0.01813831
7	0xbf33d4c6	-0.7024654
8	0x3dfb2524	0.122629434
9	0x3dda7d81	0.10668469
10	0x3e375eec	0.17907304
11	0x3d9de70b	0.077100836
12	0x3d6811ee	0.056657724
13	0xbe843357	-0.2582042
14	0x3d4206aa	0.047369637
15	0x3da5df61	0.08099247
16	0xbc963202	-0.018334392
17	0x3c6c64f0	0.014428362
18	0x3e7c7abf	0.24656199
19	0xbe57fa3e	-0.21091554
20	0x3e9a6617	0.30156013
21	0xbd01898c	-0.031625316
22	0xbc8f5afb	-0.017499438
23	0x3c6c31a4	0.014416132
24	0x3e7e7d6b	0.2485253
25	0x3cadfe84	0.021239527
26	0x3e0a7beb	0.13523833
27	0xbc9709ff	-0.018437384
28	0x3eb0f155	0.34559122
29	0x3e8460c3	0.25855073
30	0xbcc70016	-0.024292033
31	0x3eab1edd	0.33421984
32	0x3d851d28	0.06499702
33	0x3d9414c1	0.07230521
34	0x3e99ba81	0.30025104
35	0x3e670661	0.22561027
36	0x3ea44513	0.3208395
37	0x3e459e5a	0.19298688
38	0x3de87ab8	0.11351532
39	0xbdd504eb	-0.10401329
40	0x3f01d840	0.50720596
41	0x3e4d139b	0.2002701
42	0xbe06659e	-0.13124701
43	0xbd2d5ee5	-0.042326827
44	0x3db247ff	0.087051384
45	0x3d1e134f	0.038592633
46	0x3e2b60c0	0.16736126
47	0x3ea0ad34	0.31382143
48	0x3e610fcf	0.21978687
49	0x3e7b54a2	0.24544004
50	0x3e928af1	0.2862163
51	0x3d0502df	0.03247344
52	0x3e308d83	0.17241482
53	0x3e0b0916	0.13577685
54	0x3d27618a	0.040864505
55	0xbe001de5	-0.12511404
56	0xbc4aa2de	-0.012367932
57	0xbc980a33	-0.01855955
58	0x3e2619e6	0.16220817
59	0x3db00c19	0.085960574
60	0x3e23429a	0.15943375
61	0xbd323a8f	-0.043512877
62	0x3e997210	0.29969835
63	0xbcde2f0f	-0.027122049
64	0x3db685b7	0.08912223
65	0xbdd670bd	-0.10470722
66	0x3e5c74db	0.21528952
67	0x3f7af20a	0.9802557
68	0x3e1b4ed2	0.15166786
69	0x3c902e2d	0.017600143
70	0x3cd6eddc	0.026236467
71	0x3d8ca766	0.06867866
72	0x3d306219	0.043062303
73	0x3e3eb27e	0.18622777
74	0x3e749a1d	0.23886915
75	0x3d05c796	0.032661043
76	0xbdbe0eee	-0.09280191
77	0x3a38ac86	0.0007044751
78	0x3e5c5fb3	0.21520881
79	0x3d997665	0.07493285
80	0x3e9351e1	0.28773406
81	0x3de141d5	0.109988846
82	0x3e21d76d	0.15804835
83	0xbe97ac8a	-0.29623824
84	0xbf17504d	-0.59106904
85	0xbec60a18	-0.38679576
86	0x3dc58f36	0.09646456
87	0xbee59c7a	-0.44845945
88	0x3efe7704	0.49700177
89	0x3e8e969f	0.2784929
90	0x3d1a08fc	0.037606224
91	0xbe2362cb	-0.15955655
92	0xbeb0aaec	-0.34505403
93	0xbe0991f2	-0.1343458
94	0x3eda9a50	0.42695856
95	0x3e61d0d9	0.22052325
96	0x3e6d53f0	0.23176551
97	0xbeebba41	-0.46040538
98	0x3e199cbd	0.15001197
99	0xbc898f4f	-0.016791968
100	0x3d85120b	0.06497582
101	0x3c9ab7fd	0.01888656
102	0x3ea7e697	0.32793114
103	0x3f1324e0	0.5747814
104	0x3eaaac11	0.333344
105	0x3e1bd2c7	0.15217124
106	0x3ecc1750	0.39861536
107	0x3e541211	0.20710017
108	0x3d3726d5	0.044714767
109	0x3d75ab4c	0.059977815
110	0x3d87ba11	0.06627286
111	0xbe7a99b3	-0.24472694
112	0x3e3ba3e7	0.18324243
113	0x3f09e65a	0.53867114
114	0xbddf08ee	-0.10890375
115	0xbdadce3b	-0.08486601
116	0xbc9fdf4c	-0.019515656
117	0x3ed6b59d	0.41935435
118	0xbe345651	-0.17611052
119	0x3d302df5	0.043012578
120	0x3e8a71a9	0.2703984
121	0xbc2025c2	-0.009774627
122	0xbeb07ac3	-0.3446866
123	0x3eab8498	0.33499599
124	0x3ce28f9b	0.027656367
125	0x3e4e9e3d	0.2017755
126	0xbed49a34	-0.41523898
127	0x3f0feaa2	0.56217396
128	0xbd7397b0	-0.059470832
129	0xbf33d67e	-0.70249164
130	0xbe255bc1	-0.16148283
131	0x3e23db63	0.16001658
132	0x3f14ee27	0.5817589
133	0xbe096f47	-0.13421355
134	0x3dfb3d20	0.12267518
135	0x3ed1dd85	0.40989318
136	0xbe7549ac	-0.23953885
137	0x3d137157	0.03599676
138	0xbf52280d	-0.8209236
139	0xbe2937b2	-0.16525152
140	0x3c59193c	0.013250645
141	0x3d91b926	0.071153924
142	0xbea60ebe	-0.32433122
143	0x3e00bf85	0.12573059
144	0xbe1188fd	-0.14212413
145	0x3e009981	0.12558557
146	0x3d91c7c2	0.07118179
147	0x3e8a5ef5	0.2702557
148	0x3f250c9a	0.64472353
149	0x3dd1c1dd	0.102420546
150	0x387addd2	5.981123e-05
151	0x3e3ac897	0.18240581
152	0xbd1e3b48	-0.038630754
153	0x3e611573	0.21980838
154	0x3e05bbfc	0.13059992
155	0x3d8e6950	0.069536805
156	0x3ce5d0ad	0.028053606
157	0xbde55893	-0.11198535
158	0xbb978846	-0.0046243994
159	0xbe690de1	-0.227592
160	0x3dae3308	0.08505827
161	0x3d6d911e	0.057999723
162	0xbdfa99bc	-0.12236354
163	0xbecc9f76	-0.3996541
164	0x3e9634e2	0.2933722
165	0x3d50e675	0.05100103
166	0x3da947d4	0.08265653
167	0xbf4269df	-0.75942796
168	0xbd4c3c4e	-0.0498622
169	0x3d6dcd02	0.05805684
170	0xbcf5518b	-0.02994611
171	0xbe162d84	-0.146658
172	0xbe9b0434	-0.30276644
173	0xbcac3246	-0.021020066
174	0x3e6a62ce	0.22889253
175	0xbe866a53	-0.26252994
176	0x3c2d53c9	0.010579058
177	0x3d7315ea	0.05934707
178	0xbc8b7abb	-0.017026296
179	0x3d8860dd	0.066591
180	0x3e051e70	0.12999892
181	0xbe091fb5	-0.13391002
182	0xbd9477fe	-0.07249449
183	0xbe795308	-0.2434808
184	0x3f084a0b	0.5323798
185	0xbdcd3fc7	-0.1002193
186	0xbe14807a	-0.14502135
187	0x3ca2d628	0.019877508
188	0x3de54d14	0.11196342
189	0x3ea69caf	0.32541415
190	0x3e8b7f1b	0.2724541
191	0xbdcb3298	-0.09921759
192	0x3defd587	0.11710649
193	0xbdf6f539	-0.12058491
194	0xbe9bf99f	-0.30463883
195	0x3d1b09d7	0.03785118
196	0x3dac027a	0.0839891
197	0xbf2b0cb1	-0.6681624
198	0xbe9bdcf5	-0.30442014
199	0xbe861298	-0.2618606
200	0xbdf76fd4	-0.120818764
201	0xbeb9437c	-0.361843
202	0x3e1fe384	0.15614134
203	0xbe5200ee	-0.20508167
204	0x3e85c2ab	0.26125082
205	0x3e30c158	0.17261255
206	0xbec13d71	-0.3774219
207	0x3e464a21	0.19364215
208	0xbc76fc99	-0.015074872
209	0xbf00e889	-0.5035482
210	0xbdc13f23	-0.094358705
211	0x3ef43232	0.47694546
212	0x3efe0adc	0.4961766
213	0x3e2d4e96	0.1692451
214	0xbe533c83	-0.20628552
215	0xbd363856	-0.04448732
216	0xbe3f23c9	-0.18665995
217	0x3f104be9	0.5636583
218	0xbd30bb77	-0.04314753
219	0xbe883b51	-0.26607755
220	0xbcbebe6c	-0.02328416
221	0x3e3af2dd	0.18256707
222	0x3e9a59b8	0.30146575
223	0x3e52fb2d	0.20603628
224	0xbeb424fe	-0.35184473
225	0x3e878aa8	0.26472974
226	0xbe2299c4	-0.1587897
227	0x3d874561	0.0660503
228	0x3e62dad1	0.22153784
229	0xbe2b075a	-0.16702023
230	0xbedbd542	-0.4293614
231	0x3e72518c	0.2366392
232	0xbe8669b3	-0.26252517
233	0x3e12b08d	0.14325161
234	0xbd3fc263	-0.04681624
235	0xbe6538e4	-0.22384983
236	0x3f6261c0	0.88430405
237	0x3f3b0fc2	0.7307092
238	0x3e3ac899	0.18240584
239	0x3efea119	0.49732283
240	0x3deb8439	0.11499829
241	0x3f4b6d89	0.7946401
242	0xbdb84aba	-0.08998628
243	0xbdbd8b44	-0.092550784
244	0x3e3f2b78	0.18668926
245	0x3cafeed3	0.021476185
246	0x3df6ec0a	0.1205674
247	0x3dc9bea0	0.09850812
248	0xbe353ef1	-0.17699791
249	0x3f32c401	0.6983033
250	0xbde7ce77	-0.11318677
251	0xbe1ef5fe	-0.15523526
252	0x3e15a931	0.14615323
253	0x3f2475e5	0.6424239
254	0x3e8e4954	0.2779032
255	0x3df4992b	0.11943277

actor.0.bias f4 [4]
0	0x3cae2d38	0.021261796
1	0xbcbfedc3	-0.023428803
2	0x3ea83600	0.328537
3	0x3ea52417	0.32254097

critic.0.weight f4 [128, 128]
0	0x3d689828	0.056785733
1	0xbd9b4ccf	-0.075830095
2	0xbc3469e0	-0.011011571
3	0x3c6a8280	0.01431334
4	0xbd7cad66	-0.061688803
5	0xbe1c6b43	-0.15275292
6	0xbdcc6375	-0.099799074
7	0x3da62d98	0.08114165
8	0xbd80cd23	-0.06289127
9	0xbd9e4160	-0.07727313
10	0x3d8945e0	0.06702781
11	0x3d0daea0	0.034590364
12	0xbd5bb15c	-0.05363594
13	0x3dfafd22	0.122553125
14	0xbd9425ce	-0.07233773
15	0xbe1a73af	-0.15083192
16	0xbdc2b3ea	-0.09506972
17	0x3d8e8e26	0.069607064
18	0x3d92eb1a	0.07173748
19	0xbddc80ea	-0.10766776
20	0x3d24d0dc	0.040238246
21	0xbd5bf848	-0.053703576
22	0xbdff2bb2	-0.12459506
23	0x3cc96070	0.024582118
24	0xbd9f03ba	-0.07764383
25	0xbe014535	-0.12624057
26	0xbe15e3ee	-0.1463773
27	0x3e0d7677	0.13814722
28	0x3e16236f	0.14661954
29	0x3e02ea37	0.12784658
30	0x3d8c90da	0.06863566
31	0x3e03d869	0.12875523
32	0x3d2d23e8	0.04227057
33	0xbdb9a13e	-0.09063958
34	0xbd61f48c	-0.05516486
35	0xbdeb3012	-0.11483778
36	0xbe19151c	-0.14949459
37	0xbdf5254a	-0.11970003
38	0xbe045d6d	-0.12926264
39	0x3e01bbe3	0.1266933
40	0xbd40af72	-0.047042318
41	0x3d928b7c	0.07155511
42	0x3d29f164	0.041489974
43	0x3ac60e80	0.0015110523
44	0xbe138804	-0.14407355
45	0x3e199fe5	0.15002401
46	0x3e002e31	0.1251762
47	0xbdca88ab	-0.098893486
48	0xbd1b0f6c	-0.037856504
49	0xbda4b105	-0.08041576
50	0x3d883334	0.06650391
51	0xbdc87128	-0.09787208
52	0xbdeba4d2	-0.11506046
53	0xbd40db88	-0.04708436
54	0x3d9c0a00	0.07619095
55	0xbdb9d268	-0.09073335
56	0x3d9f777e	0.07786463
57	0xbd73bf6e	-0.059508733
58	0xbdd81d20	-0.1055243
59	0x3d632620	0.05545628
60	0xbcc27308	-0.023736492
61	0xbe1a93b1	-0.15095402
62	0xbc0cb230	-0.008587405
63	0x3e0382a7	0.12842809
64	0x3e1c7e41	0.15282537
65	0xbda228dd	-0.0791795
66	0x3e0c68df	0.1371188
67	0x3d746b90	0.059672892
68	0xbd99a9c4	-0.07503083
69	0xbd03c288	-0.03216794
70	0x3de8f4a2	0.11374785
71	0x3def7676	0.116925165
72	0x3e0a9603	0.13533787
73	0x3e18f7c5	0.14938267
74	0xbdf396b4	-0.11893979
75	0xbe1691cc	-0.14704055
76	0x3de1457e	0.10999583
77	0x3d1d84a8	0.03845659
78	0x3d5e17bc	0.054221854
79	0x3d2e57bc	0.04256414
80	0x3c634cc0	0.013873279
81	0x3e1a32ad	0.15058394
82	0x3e0d73d9	0.13813724
83	0x3b023200	0.0019866228
84	0x3dcd589a	0.10026665
85	0x3ce21870	0.027599543
86	0x3d5235e0	0.05132091
87	0xbcda7f60	-0.026672065
88	0xbcd79638	-0.026316747
89	0xbde2dc97	-0.110772304
90	0xbda73b6d	-0.081656314
91	0x3d2d72b8	0.042345732
92	0x3d46811c	0.048462972
93	0x3cfff260	0.031243503
94	0xbd908823	-0.07057216
95	0xbdf226c2	-0.11823799
96	0x3d8774be	0.06614064
97	0x3d7f011c	0.062256917
98	0xbdafd402	-0.08585359
99	0x3db70672	0.08936776
100	0x3d8a47d8	0.06751984
101	0x3cc34318	0.023835704
102	0x3ab60300	0.0013886392
103	0x3e143ba7	0.1447588
104	0xbd1ea41a	-0.03873072
105	0xbc1e6440	-0.009667456
106	0xbde0158c	-0.1094161
107	0xbe11c0cd	-0.14233704
108	0xbe1442f9	-0.14478673
109	0xbe0c6193	-0.13709097
110	0xbdc13246	-0.09433417
111	0x3db8e064	0.09027174
112	0xbdfc7a2c	-0.1232799
113	0x3c774580	0.015092254
114	0xbdbc52d4	-0.09195486
115	0xbcd22e70	-0.025656909
116	0xbd8be132	-0.06830062
117	0xbdd4dfca	-0.10394247
118	0xbd7cd04e	-0.061722092
119	0xbb0c1a40	-0.002137795
120	0xbdac42e9	-0.084111996
121	0xbdc79446	-0.09745078
122	0xbdbfb5d1	-0.093608506
123	0x3e1694bf	0.1470518
124	0x3a833380	0.0010009855
125	0x3de66c32	0.11251105
126	0xbdf24222	-0.1182902
127	0x3e1c0e41	0.15239812
128	0xbd8c04e1	-0.06836868
129	0xbd49ecac	-0.049297974
130	0x3d7ed5a0	0.062215447
131	0xbcf6d6fc	-0.03013181
132	0xbe0518c4	-0.12997729
133	0xbca9f9b8	-0.020748958
134	0xbe199f83	-0.15002255
135	0x3be13980	0.0068733096
136	0xbd67bd62	-0.056577094
137	0x3d125cc0	0.035732985
138	0xbdab7f58	-0.08373898
139	0x3d477d08	0.048703223
140	0xbddf68b8	-0.109086454
141	0xbc485100	-0.012226343
142	0x3dc9e50a	0.09858139
143	0x3db5ea12	0.08882536
144	0x3ca54658	0.020175144
145	0x3e01c7df	0.12673901
146	0x3d5d3444	0.054004923
147	0x3c8e6af0	0.017384976
148	0xbc062a10	-0.008188739
149	0xbd75500a	-0.059890784
150	0x3daa8d22	0.083277
151	0x3e0ea001	0.13928224
152	0x3e0fc26d	0.14039011
153	0x3db211a6	0.086947724
154	0x3dc48eb6	0.095975325
155	0xbd748608	-0.059698135
156	0xbd6b574e	-0.057456307
157	0x3e1624a3	0.14662413
158	0xbdcad343	-0.09903576
159	0xbc29ef50	-0.010371998
160	0xbbd660a0	-0.0065422803
161	0x3df53cae	0.11974464
162	0x3d6cc9a0	0.057809472
163	0xbd8e80b1	-0.0695814
164	0xbdf8011a	-0.12109585
165	0xbe1a3c82	-0.15062144
166	0xbe0d387a	-0.13791075
167	0xbdcdefa2	-0.10055472
168	0x3d8104be	0.062997326
169	0xbe04634f	-0.12928508
170	0x3c4f6730	0.012658879
171	0x3e1a35b9	0.15059556
172	0xbdfd72a7	-0.12375384
173	0xbe0b6a66	-0.13614807
174	0x3c209aa0	0.0098024905
175	0xbcb1f988	-0.021725431
176	0x3d2d2f58	0.04228148
177	0xbbdf6ae0	-0.0068181604
178	0xbddd9248	-0.108189166
179	0x3d28f844	0.04125239
180	0x3d546dcc	0.051862523
181	0x3db0ae88	0.08627039
182	0xbd8f690d	-0.07002459
183	0x3bfe7280	0.0077651143
184	0xbaaf4400	-0.0013371706
185	0x3d79c888	0.060982257
186	0x3d237da0	0.039914727
187	0xbdba29a8	-0.090899765
188	0x3dbe1092	0.09280504
189	0xbd57eb9c	-0.05271493
190	0xbd8efa20	-0.06981301
191	0x3df4f892	0.119614735
192	0x3dd6d4b2	0.10489787
193	0x3e054ee1	0.13018371
194	0xbe08306b	-0.1329972
195	0xbccec988	-0.025242582
196	0xbd87c817	-0.06629961
197	0x3d9cd02e	0.076568946
198	0x3dec1f12	0.11529364
199	0x3d9c4774	0.07630816
200	0x3db8e5aa	0.0902818
201	0xbe07410c	-0.13208407
202	0x3da9e1d4	0.082950264
203	0xbd857e76	-0.06518261
204	0x3d74dbc0	0.059779882
205	0x3dd37d32	0.103266135
206	0x3d1d50b8	0.038407058
207	0x3d8eaed0	0.069669366
208	0xbbc86ae0	-0.006116256
209	0x3dd151d2	0.10220684
210	0x3bae90a0	0.0053272992
211	0xbd0cad1c	-0.034344777
212	0x3e115f57	0.14196526
213	0x3dd1e8f2	0.10249509
214	0x3d609318	0.05482778
215	0x3d9654ba	0.07340379
216	0x3cf59248	0.029976979
217	0x3dca52a2	0.09879042
218	0x3deb3272	0.11484231
219	0xbdcb8cd0	-0.09938967
220	0xbce7fbe0	-0.028318346
221	0xbe01c952	-0.12674454
222	0x3e0aa527	0.13539563
223	0xbdf47070	-0.11935508
224	0xbc519c30	-0.012793586
225	0x3dc19a02	0.09453203
226	0xbca9b690	-0.020716935
227	0x3d2e7bf4	0.04259868
228	0x3dfa0556	0.12208049
229	0xbe18e2bf	-0.14930247
230	0x3e08db91	0.13365008
231	0xbcc642d0	-0.02420178
232	0x3c05e250	0.008171633
233	0x3e07c681	0.13259317
234	0x3df38af6	0.11891739
235	0x3cbc6950	0.022999436
236	0xbdbd2c3c	-0.09236953
237	0x3e0e1b9b	0.13877718
238	0xbe161f49	-0.14660372
239	0xbe18df4f	-0.14928935
240	0xbdaa4d04	-0.08315471
241	0x3d68f8d8	0.05687794
242	0x3e1a4d59	0.15068568
243	0xbd86e467	-0.06586533
244	0x3e1afd9d	0.15135808
245	0x3e118e39	0.1421441
246	0xbcae6780	-0.021289587
247	0x3d96170a	0.07328613
248	0xbd2e349e	-0.04253065
249	0xbd909be0	-0.07060981
250	0x3df3c80a	0.11903389
251	0x3d17980c	0.037010238
252	0xbdd6125e	-0.10452722
253	0x3e126475	0.14296134
254	0x3cd81fd8	0.026382372
255	0x3cc36980	0.023854017

critic.0.bias f4 [128]
0	0x3dcccccd	0.1
1	0x3dcccccd	0.1
2	0x3dcccccd	0.1
3	0x3dcccccd	0.1
4	0x3dcccccd	0.1
5	0x3dcccccd	0.1
6	0x3dcccccd	0.1
7	0x3dcccccd	0.1
8	0x3dcccccd	0.1
9	0x3dcccccd	0.1
10	0x3dcccccd	0.1
11	0x3dcccccd	0.1
12	0x3dcccccd	0.1
13	0x3dcccccd	0.1
14	0x3dcccccd	0.1
15	0x3dcccccd	0.1
16	0x3dcccccd	0.1
17	0x3dcccccd	0.1
18	0x3dcccccd	0.1
19	0x3dcccccd	0.1
20	0x3dcccccd	0.1
21	0x3dcccccd	0.1
22	0x3dcccccd	0.1
23	0x3dcccccd	0.1
24	0x3dcccccd	0.1
25	0x3dcccccd	0.1
26	0x3dcccccd	0.1
27	0x3dcccccd	0.1
28	0x3dcccccd	0.1
29	0x3dcccccd	0.1
30	0x3dcccccd	0.1
31	0x3dcccccd	0.1
32	0x3dcccccd	0.1
33	0x3dcccccd	0.1
34	0x3dcccccd	0.1
35	0x3dcccccd	0.1
36	0x3dcccccd	0.1
37	0x3dcccccd	0.1
38	0x3dcccccd	0.1
39	0x3dcccccd	0.1
40	0x3dcccccd	0.1
41	0x3dcccccd	0.1
42	0x3dcccccd	0.1
43	0x3dcccccd	0.1
44	0x3dcccccd	0.1
45	0x3dcccccd	0.1
46	0x3dcccccd	0.1
47	0x3dcccccd	0.1
48	0x3dcccccd	0.1
49	0x3dcccccd	0.1
50	0x3dcccccd	0.1
51	0x3dcccccd	0.1
52	0x3dcccccd	0.1
53	0x3dcccccd	0.1
54	0x3dcccccd	0.1
55	0x3dcccccd	0.1
56	0x3dcccccd	0.1
57	0x3dcccccd	0.1
58	0x3dcccccd	0.1
59	0x3dcccccd	0.1
60	0x3dcccccd	0.1
61	0x3dcccccd	0.1
62	0x3dcccccd	0.1
63	0x3dcccccd	0.1
64	0x3dcccccd	0.1
65	0x3dcccccd	0.1
66	0x3dcccccd	0.1
67	0x3dcccccd	0.1
68	0x3dcccccd	0.1
69	0x3dcccccd	0.1
70	0x3dcccccd	0.1
71	0x3dcccccd	0.1
72	0x3dcccccd	0.1
73	0x3dcccccd	0.1
74	0x3dcccccd	0.1
75	0x3dcccccd	0.1
76	0x3dcccccd	0.1
77	0x3dcccccd	0.1
78	0x3dcccccd	0.1
79	0x3dcccccd	0.1
80	0x3dcccccd	0.1
81	0x3dcccccd	0.1
82	0x3dcccccd	0.1
83	0x3dcccccd	0.1
84	0x3dcccccd	0.1
85	0x3dcccccd	0.1
86	0x3dcccccd	0.1
87	0x3dcccccd	0.1
88	0x3dcccccd	0.1
89	0x3dcccccd	0.1
90	0x3dcccccd	0.1
91	0x3dcccccd	0.1
92	0x3dcccccd	0.1
93	0x3dcccccd	0.1
94	0x3dcccccd	0.1
95	0x3dcccccd	0.1
96	0x3dcccccd	0.1
97	0x3dcccccd	0.1
98	0x3dcccccd	0.1
99	0x3dcccccd	0.1
100	0x3dcccccd	0.1
101	0x3dcccccd	0.1
102	0x3dcccccd	0.1
103	0x3dcccccd	0.1
104	0x3dcccccd	0.1
105	0x3dcccccd	0.1
106	0x3dcccccd	0.1
107	0x3dcccccd	0.1
108	0x3dcccccd	0.1
109	0x3dcccccd	0.1
110	0x3dcccccd	0.1
111	0x3dcccccd	0.1
112	0x3dcccccd	0.1
113	0x3dcccccd	0.1
114	0x3dcccccd	0.1
115	0x3dcccccd	0.1
116	0x3dcccccd	0.1
117	0x3dcccccd	0.1
118	0x3dcccccd	0.1
119	0x3dcccccd	0.1
120	0x3dcccccd	0.1
121	0x3dcccccd	0.1
122	0x3dcccccd	0.1
123	0x3dcccccd	0.1
124	0x3dcccccd	0.1
125	0x3dcccccd	0.1
126	0x3dcccccd	0.1
127	0x3dcccccd	0.1

critic.2.weight f4 [1, 128]
0	0x3e026384	0.12733275
1	0x3e03a562	0.12856057
2	0xbdcc66cc	-0.099805444
3	0xbd8a0bf8	-0.06740564
4	0x3cd12df8	0.025534615
5	0x3c5182a0	0.012787491
6	0xbe09ffdf	-0.13476513
7	0xbe43361f	-0.19063614
8	0xbcdc3948	-0.026882783
9	0x3dd2f150	0.10299933
10	0x3e28f492	0.16499546
11	0x3e39349c	0.18086475
12	0x3e163566	0.14668807
13	0x3e4fc45e	0.20289752
14	0xbe59ee25	-0.21282251
15	0xbe36553c	-0.17805952
16	0xbdc08953	-0.094011925
17	0xbd97609e	-0.07391475
18	0xbe55a0fb	-0.2086219
19	0x3de9a388	0.11408144
20	0xbd05ad4c	-0.032635972
21	0x3c8bbf18	0.017058894
22	0xbc70be30	-0.014693782
23	0x3d06eb30	0.032939136
24	0x3b4b4c00	0.0031020641
25	0xbd005034	-0.031326488
26	0xbe01529c	-0.12629169
27	0xbd8428dc	-0.06453106
28	0x3d957a1c	0.07298681
29	0xbdbd9357	-0.092566185
30	0xbe450a13	-0.19242124
31	0xbe0970bc	-0.13421911
32	0xbdcc5abf	-0.09978246
33	0xbe334a78	-0.17508876
34	0x3e084a4e	0.13309595
35	0x3d895fdc	0.06707737
36	0x3e3dd4d4	0.18538219
37	0x3d560aa0	0.052256227
38	0x3db16e54	0.086636215
39	0xbe3a68a9	-0.18203987
40	0xbc150d30	-0.009097382
41	0x3e42a3d8	0.19007814
42	0xbda5c442	-0.08094074
43	0x3bd13c40	0.006385356
44	0x3dfce6f4	0.12348738
45	0xbd80f91e	-0.06297515
46	0x3db902c4	0.090337306
47	0xbe44b9c1	-0.19211484
48	0x3e45bd90	0.19310594
49	0x3db70024	0.08935574
50	0xbe28e069	-0.16491856
51	0x3e0e3f78	0.13891399
52	0xbc09e530	-0.008416459
53	0xbdfcb207	-0.123386435
54	0x3e4d8ad6	0.20072493
55	0xbe1e49ad	-0.15457793
56	0x3cf84938	0.03030835
57	0xbe335499	-0.1751274
58	0xbcc5fc00	-0.024168015
59	0x3cfa7408	0.030572906
60	0xbdba471e	-0.09095596
61	0xbe528189	-0.20557226
62	0x386ff000	5.7205558e-05
63	0xbe4d8897	-0.20071636
64	0xbc10ecd0	-0.008845523
65	0x3c886018	0.016647384
66	0xbe1a4989	-0.15067114
67	0xbca08a88	-0.019597307
68	0x3e289ae2	0.16465333
69	0xbd90bf3c	-0.07067725
70	0x3e12b20c	0.14325732
71	0xbe326627	-0.1742178
72	0x3e2010c4	0.15631396
73	0x3e16741a	0.14692727
74	0x3d88f6f0	0.066877246
75	0xbddaf2db	-0.10690852
76	0x3d4f9bd0	0.050685704
77	0xbdf7875d	-0.12086365
78	0xbcd13b58	-0.025540993
79	0x3e49c94c	0.19705695
80	0x3d4f4a30	0.05060786
81	0x3d0ece20	0.034864545
82	0xbda1337e	-0.078711495
83	0x3d4bbd38	0.049741
84	0x3dceacc0	0.10091543
85	0xbdd83083	-0.10556128
86	0xbd756a90	-0.05991608
87	0xbdc65d1f	-0.0968573
88	0xbd12a1b0	-0.03579873
89	0xbdd8c320	-0.10584092
90	0xbe335b7c	-0.17515367
91	0xbe13934b	-0.14411657
92	0x3de06ea0	0.109586
93	0xbca4e9a0	-0.020130932
94	0xbe16516d	-0.14679499
95	0xbe056212	-0.13025692
96	0x3d98b8c8	0.07457119
97	0x3deee580	0.116648674
98	0xbe4deeee	-0.20110676
99	0x3e17d430	0.14827037
100	0x3c8cd020	0.017189085
101	0xbc1ccc90	-0.009570256
102	0xbe158ca8	-0.14604437
103	0x3da306c0	0.07960272
104	0xbe45adfa	-0.19304648
105	0x3e0eb8a0	0.13937616
106	0xbda604ee	-0.08106409
107	0x3e386678	0.18007839
108	0xbe4b6ea0	-0.19866419
109	0xbd730680	-0.05933237
110	0x3d7e1c38	0.06203863
111	0xbe21bcba	-0.1579465
112	0x3c1fbc60	0.009749502
113	0xbd8a7b94	-0.06761852
114	0x3e400d36	0.1875504
115	0xbc36dc10	-0.011160865
116	0x3e020310	0.12696481
117	0xbc1d7050	-0.009609297
118	0x3d810184	0.06299117
119	0xbda8fed6	-0.08251731
120	0xbe3f5d02	-0.18687823
121	0xbccc1a60	-0.02491492
122	0xbe547390	-0.20747209
123	0x3c0344d0	0.008012012
124	0xbde7b98f	-0.11314689
125	0xbe5bf2c5	-0.21479328
126	0x3db4ddc8	0.08831364
127	0xbd886444	-0.06659749
