hw3/preTrained_cheetah/ddpg_critic_HalfCheetah-v2_05102024_025215_.pth (torch_old, 79930 bytes, 5 tensors)

layers.0.weight f4 [128, 23]
0.13474609 -0.53984493 -0.4305588 0.07537312 0.10334081 0.092515245 -0.7432113 -0.32054725
0.02909069 -0.23702623 -0.16036677 -0.017875593 -0.12875627 0.02002114 0.025296183 0.014932256
0.044562187 -0.64605176 -0.39133376 -0.017956035 -0.21351948 -0.3067465 0.08151066 -0.8425123
-0.84370416 -1.5612783 -0.17432155 -0.33416444 -0.7042068 0.532276 -0.011754725 0.18931918
-0.2895881 0.28216833 -0.014976928 0.0057212696 -0.03092776 -0.050084203 0.055304147 0.0096961
-0.045424335 -0.02493138 0.049547527 0.1263097 -0.13179307 0.21601121 -2.363128 0.68445516
1.2768241 -0.44419017 -0.35571167 1.184785 0.16959074 0.8154225 -0.27988634 -0.7467607
0.13554053 -0.021708917 -0.034818776 -0.094719 0.028805366 0.02572005 0.040649615 -0.8039344
-0.28117314 -0.026355019 0.11278902 -0.53626674 0.17632413 6.53284 1.6949502 2.005835
0.047806315 1.3090628 -1.7292663 -0.5161089 0.04086202 -0.3351459 1.2186726 0.4495831
0.14247352 0.040657412 0.026047064 0.2170225 0.11446842 0.012096923 -0.22149628 -0.20332512
-0.031510066 0.45724842 0.12569015 0.16867128 0.19980863 -0.8078277 -1.0498612 -0.8692878
0.07116629 -0.4769596 0.27993265 -0.12986004 -0.114368096 0.34417653 -0.008597834 0.08282976
0.019443508 0.085368186 -0.0060368464 -0.010308538 -0.010014497 0.23240331 0.57271653 -0.47693872
0.5227389 0.20202063 0.080551155 -3.0523188 -0.3696836 0.7923416 0.6554332 0.009380114
1.9534215 0.20487297 1.0349399 -0.9661328 -0.30543602 -0.38863268 -0.089545436 -0.04699605
-0.02762651 0.029325489 0.08926891 0.02191672 1.2811042 0.08467443 0.27031586 0.36536497
0.07749732 -0.07151608 1.5235744 -0.15922156 -0.3350443 -0.40057048 -0.19404644 0.75463635
0.3056411 -0.06273095 0.533535 0.6868036 -0.15005533 0.03317579 0.019319471 -0.031232402
0.15552217 0.11074099 -0.007598106 0.7546414 -0.1950434 0.21551979 0.27638632 0.26667783
-0.15717503 0.64174473 2.6267014 1.1087627 0.30195665 0.14518799 -0.23773672 -0.11294119
-0.24257287 -0.0824005 -0.15302551 0.30972672 0.033593006 0.053247914 -0.0012803059 -0.042228885
0.0071681496 -0.023242133 -0.07958676 -0.010460366 0.02357068 -0.22092417 -0.032872982 0.14408399
0.66564256 -1.862859 0.46121094 0.1517699 -0.19886789 -0.40300268 0.20401105 0.10641335
0.12413628 0.16049281 -0.17448397 -0.067557015 -0.00057281763 -0.1144668 0.028579434 -0.10800473
0.06549817 -0.21520458 -0.5378663 0.42042014 0.62869275 -0.84610087 0.2477168 2.7857041
0.85633415 1.9286015 -0.6248561 0.47899655 0.07805878 -0.74672943 -0.4191419 -0.81635165
0.7469284 0.28419888 -0.21370068 -0.041089542 0.037100293 -0.061844233 -0.0026745086 -0.055023827
-0.028947514 -0.6812043 -0.023372348 -0.23337267 0.0055552823 0.16299945 -2.584188 -2.2088637
2.3469799 1.444417 0.55713475 -1.1073301 -0.9306268 -0.13579015 -0.418589 -1.0784864
-0.94288105 -0.21146326 -0.18238065 -0.04900588 -0.24262345 -0.09625837 -0.039642252 -0.17968823
-0.62346995 -0.78258073 0.4261867 0.23571329 -0.8738305 -1.2579674 1.060745 2.104702
00000000: e1fa 093e 4733 0abf 3472 dcbe 395d 9a3d
00000010: 59a4 d33d a278 bd3d 1943 3ebf c51e a4be
00000020: 994f ee3c 01b7 72be 3037 24be d66f 92bc
00000030: afd8 03be 6003 a43c f139 cf3c 6ca6 743c
00000040: d786 363d a663 25bf e65c c8be 8918 93bc
00000050: daa4 5abe e10d 9dbe 10ef a63d e3ae 57bf
00000060: fffc 57bf f8d7 c7bf 5981 32be 9a17 abbe
00000070: e646 34bf 3d43 083f e496 40bc e3dc 413e
00000080: e444 94be 5e78 903e ca61 75bc 7d79 bb3b
00000090: 375c fdbc 1825 4dbd 9a86 623d 64dc 1e3c
000000a0: de0e 3abd e53c ccbc 59f2 4a3d 5457 013e
000000b0: c3f4 06be 0b32 5d3e 7d3d 17c0 7438 2f3f
000000c0: f96e a33f e56c e3be d71f b6be 09a7 973f
000000d0: 32a9 2d3e 87bf 503f 434d 8fbe b62b 3fbf
000000e0: 23cb 0a3e e6d6 b1bc 229e 0ebd 09fc c1bd
000000f0: 3bf9 eb3c dbb2 d23c 3680 263d a5ce 4dbf
00000100: edf5 8fbe 7be6 d7bc eefd e63d c748 09bf
00000110: 508e 343e 060d d140 21f4 d83f 9a5f 0040
00000120: 8ed0 433d 5f8f a73f 9958 ddbf b61f 04bf
00000130: ef5e 273d 3e98 abbe 77fd 9b3f c22f e63e
00000140: 94e4 113e 6388 263d a760 d53c 253b 5e3e
00000150: 6b6e ea3d 2c32 463c eccf 62be 7634 50be
00000160: b310 01bd 771c ea3e ebb4 003e 2ab8 2c3e
00000170: a29a 4c3e cccd 4ebf da61 86bf a589 5ebf
00000180: a2bf 913d 0c34 f4be 5553 8f3e 08fa 04be
00000190: d239 eabd e837 b03e eedd 0cbc a6a2 a93d
000001a0: fe47 9f3c 84d5 ae3d bdd0 c5bb 24e5 28bc
000001b0: d813 24bc 22fb 6d3e 8d9d 123f 5031 f4be
000001c0: 37d2 053f 7fde 4e3e 01f8 a43d 3159 43c0
000001d0: 2b47 bdbe e6d6 4a3f 78ca 273f 0daf 193c
000001e0: b709 fa3f 38ca 513e e978 843f 7b54 77bf
000001f0: 1c62 9cbe ddfa c6be 9963 b7bd ee7e 40bd
00000200: fe50 e2bc 023c f03c 9ed2 b63d b18a b33c
00000210: 39fb a33f ca69 ad3d d766 8a3e 1e11 bb3e
00000220: eab6 9e3d 0677 92bd 7c04 c33f fa0a 23be
00000230: ed8a abbe 9317 cdbe 1cb4 46be d92f 413f
00000240: fe7c 9c3e 1679 80bd c095 083f 5cd2 2f3f
00000250: 1ba8 19be 56e3 073d de43 9e3c 18db ffbc
00000260: 3441 1f3e 2ccc e23d 88f9 f8bb 2e30 413f
00000270: 75b9 47be 38b1 5c3e 8282 8d3e ff89 883e
00000280: 7ef2 20be 6249 243f e01b 2840 f0eb 8d3f
00000290: 109a 9a3e 29ac 143e 4171 73be b64d e7bd
000002a0: 0665 78be 98c1 a8bd b8b2 1cbe 8094 9e3e
000002b0: d298 093d 7c1a 5a3d f0cf a7ba 32f8 2cbd
000002c0: cce2 ea3b 4966 bebc 62fe a2bd f461 2bbc
000002d0: 4c17 c13c f239 62be d2a5 06bd c18a 133e
000002e0: 8d67 2a3f 2a72 eebf d723 ec3e 9269 1b3e
000002f0: 06a4 4bbe 5e56 cebe 46e8 503e 3eef d93d
00000300: 293b fe3d 3a58 243e edab 32be 555b 8abd
00000310: 2429 16ba 926d eabd 6b1f ea3c 9531 ddbd
00000320: e823 863d 975e 5cbe 9bb1 09bf 4f41 d73e
00000330: 02f2 203f 119a 58bf 79a9 7d3e fa48 3240
00000340: b738 5b3f 6adc f63f 92f6 1fbf 093f f53e
00000350: 48dd 9f3d a929 3fbf c499 d6be 6cfc 50bf
00000360: b336 3f3f 8482 913e 5ad4 5abe 824d 28bd
00000370: 7af6 173d 6150 7dbd cf46 2fbb aa60 61bd
00000380: 5623 edbc 6863 2ebf 5e77 bfbc 3ff9 6ebe
00000390: 1609 b63b 54e9 263e 5663 25c0 065e 0dc0
000003a0: eb34 1640 a8e2 b83f 62a0 0e3f febc 8dbf
000003b0: 8f3d 6ebf 930c 0bbe 4c51 d6be d80b 8abf
000003c0: a760 71bf d389 58be fec1 3abe 64ba 48bd
000003d0: 4872 78be 1c23 c5bd ea5f 22bd 3100 38be
000003e0: ba9b 1fbf 3657 48bf 2535 da3e d35e 713e
000003f0: 5bb3 5fbf 1305 a1bf 7ec6 873f 70b3 0640

layers.0.bias f4 [128]
2.0132904 2.6181407 0.5856277 -1.1956003 3.020977 -0.6122824 2.3712008 -4.0313296
1.1396517 -1.7039902 -1.4025189 -2.2936308 1.9714133 -1.3456202 -0.80078423 -1.7047786
-0.67911917 0.6138593 -1.0528235 -1.9548416 0.82975376 -0.8101166 0.90637887 0.20099178
-2.9887688 0.60116524 -0.70888835 -4.827377 0.7666841 -0.8306991 -1.6132448 -0.74422616
-0.2891816 0.8222477 -0.3584032 1.2993457 -1.6052904 -0.704597 -0.8814254 2.010049
2.3989413 0.20389523 -0.9220257 -0.51722324 0.44560602 -0.8300633 -0.6055854 2.4692929
2.1028671 -0.79700065 -0.3679416 -1.3148344 -1.0908946 -0.4404536 -1.0676678 -1.2420638
-0.38976172 0.9302361 1.9745005 -1.8026491 1.9986211 -1.7855225 2.8274677 -1.95055
0.37541455 -0.049178865 -0.9788704 1.8567604 1.1305434 -0.62247217 -0.94432086 -1.7234818
-2.8952966 -1.8921958 -0.9032962 -2.2676828 2.9573898 0.2767601 -0.73310274 2.089061
-0.24682038 -2.4700239 3.1897635 1.9476137 -0.4633533 -0.23193699 2.9909573 -0.944949
2.5838485 2.6354454 2.7320356 -0.24047382 -1.3144364 1.026977 -0.80319047 2.7160094
2.7401977 -0.11747737 -0.6077868 2.9206011 0.44195288 1.4066548 -2.4304826 2.1886556
-0.4838887 -1.4176631 -0.58274996 0.06673551 1.91457 0.27254212 -0.042460687 2.5616155
1.4810134 0.717195 0.041846946 0.07486212 2.1088502 1.7275488 0.5361394 -2.0345
-1.6586778 -1.456575 -2.2344682 -0.21087699 -1.9354167 2.0450995 -1.8197367 1.5438548
00000000: c0d9 0040 9e8f 2740 b2eb 153f 6e09 99bf
00000010: b057 4140 8abe 1cbf c1c1 1740 a700 81c0
00000020: 1be0 913f 5a1c dabf bd85 b3bf d9ca 12c0
00000030: 4557 fc3f 483d acbf 3200 4dbf 2f36 dabf
00000040: c1da 2dbf e225 1d3f ecc2 86bf 4038 fabf
00000050: be6a 543f cd63 4fbf 7208 683f cad0 4d3e
00000060: fd47 3fc0 f7e5 193f b579 35bf df79 9ac0
00000070: 6945 443f b2a8 54bf ce7e cebf 9b85 3ebf
00000080: 9c0f 94be d37e 523f a080 b7be f650 a63f
00000090: 287a cdbf 7860 34bf 18a5 61bf a5a4 0040
000000a0: 4188 1940 e9c9 503e e009 6cbf be68 04bf
000000b0: 7926 e43e 077f 54bf a507 1bbf e508 1e40
000000c0: 6095 0640 3c08 4cbf d762 bcbe 7e4c a8bf
000000d0: 6fa2 8bbf 2283 e1be 57a9 88bf f2fb 9ebf
000000e0: d98e c7be f423 6e3f 6fbc fc3f 35bd e6bf
000000f0: d1d2 ff3f 008c e4bf 3bf5 3440 9fab f9bf
00000100: 5636 c03e c76f 49bd 4097 7abf 53aa ed3f
00000110: a5b5 903f 565a 1fbf 03bf 71bf 0d9b dcbf
00000120: 8a4c 39c0 7933 f2bf 6b3e 67bf b721 11c0
00000130: e045 3d40 80b3 8d3e 9fac 3bbf 2db3 0540
00000140: 7bbe 7cbe df14 1ec0 1625 4c40 684b f93f
00000150: a53c edbe e480 6dbe d86b 3f40 2de8 71bf
00000160: c65d 2540 23ab 2840 acd9 2e40 c53e 76be
00000170: 743f a8bf fb73 833f e49d 4dbf 19d3 2d40
00000180: 665f 2f40 fa97 f0bd ea97 1bbf 21eb 3a40
00000190: a647 e23e 440d b43f 078d 1bc0 ef12 0c40
000001a0: 42c0 f7be fc75 b5bf 1a2f 15bf a1ac 883d
000001b0: a110 f53f a48a 8b3e 42eb 2dbd 82f1 2340
000001c0: d991 bd3f 179a 373f b467 2b3d 5051 993d
000001d0: 67f7 0640 5220 dd3f 6f40 093f 3f35 02c0
000001e0: 8e4f d4bf 0d71 babf 8701 0fc0 23f0 57be
000001f0: bcbb f7bf e9e2 0240 22ed e8bf 099d c53f

layers.2.weight f4 [128, 128]
-0.08734946 0.20143072 0.13177958 -1.1830502 0.21018429 -0.6212479 0.08070096 -10.528905
0.008513814 0.12741698 0.115847796 -0.34708202 0.078012906 -1.0356842 0.2968376 0.287564
-1.0601078 -7.2642593 0.11609106 -0.31536156 0.011340851 0.2563747 -0.12682383 -0.8054157
-0.49157172 0.31803453 -0.010480313 -6.052911 0.4838318 -0.55348474 -0.52091473 -0.8319207
-2.0132499 -0.0981263 0.24716079 -1.0506003 0.3513893 0.40867677 -0.85028726 -0.170767
-0.62609994 0.6079789 0.48356482 -0.02393124 0.42277694 -0.14796099 -1.0184637 0.20678137
-0.29470912 -0.034440625 -0.2886486 0.28336135 -0.07588478 0.3655678 -0.18207362 -0.25369418
-0.23584987 -0.2272707 0.2526585 -0.124303974 0.121085785 0.4504916 -0.20358965 -0.055662762
-0.27426854 0.26856208 -0.024916291 -1.8235043 0.0049040206 0.067863576 -0.38628262 0.3703919
-5.420062 0.20794742 -0.39746356 0.34169242 0.09755605 0.50697 -0.29291102 0.007106465
-0.05969427 1.2857848 0.16045253 -0.52811813 -0.14291428 0.06376266 -0.29122958 -3.328406
0.19719191 0.1535207 0.21241933 -0.22064337 0.32197702 0.22918299 0.32484996 0.01535112
-0.16992474 -0.3102937 -0.093110256 0.2892297 0.3379678 0.18131228 -0.66343963 -0.28499442
-0.18939517 0.50726193 -0.08702929 2.5126088 0.16621327 -0.015669597 -0.7656964 0.6914282
-0.2878287 -0.053177994 0.023704048 -1.039677 -0.80081385 -0.28077766 0.0684966 0.24860565
0.1797969 0.2914895 0.7186376 0.08219462 -0.2980248 -0.10274438 0.6500643 -0.16190082
0.14967564 0.7474692 0.11292924 0.09639078 0.68929595 0.29070058 0.29554653 -3.9894326
0.11722018 0.24600783 0.31113002 -0.016388178 0.25955448 0.025439745 -0.1073609 -0.009051372
0.028723422 -0.21403737 -0.1467813 0.29687536 -0.12791292 0.13586201 0.12415791 -0.19482122
-0.9638756 -0.09936721 -0.49896848 -5.5886574 0.43404287 0.0872248 0.14529523 -0.29627478
-0.06064644 0.62139565 0.25360855 0.24059337 0.17835283 -0.07635711 0.029454669 0.19311538
0.16791937 -0.0446385 -0.2777126 -0.26746407 -0.19703025 0.09701628 0.087207414 0.6916859
0.10696211 0.04700289 -0.61790544 0.37528992 0.11298615 0.07572467 -0.08077909 -0.6270235
0.18603484 0.16707917 -0.002408698 0.045056663 0.28095612 0.4392702 1.0367882 0.24859953
-0.07710939 0.15091266 -0.2514396 -0.3050994 -0.060718372 0.012710847 -0.08136212 -0.103296205
-0.8912212 0.036965344 -0.13984962 -0.3611829 0.97022086 0.106921904 0.23945622 0.27095187
-0.11368872 -0.33554724 1.102563 -0.0416214 -0.06761328 0.33480802 0.6685268 -0.36318207
0.5267502 0.74483323 0.7296789 -0.06100666 0.020952282 0.071030185 0.10639679 0.7294278
0.92200124 -0.035375766 -0.0151971765 0.54377043 0.18516691 0.32230493 -0.33145732 0.38590422
0.04572587 -0.17004137 0.25517094 -0.049912613 0.22223093 0.20599404 0.04451314 0.23827437
0.0983716 0.037446678 -0.059916303 -0.17306173 0.312323 0.34600195 0.20017554 -0.20311083
-0.03320983 -0.19714461 -0.6646936 0.21458194 -0.1743703 0.14045146 0.018075477 -0.0015111613
00000000: 46e4 b2bd db43 4e3e 3af1 063e 306e 97bf
00000010: 8d3a 573e 1a0a 1fbf 8b46 a53d 6576 28c1
00000020: 867d 0b3c 9979 023e 9c41 ed3d bcb4 b1be
00000030: 3bc5 9f3d 4d91 84bf 19fb 973e 973b 933e
00000040: 9db1 87bf d074 e8c0 26c1 ed3d 1277 a1be
00000050: face 393c 8b43 833e 1bde 01be b92f 4ebf
00000060: 4aaf fbbe 6cd5 a23e 9eb5 2bbc 72b1 c1c0
00000070: cdb8 f73e 2db1 0dbf ab5a 05bf c1f8 54bf
00000080: 16d9 00c0 71f6 c8bd b817 7d3e 127a 86bf
00000090: 4ce9 b33e 153e d13e 6dac 59bf 8bdd 2ebe
000000a0: 1648 20bf 81a4 1b3f cf95 f73e 730b c4bc
000000b0: 3876 d83e 1683 17be 055d 82bf 7fbe 533e
000000c0: 1de4 96be 9d11 0dbd c0c9 93be bd14 913e
000000d0: 7b69 9bbd b42b bb3e 8271 3abe 34e4 81be
000000e0: a182 71be a6b9 68be 745c 813e 1593 febd
000000f0: d3fb f73d d6a6 e63e ce79 50be a3fe 63bd
00000100: ed6c 8cbe f880 893e 401d ccbc 9768 e9bf
00000110: e8b1 a03b 0ffc 8a3d d6c6 c5be 02a4 bd3e
00000120: 2671 adc0 2bf0 543e 5880 cbbe 4ff2 ae3e
00000130: 77cb c73d c9c8 013f 6ff8 95be 59dd e83b
00000140: fb81 74bd 9994 a43f ab4d 243e c032 07bf
00000150: 1f58 12be ff95 823d 0b1c 95be 9b04 55c0
00000160: adec 493e 8834 1d3e 7484 593e 56f0 61be
00000170: 2cda a43e f2ae 6a3e bc52 a63e 4483 7b3c
00000180: c000 2ebe d1de 9ebe 97b0 bebd ea15 943e
00000190: 1e0a ad3e eda9 393e 2ed7 29bf caea 91be
000001a0: cff0 41be ebdb 013f 6a3c b2bd 95ce 2040
000001b0: d033 2a3e 875d 80bc ae04 44bf 7001 313f
000001c0: 495e 93be 2bd1 59bd fe2e c23c 2314 85bf
000001d0: 2302 4dbf 17c2 8fbe f247 8c3d 7b92 7e3e
000001e0: ae1c 383e 1d3e 953e a2f8 373f a755 a83d
000001f0: b596 98be a56b d2bd 9d6a 263f 54c9 25be
00000200: 9244 193e 245a 3f3f 7247 e73d 8768 c53d
00000210: b375 303f b5d6 943e e051 973e dd52 7fc0
00000220: 2211 f03d 7ae9 7b3e 6f4c 9f3e 8040 86bc
00000230: 53e4 843e 0367 d03c 08e0 dbbd 354c 14bc
00000240: 624d eb3c 9d2c 5bbe d64d 16be 0c00 983e
00000250: 9bfb 02be 691f 0b3e 8146 fe3d 377f 47be
00000260: 8dc0 76bf 0981 cbbd cc78 ffbe 48d6 b2c0
00000270: de3a de3e eaa2 b23d 46c8 143e 54b1 97be
00000280: 6768 78bd c913 1f3f fbd8 813e 1c5e 763e
00000290: 20a2 363e 1e61 9cbd eb4a f13c 0ac0 453e
000002a0: 0ef3 2b3e dcd6 36bd 5930 8ebe 0df1 88be
000002b0: 4cc2 49be 79b0 c63d cd99 b23d 5412 313f
000002c0: f30e db3d 1a86 403d 0d2f 1ebf 0026 c03e
000002d0: 4865 e73d 8915 9b3d 826f a5bd 9d84 20bf
000002e0: eb7f 3e3e cd16 2b3e 3fdb 1dbb 568d 383d
000002f0: 7bd9 8f3e 06e8 e03e 7ab5 843f e090 7e3e
00000300: 87eb 9dbd d988 1a3e b1bc 80be fd35 9cbe
00000310: d4b3 78bd 2841 503c 2fa1 a6bd f68c d3bd
00000320: 1327 64bf f968 173d bd34 0fbe f7ec b8be
00000330: 6560 783f dff9 da3d 0334 753e 34ba 8a3e
00000340: a2d5 e8bd d9cc abbe c920 8d3f 337b 2abd
00000350: d578 8abd f56b ab3e 9324 2b3f 00f3 b9be
00000360: 1ad9 063f 64ad 3e3f 3dcc 3a3f 1fe2 79bd
00000370: 1fa4 ab3c 4678 913d 8fe6 d93d c8bb 3a3f
00000380: 4608 6c3f 2ee6 10bd 94fd 78bc 8a34 0b3f
00000390: 659c 3d3e 2705 a53e c6b4 a9be 3d95 c53e
000003a0: 0d4b 3b3d 531f 2ebe c4a5 823e 2b71 4cbd
000003b0: 8190 633e 1af0 523e 6953 363d 32fe 733e
000003c0: 0d77 c93d b061 193d cc6a 75bd 1837 31be
000003d0: cde8 9f3e 2b27 b13e d1fa 4c3e 49fc 4fbe
000003e0: 0807 08bd 47e0 49be 5c29 2abf 5ebb 5b3e
000003f0: 218e 32be 82d2 0f3e 0613 943c 2912 c6ba

layers.2.bias f4 [128]
-1.3449894 3.535342 -1.2917219 -1.8194937 1.470435 -1.871067 -1.4033765 -1.751521
3.22263 3.8320768 1.7161815 -1.051845 -1.5438877 1.87447 1.0008067 -1.2662588
-1.4847519 2.1779306 -0.06446319 -0.1293621 -0.06871116 0.6650743 -1.2321141 1.7781011
1.568888 -0.88157284 -0.91250175 -1.4493468 -1.2551439 3.6475556 1.5529252 -1.3720438
-1.1042366 3.0687294 -1.3604324 1.3203298 0.7993361 -0.011328756 -1.270469 -0.08928667
1.5490496 -1.2830863 2.0284748 -1.0826284 -1.0289763 1.5131934 -0.53935486 1.7338963
0.017592324 -0.10113087 -0.13234928 3.0592937 -1.1660012 1.0956708 3.736212 2.3774354
-1.0650322 -0.92441905 2.296314 3.37961 -0.620655 2.647541 -0.021403238 -0.035517834
-1.1360043 -2.101214 -1.5696003 1.65643 0.04823522 1.6188807 -0.033454686 -1.6849458
2.0581574 2.1243992 0.61836267 -0.30401513 -0.8407967 -0.026529957 -1.0428193 -1.0771216
2.4711876 -0.022001604 2.2006176 -1.2300042 -0.113946006 2.1384258 -0.08193056 -0.5628999
-0.1008734 2.1559308 2.757392 -0.8177936 -0.0815821 2.4887407 -0.06764834 -0.044587333
-0.11157178 -1.0761855 -1.5794711 -1.7125331 2.3119252 2.3453152 -1.9099427 -1.8495966
-1.1970917 -1.931877 2.2639544 -1.5268723 -2.0354772 3.1136506 -0.22265227 -1.2656401
1.2977477 -0.08791192 -1.3977107 1.3865509 -0.33159342 -1.4495977 -0.11012454 -1.5265262
-1.9030098 1.1923547 1.2949246 -0.13492933 2.2027128 -1.2386537 -2.0582056 1.191403
00000000: 9d28 acbf 0b43 6240 2557 a5bf 2be5 e8bf
00000010: 3737 bc3f 207f efbf d7a1 b3bf d731 e0bf
00000020: 923f 4e40 bf40 7540 d6ab db3f dba2 86bf
00000030: 1d9e c5bf a2ee ef3f 6f1a 803f c514 a2bf
00000040: 5a0c bebf 3763 0b40 4705 84bd 8077 04be
00000050: 70b8 8cbd 4f42 2a3f eab5 9dbf d198 e33f
00000060: 52d1 c83f c2ae 61bf b799 69bf 3284 b9bf
00000070: 8ea8 a0bf 8d71 6940 41c6 c63f 229f afbf
00000080: a057 8dbf 1066 4440 a622 aebf 9100 a93f
00000090: 4aa1 4c3f 3f9c 39bc ba9e a2bf eedb b6bd
000000a0: 4247 c63f 2c3c a4bf 88d2 0140 9193 8abf
000000b0: 7fb5 83bf 52b0 c13f 2913 0abf 50f0 dd3f
000000c0: c71d 903c b41d cfbd 9286 07be 78cb 4340
000000d0: 873f 95bf f13e 8c3f 191e 6f40 e727 1840
000000e0: fa52 88bf baa6 6cbf cff6 1240 884b 5840
000000f0: 3fe3 1ebf 5071 2940 d855 afbc 267b 11bd
00000100: 9768 91bf 4a7a 06c0 aae8 c8bf e605 d43f
00000110: 4b92 453d 7c37 cf3f c807 09bd 4eac d7bf
00000120: dab8 0340 28f6 0740 044d 1e3f dfa7 9bbe
00000130: 743e 57bf 5a55 d9bc 1a7b 85bf 1fdf 89bf
00000140: f027 1e40 b53c b4bc ebd6 0c40 c770 9dbf
00000150: 865c e9bd f8db 0840 36cb a7bd 351a 10bf
00000160: b796 cebd c5fa 0940 1c79 3040 ec5a 51bf
00000170: 8414 a7bd 8747 1f40 368b 8abd 35a1 36bd
00000180: bf7f e4bd 72c0 89bf 1c2c cabf 4934 dbbf
00000190: 95f6 1340 a519 1640 0179 f4bf 95bf ecbf
000001a0: 4d3a 99bf bf47 f7bf a1e4 1040 8d70 c3bf
000001b0: 4245 02c0 0d46 4740 f5fe 63be 7f00 a2bf
000001c0: 991c a63f 2a0b b4bd 2fe8 b2bf 807a b13f
000001d0: 9dc6 a9be 6b8c b9bf fa88 e1bd 3665 c3bf
000001e0: d395 f3bf 149f 983f 17c0 a53f ea2a 0abe
000001f0: 3ff9 0c40 348c 9ebf a4b9 03c0 e57f 983f

layers.4.weight f4 [1, 128]
-1.2852172 1.2707503 -0.5363025 -0.5096087 0.28571156 -0.34888217 -0.47741494 -1.3548352
0.90935254 1.3731469 0.45516974 -0.38381368 -0.28693998 0.83841467 0.5790597 1.864042
-1.02024 0.57780147 -0.015134275 0.028471634 0.018264486 2.4305894 -2.0647392 0.8903902
1.2991381 -0.5132959 -2.4212701 -0.3419794 -0.48896173 1.1989311 0.7908482 -1.1799517
-0.6722254 0.9282929 -0.5455679 0.91468453 0.63786596 -0.04045128 -0.4356349 -0.016232025
0.31213313 -0.80472153 0.5935739 -0.7615498 -0.47739506 0.47719267 -1.4602399 0.65064216
0.0005684085 -1.2636244 0.01865694 0.8017079 -0.72490126 0.8755997 1.0083026 0.90080726
-2.1918714 -1.0137436 0.57585484 1.1753035 -2.9800513 1.1170079 -0.0124932295 -0.02944649
-0.86054623 -0.46757853 -0.40900466 1.0546373 -2.3847404 0.6595486 0.022974433 -0.328963
0.34112224 1.2592611 0.8159678 -0.63926756 -0.836099 -2.3934276 -0.4598917 -1.0229158
0.9574687 -0.047022212 1.601126 -0.57693475 -0.03079461 0.82915586 0.0024528217 -3.1963897
-0.007109247 0.7146235 0.9804448 -0.644772 0.003831195 0.722795 -0.017383482 -0.016164413
0.03134176 -0.9585157 -0.642955 -0.7027093 0.90378004 0.7626991 -0.3867151 -0.48044202
-0.8266798 -1.3636792 0.32345372 -0.36169773 -0.68955976 1.0575389 -1.5285743 -0.32491657
0.7959899 -0.0021334067 -0.48618358 1.7501119 -1.7283769 -0.5332765 0.011552487 -0.32993594
-0.53111285 0.45659912 0.8663092 0.024464693 0.7320351 -0.3041791 -0.5286471 0.89523286
00000000: ff81 a4bf f2a7 a23f 1f4b 09bf b775 02bf
00000010: c948 923e afa0 b2be bb6f f4be 3d6b adbf
00000020: 54cb 683f 47c3 af3f 020c e93e 3a83 c4be
00000030: cce9 92be 58a2 563f 423d 143f ee98 ee3f
00000040: 3997 82bf ccea 133f c0f5 77bc 583d e93c
00000050: 679f 953c c78e 1b40 b024 04c0 9df0 633f
00000060: 284a a63f 5c67 03bf 17f6 1ac0 ed17 afbe
00000070: 3159 fabe 9376 993f 0775 4a3f a808 97bf
00000080: f716 2cbf 9aa4 6d3f 57aa 0bbf c428 6a3f
00000090: 2f4b 233f 3eb0 25bd 8a0b dfbe 06f9 84bc
000000a0: eacf 9f3e 3b02 4ebf 76f4 173f edf4 42bf
000000b0: 206d f4be 9952 f43e 24e9 babf 7c90 263f
000000c0: 4001 153a 72be a1bf 70d6 983c bb3c 4d3f
000000d0: 2193 39bf 4d27 603f 0f10 813f 4e9b 663f
000000e0: 9f47 0cc0 5ac2 81bf 396b 133f 5870 963f
000000f0: 29b9 3ec0 1dfa 8e3f 67b0 4cbc c439 f1bc
00000100: c24c 5cbf 7466 efbe 0f69 d1be 5bfe 863f
00000110: 969f 18c0 2dd8 283f e134 bc3c d76d a8be
00000120: 93a7 ae3e 782f a13f 44e3 503f 0aa7 23bf
00000130: 960a 56bf eb2d 19c0 ed76 ebbe e8ee 82bf
00000140: ab1c 753f 5d9a 40bd b2f1 cc3f ffb1 13bf
00000150: fa44 fcbc 8f43 543f 85bf 203b a691 4cc0
00000160: b0f4 e8bb 91f1 363f 6efe 7a3f c70f 25bf
00000170: c914 7b3b 1809 393f ce67 8ebc 3b6b 84bc
00000180: 3860 003d 4961 75bf b398 24bf c2e4 33bf
00000190: 215e 673f 4040 433f 86ff c5be 7ffc f5be
000001a0: 4aa1 53bf 0a8d aebf ba9b a53e 7230 b9be
000001b0: fd86 30bf 6f5d 873f 53a8 c3bf 775b a6be
000001c0: fec5 4b3f a0d0 0bbb 0eed f8be ab03 e03f
000001d0: 743b ddbf cf84 08bf a446 3d3c 5ded a8be
000001e0: 03f7 07bf 5cc7 e93e 71c6 5d3f 2e6a c83c
000001f0: a766 3b3f 5dbd 9bbe 6b55 07bf fb2d 653f
