hw3/preTrained_cheetah/ddpg_actor_HalfCheetah-v2_05102024_025215_.pth (torch_old, 79462 bytes, 6 tensors)

layers.0.weight f4 [128, 17]
000000 22 d4 99 be 47 1e ea 3d 72 2f 05 3e bd d8 fc 3e
       -0.30044657 0.11431556 0.1300638 0.49384108
000010 02 e8 b8 be b2 5e 79 bd 15 e1 6c be 73 cc fb 3e
       -0.36114508 -0.060881324 -0.23132737 0.4917942
000020 51 b5 e1 bd 2b 08 bf 3e b7 42 96 3e 2d 46 86 3c
       -0.110209115 0.3731092 0.29347774 0.016390884
000030 8b 56 6a 3c af b5 68 bd 47 cf 8d 3e 5a 90 db 3e
       0.01430286 -0.056813892 0.27697203 0.4288357
000040 ee ac 00 3d 48 e8 83 be d6 75 68 be e2 f2 1a bf
       0.03141492 -0.25763154 -0.22701201 -0.6052686
000050 f4 d9 d8 bd 97 9d 9a be 8b 49 71 be 5d 96 c2 be
       -0.10588446 -0.30198357 -0.2356321 -0.38005343
000060 4d 5a 06 3e 77 72 b8 be e1 30 4f be 24 a7 13 be
       0.13120385 -0.3602483 -0.2023349 -0.14419228
000070 8f 51 c6 be 7e b4 bb 3c 4e e8 5b 3e 08 be be 3c
       -0.387341 0.022913214 0.21475336 0.023283973
000080 a6 c7 ba 3d 89 ec 32 3e 6b 24 4c bf 10 a1 60 be
       0.09120111 0.17473044 -0.7974307 -0.2193644
000090 aa 2e 52 3f 8b e0 2d bf f6 43 26 3f 28 e0 08 3e
       0.82102454 -0.6792075 0.6494745 0.13366759
0000a0 39 25 fa 3e af ef 81 3e b1 2e 58 be 84 10 d5 be
       0.48856524 0.25378177 -0.21111561 -0.41614163
0000b0 67 28 c7 be f3 c1 70 bd 25 d5 65 3d db f3 0f 3e
       -0.38898012 -0.058778714 0.056111474 0.14057867
0000c0 a8 da 78 bd e4 ef 45 be fc 04 56 be 70 cc 86 3e
       -0.0607554 -0.19329792 -0.20900339 0.26327848
0000d0 41 a8 41 bf d3 e5 ed be b1 02 2e 3f 52 2e 36 3e
       -0.7564736 -0.46464404 0.67972857 0.17791107
0000e0 46 08 a0 be 3f 99 51 be 65 70 08 be 0b 91 9a 3d
       -0.31256312 -0.20468615 -0.13324125 0.07547196
0000f0 ff c0 86 bc 45 94 10 bf 1b 3a ef 3d 24 9c a5 3e
       -0.01644945 -0.5647624 0.116810046 0.32345688
000100 18 d3 8d 3d 86 83 ce 3b c9 82 ff 3c e9 ae 90 bd
       0.069250286 0.0063023 0.031190293 -0.070646115
000110 6c 3a 51 bf 9c 21 3c 3f 88 17 60 3f 3d a1 36 bf
       -0.8172977 0.73488784 0.87535906 -0.7133978
000120 90 ed 07 3d f1 b9 79 3e cf ce 65 3d 72 20 3f 3e
       0.03318554 0.24387337 0.05610543 0.1866472
000130 c6 56 f9 be ef e7 1c 3e 3a 53 03 3d 47 00 73 be
       -0.48699015 0.1532285 0.032061793 -0.23730575
000140 46 9d 8f bd 57 e6 01 bd a6 20 b3 3d 55 98 12 3e
       -0.070124194 -0.03171381 0.087464616 0.14315923
000150 6d c7 75 3d 63 c4 22 bf fa f5 25 be b6 17 57 3f
       0.06000464 -0.6358091 -0.16207114 0.84020555
000160 f6 55 5d bf 6c 95 85 3e 85 68 33 3c c1 b8 3b 3f
       -0.8645929 0.26090562 0.010950212 0.7332879
000170 bd 01 3e bd 8c 0f bd 3e b9 f2 49 be 2a e1 5d 3e
       -0.046388377 0.36925924 -0.19721498 0.21667925
000180 dc 05 77 bd b3 45 cc 3b 42 59 1a bd 40 54 99 be
       -0.060308322 0.0062338947 -0.03768278 -0.2994709
000190 92 2d 97 bc 70 07 48 bc 6c fd 13 3f 1b 6e 2c 3e
       -0.018454347 -0.0122088045 0.57808566 0.16838877
0001a0 26 fe 03 bf 27 63 1e 3f 53 54 7a 3e bb aa 74 3e
       -0.51559675 0.61870044 0.2444623 0.23893254
0001b0 b0 ab 10 bf 4d 3d 1f be c9 b2 60 3e 2e 2d 2d 3f
       -0.56511974 -0.15550728 0.21943201 0.67647064
0001c0 e7 da 9c 3e 72 9d 97 bd 4d 39 d9 bc 71 6d 95 bd
       0.3063576 -0.07403077 -0.026516581 -0.07296265
0001d0 a7 e9 be 3c e6 e7 db bb 0c 54 4f be 7b 9b cb bd
       0.023304773 -0.006710994 -0.20246905 -0.09941765
0001e0 02 0a 90 3f a9 20 a0 bc 5e e3 e0 3c 9a 36 d1 be
       1.1253054 -0.019546824 0.027452167 -0.4086197
0001f0 a5 a9 da be 66 1a 84 be 77 ef ac be 42 ce 02 bd
       -0.42707554 -0.2580139 -0.33776447 -0.031934984
000200 71 eb a0 be f0 0f d7 3c 03 6e af bd 1a 5e 98 3c
       -0.31429628 0.026252717 -0.08565905 0.018599559
000210 54 43 d2 bd ef 35 0f 3d e2 17 47 be 06 11 00 be
       -0.10266748 0.034963544 -0.19442704 -0.12506494
000220 51 86 f8 3c 4d b1 8d 3f b6 5f ee be e8 01 f7 3d
       0.030337485 1.1069733 -0.46557397 0.120609105
000230 9c 1d e7 be d9 3f a8 3e a4 a0 0b 3f 03 77 43 bf
       -0.45139778 0.32861212 0.54541993 -0.7635347
000240 a1 84 12 bd 09 bb 7a 3e 81 bb 65 3c 52 e7 9f 3d
       -0.035771016 0.24485411 0.014021755 0.07807793
000250 2d e3 26 3e 81 10 10 bd f2 3f 6c be 58 08 ad 3c
       0.16297598 -0.03517199 -0.23071268 0.021122143
000260 ea 6a 08 be bb 37 96 be ab c0 c5 be 4d 45 33 bf
       -0.13322034 -0.29339394 -0.38623556 -0.7002762
000270 a5 53 82 3e 93 68 90 3e b1 05 0f 3f 66 70 24 be
       0.2545444 0.28204784 0.5586806 -0.16058502
000280 5d d3 d4 be 37 63 2a be 37 d7 b4 bd e3 8f fe 3c
       -0.41567507 -0.1663941 -0.088301115 0.03107447
000290 33 89 93 be 8b 6d 97 3d 3f 9b 00 be 19 63 dd 3d
       -0.28815612 0.073939405 -0.12559222 0.10809917
0002a0 55 4a 78 be c5 2d b2 bd 49 4a 0a be 35 87 77 3e
       -0.24247105 -0.08700136 -0.135049 0.24172671
0002b0 05 1b c5 3e bb a8 5e bf 1e 76 4a 3e c2 1b 3e bf
       0.38497177 -0.8697621 0.1977162 -0.74261105
0002c0 a1 8d e6 3d 6f 89 94 be 4e 57 16 3e 84 5e 91 be
       0.11257482 -0.29011104 0.14681742 -0.28392422
0002d0 21 f4 d6 bc 84 c5 33 be 57 93 2c 3e 26 da 2a 3e
       -0.026239457 -0.17555815 0.1685308 0.1668478
0002e0 94 8b 4f be bc 30 08 bd 15 82 8d 3d 88 f0 a1 be
       -0.20268089 -0.0332496 0.06909577 -0.31628823
0002f0 af e6 6e 3f 32 db b9 3e ac 29 0c 3f 61 0a 73 3b
       0.93320745 0.36300045 0.54751086 0.0037085044
000300 02 74 ea be 90 63 3b bd 43 54 03 be 05 57 32 bf
       -0.45791632 -0.045749247 -0.12825112 -0.6966403
000310 8b 8b 5a 3e 73 f1 b6 3e a4 42 63 be bc 26 2b be
       0.21342294 0.35731086 -0.2219339 -0.16713995
000320 03 5d f7 bd eb e3 72 bd 4b 22 1c 3d 91 bd 3d bd
       -0.120782875 -0.05929939 0.03811864 -0.046323363
000330 57 89 69 bc a5 0f 9d be 3f 63 c0 bd c5 16 b0 3e
       -0.014253936 -0.30675998 -0.0939393 0.34392372
000340 ba 08 c3 bd d4 02 f0 3e 0a 55 2e 3b 94 46 9b be
       -0.09523149 0.46877158 0.002660098 -0.30327284
000350 2a de c4 be 2f 41 6b 3d 50 a5 93 3c b0 12 cd 3c
       -0.38450748 0.05743521 0.018023163 0.025033325
000360 ea 5c df 3d a6 29 80 3d ca 69 34 be 1d 2e 80 3d
       0.10906394 0.06257944 -0.1761848 0.062587954
000370 fb 84 db 3d 5e 02 dd 3e f6 28 2d bf 4a b9 ee be
       0.107187234 0.4316587 -0.67640626 -0.4662574
000380 bd 2b 5b bc 7f a9 45 be 9c ea bb 3e 31 3a b4 3e
       -0.013377127 -0.19302939 0.3670243 0.35200647
000390 8b 71 7a bd 2c e8 a5 3e c3 21 97 3e cd f5 01 bf
       -0.06114344 0.32403696 0.29517946 -0.5076569
0003a0 09 57 26 3e 73 5a db 3d 6e 73 8c 3d 93 bc 0f 3e
       0.16244139 0.10710611 0.06857954 0.14036779
0003b0 e3 1d 68 3e bc 85 d7 3d 9f 6c 31 3f e7 83 35 3f
       0.22667651 0.10523555 0.6930637 0.7090439
0003c0 53 0a 82 bf 06 d6 ea 3e 27 ee b1 3e 22 d2 e0 3e
       -1.0159401 0.45866412 0.34752008 0.4391032
0003d0 69 a9 a4 3e a2 60 87 3e 66 6a cb be d7 b5 3b 3c
       0.321605 0.26440912 -0.39729613 0.011456928
0003e0 0e b1 de 3d 2e f8 5b 3d 45 d9 d7 bd fd cc 1b be
       0.10873614 0.05370348 -0.10539488 -0.15214916
0003f0 b4 ac 62 3e d1 c0 d2 3d 0e e5 c1 3b e2 0e f5 3d
       0.22136194 0.10290683 0.005917198 0.11965729

layers.0.bias f4 [128]
000000 be b8 9c bd 87 54 35 be af d0 ae 3d c8 ea 59 bc
       -0.07652424 -0.17708026 0.08535897 -0.013300605
000010 0a 4d 4a be 00 b2 7c 3e 89 9c 80 3e ce 99 04 bf
       -0.1975595 0.24677277 0.25119427 -0.5179719
000020 c0 1c 9f be fd 2a c7 3e 29 34 ad be 7e b9 a1 3e
       -0.31076622 0.38899985 -0.33828858 0.31586832
000030 f9 a3 21 3f ea 64 f3 3e 4d de 15 3d dd f9 34 be
       0.6314083 0.4753793 0.036588956 -0.1767344
000040 7f ee 70 3d 24 50 c0 be ea 28 9f be e8 dc d9 be
       0.058821198 -0.37561142 -0.31085902 -0.4255135
000050 00 d4 87 3e eb 30 c2 3e 2c 1f 73 be ef 90 7f 3e
       0.2652893 0.37927946 -0.2374236 0.24957632
000060 aa 95 8e 3d 2c 78 7f 3e 81 e1 ce 3e 4c e6 6f bd
       0.0696214 0.24948186 0.4040642 -0.058569238
000070 49 9e 1e be b9 a4 06 be 2b f6 3d be a0 c8 22 3f
       -0.15490068 -0.13148774 -0.18550937 0.6358738
000080 dd 5a 1c 3f 9f df b9 be 8a 5a f0 3e 25 53 d5 be
       0.61076146 -0.36303422 0.46944076 -0.41664997
000090 ef d7 b9 be 9c 85 19 bd dc 9a e7 bd ad dc d3 bc
       -0.36297557 -0.037480935 -0.11308834 -0.025862062
0000a0 78 bd 80 3e d3 f3 84 3e f2 98 76 3e f3 20 df be
       0.25144553 0.25967273 0.24081782 -0.43579826
0000b0 df d6 b3 bb a1 94 1b 3f 9d 0c cd 3e 62 67 d0 3e
       -0.005488261 0.60773665 0.40048686 0.40703875
0000c0 ce 91 a5 3d 5d b1 ce 3e 5d 7a c4 3e f9 72 8b bd
       0.08084451 0.40369692 0.38374606 -0.06809039
0000d0 1f 3c 6f 3e d0 1c f0 3c 94 39 3c 3f e3 8a 74 be
       0.23362778 0.029310614 0.7352536 -0.23881106
0000e0 9c 18 b0 3e 16 d4 de bd 02 ec 02 3e d0 95 8b be
       0.34393775 -0.10880296 0.12785342 -0.27262735
0000f0 d5 41 c3 3e ac f2 6c 3b 8a 31 97 3e e3 b1 b8 3d
       0.38136163 0.0036155386 0.29529983 0.09018304
000100 10 bc 53 bc 5c fb c8 be 3a 6c b7 bd f7 82 88 be
       -0.012923256 -0.39254272 -0.089561895 -0.26662418
000110 3d 11 c3 bd d8 d6 4f 3e ee 82 36 3f cc 28 a1 3e
       -0.09524772 0.202968 0.7129353 0.31476438
000120 cb b4 40 3e 15 16 7d 3e 0d 73 f2 be 67 c8 92 3e
       0.18818967 0.24715455 -0.47353402 0.2866852
000130 31 62 9f be 98 01 da bd ae c6 b4 3e ac 7d 1d 3e
       -0.31129602 -0.10644835 0.3530783 0.15379971
000140 df 05 a0 3e 1e 6d 3a 3e ee f0 e6 bd e5 28 bf bd
       0.3125448 0.18205687 -0.112764224 -0.09333972
000150 96 ed 33 3e 58 1e 24 be 85 0a c6 3e de 57 02 3d
       0.175711 -0.160272 0.386799 0.031822078
000160 3b 79 58 be ba 90 fe bd 9f 8d 21 3b d9 ec 64 3d
       -0.21139996 -0.12429948 0.0024651063 0.055889938
000170 6f 28 d7 bd a1 21 0d 3e 70 c7 be 3e 8d 62 fb bc
       -0.10505759 0.1378236 0.37261534 -0.030686641
000180 70 7d 9c 3e ec 11 90 3e 4f c3 86 be 7d 80 1d be
       0.3056445 0.28138673 -0.26320884 -0.15381046
000190 f4 3a e3 be 3c f9 c7 be 1d 99 36 bd fa 8a d1 3e
       -0.44380915 -0.39057338 -0.044579614 0.40926343
0001a0 7a 01 0a 3e 09 9c 3d 3e 6d a9 cb 3e e8 a7 13 be
       0.13477126 0.18516554 0.397777 -0.1441952
0001b0 9f 30 a1 3e 90 4d a9 3e 00 6c f7 bc ba a6 ad 3e
       0.31482407 0.33066988 -0.030202866 0.33916265
0001c0 6d 9a 14 3e 82 e4 9d 3e a0 4c 6c 3d 98 4d a5 3d
       0.14512034 0.308384 0.057690263 0.080714405
0001d0 6f 2e 3f bd be 31 71 3e f4 5d d5 be e5 b6 92 bd
       -0.046675142 0.23554131 -0.41673243 -0.071637906
0001e0 25 29 32 3e 1e 40 77 3e 95 84 f4 3e 2d 50 67 3e
       0.17398508 0.24145553 0.47757402 0.22589178
0001f0 78 90 3c 3d f6 84 a2 3e 90 2b 8f bd fe de 39 bc
       0.046036214 0.31742066 -0.06990731 -0.011344669

layers.2.weight f4 [128, 128]
000000 72 61 56 bd ca 17 27 bd ca 80 ba 3d 7a 09 d7 bd
       -0.052339025 -0.04079417 0.09106596 -0.104998544
000010 00 6b dc 3c be c3 4e 3e ea fa 60 3d 40 e0 21 3e
       0.02690649 0.20191857 0.05492679 0.15808201
000020 fe d7 da 3d 70 56 1a be 79 f7 a1 3c 61 c0 6d 3e
       0.106857285 -0.15072036 0.019771324 0.23217918
000030 4c d0 d2 bd 2f bb c8 3d 8b ff 87 be d7 33 db 3d
       -0.10293636 0.098013274 -0.2656215 0.10703247
000040 16 61 67 3c 6d d2 fa 3d fe c1 8c bd 3f 18 a0 bd
       0.014122268 0.12247167 -0.068729386 -0.078171246
000050 13 a5 1e 3e 18 a3 0a 3e 6f 49 52 3e ab af 14 3d
       0.15492658 0.13538778 0.20535825 0.036300343
000060 81 20 5e bd 3b 08 db bc 55 86 2b bc 24 49 c7 bd
       -0.054230217 -0.026737323 -0.010469039 -0.09730747
000070 3d 81 83 be e7 43 24 3d 1b 01 e7 3c 20 fe a2 3d
       -0.25684538 0.04010382 0.02819877 0.07958627
000080 c0 34 fd bd f3 87 4f bd 74 62 b3 bd 23 2e e1 3d
       -0.12363577 -0.05066676 -0.08759013 0.10995128
000090 af 37 55 bc b4 aa bf 3d 10 37 7e 3d 69 ba e8 3d
       -0.013013764 0.09358731 0.06206423 0.1136368
0000a0 51 e6 fe bd ac 7e d8 bd fb 1f 5a 3a 1e 6e 55 bd
       -0.12446273 -0.10571036 0.00083208055 -0.05210697
0000b0 8d d5 0e bd c3 fe bf 3d e6 b2 29 3e b7 8c 5c 3d
       -0.034871627 0.09374764 0.1657215 0.053845134
0000c0 8f d8 e1 3d 00 d5 91 ba fb e5 33 3d f4 87 0d 3e
       0.110276334 -0.0011126101 0.0439205 0.13821393
0000d0 6e ac 10 be e1 1b c7 3d 1b 89 9b bd d0 38 52 bd
       -0.14128277 0.09722114 -0.0759451 -0.051323712
0000e0 b6 33 d2 bc 4e b5 a6 3d 53 5c 8e 3d 77 09 94 bc
       -0.025659423 0.0814005 0.06951203 -0.01807092
0000f0 a5 8c 0f 3e c0 26 ff bd 93 da e4 3d 7c 68 b9 3d
       0.14018495 -0.12458563 0.11174502 0.09053132
000100 7d 3b 2e bc 33 f1 a0 3d fe 81 ac bd 62 12 8a bc
       -0.0106343 0.07858505 -0.084232315 -0.016854469
000110 d4 ed 9f bd 62 1b 1a 3c 18 70 65 3d 13 f6 01 3c
       -0.07809034 0.009405943 0.056015104 0.007932204
000120 65 b7 bb 3d 11 83 9b 3b e8 f1 dc bd c3 6d 27 3d
       0.09165839 0.004745849 -0.107883275 0.04087616
000130 b9 a7 f5 3d 51 d7 83 bd 02 12 d4 bd 2d f8 8c 3e
       0.11994881 -0.06437553 -0.10354997 0.27533093
000140 d0 ab 11 3d b2 83 60 3d 59 16 30 3e 4c c4 8f 3d
       0.035564244 0.054813094 0.17196025 0.070198625
000150 6c 2f a0 bd 52 a1 0a be 35 37 4c 3e 43 0c aa bd
       -0.07821545 -0.13538101 0.19942935 -0.0830312
000160 86 d8 15 3e 4e 6e 42 bd 56 3b 86 bd 90 ea 50 3d
       0.14633378 -0.047468476 -0.06554286 0.051004946
000170 92 83 4a 3c c3 e4 0f bd 28 c3 09 bd 5a de 04 3d
       0.01236047 -0.035130274 -0.03363338 0.032438613
000180 83 4f 92 bb 7c 9c 3d bd 85 d3 dc 3d 31 6b af be
       -0.004465045 -0.046291813 0.10782532 -0.34261468
000190 84 0d 81 3d 59 88 fa bd fd 5d 47 3e 3a 1f 39 3d
       0.06301406 -0.122330375 0.19469447 0.045195796
0001a0 9d 66 14 3c ca 49 6f bd a2 0c ab bd b3 e1 36 3e
       0.009057668 -0.05841998 -0.08352019 0.17859535
0001b0 7a ac 07 3d d7 75 80 bc 20 ca 41 bb d5 56 3e 3d
       0.03312347 -0.01568119 -0.0029569939 0.04646953
0001c0 8a c4 34 bc 3e fe 79 bd d5 ac 89 3c f3 97 25 3e
       -0.011033187 -0.06103348 0.016806046 0.16171245
0001d0 12 aa d0 bd 98 6d 8c 3e 94 09 03 bd af 0d 21 bd
       -0.10188688 0.27427363 -0.031991556 -0.03931969
0001e0 41 dd 88 bd c0 b7 01 be f9 4e 01 3c 19 77 cc 3c
       -0.06682826 -0.12667751 0.007892364 0.024959134
0001f0 0b d6 82 3e 69 47 c7 3d e7 82 8c 3c 8e 26 69 3c
       0.25553927 0.09730417 0.017152263 0.014230384
000200 eb f5 4c be b7 f4 f2 bd 99 8c 51 be 6a d3 c0 3e
       -0.20015685 -0.11863082 -0.2046379 0.37661296
000210 95 51 a8 be e3 41 8b 3c 91 fe 40 bd a4 75 2c bd
       -0.32874742 0.01699919 -0.047117773 -0.04210438
000220 af 33 0f bd 54 50 36 3d 81 5f 68 be 3a 1e fc bd
       -0.0349614 0.0445102 -0.22692682 -0.12310453
000230 d2 5d 7a 3e 79 f7 2d 3e 10 ea 15 3e 37 50 12 3d
       0.24449852 0.16988935 0.14640069 0.03572103
000240 e9 15 8e 3c 52 9b 36 be 71 2b 99 bd dc b6 88 be
       0.017344432 -0.17832687 -0.07478989 -0.2670201
000250 7a ed a4 bc 7b 12 34 be 20 2f a3 be 6d 3f 21 3d
       -0.020132769 -0.17585175 -0.3187189 0.03936713
000260 41 3c 39 3e 16 df 07 3e ec cc ef 3d cd fc 12 bd
       0.18089391 0.13268694 0.117090076 -0.03588562
000270 f7 45 d3 bc f8 96 a0 bc 8b 76 3b be c0 f8 07 3e
       -0.025790198 -0.019603238 -0.1830694 0.13278484
000280 34 c2 b5 3e 75 c1 41 3d 7d c6 71 3e 4c 5d 00 3d
       0.35499728 0.047303636 0.23610874 0.031338975
000290 e6 a0 3e 3d c4 2c 3e 3e c6 1c 1d bc 79 e9 23 be
       0.046540163 0.18571764 -0.00958938 -0.16007032
0002a0 0f c0 18 be fd 8a 0c be e9 84 a4 3e d2 32 db bc
       -0.14917015 -0.13724895 0.32132652 -0.026757631
0002b0 3f 76 06 3d 36 00 57 3e f3 1c 7a 3d fe 44 35 3c
       0.032827612 0.20996174 0.061062764 0.011063812
0002c0 aa 10 0b 3d c6 c8 46 3e 97 ec 33 3e b8 ce f6 3d
       0.03395144 0.19412526 0.1757072 0.12051147
0002d0 85 53 63 3e 3d 34 ca 3d 40 46 57 3e b0 05 0e 3e
       0.22199829 0.09873245 0.21022892 0.13869357
0002e0 4d 7e 38 3e 3a 2a bd 3c 0d e1 36 3e f9 ba 39 3b
       0.1801693 0.023091424 0.17859288 0.0028340204
0002f0 8b 2e cb 3d 61 cc c6 3d 2c 5e 88 3d 69 a2 f7 3c
       0.09920987 0.09706951 0.06658587 0.03022881
000300 6f 60 9b 3e 6d 6d db bc 1f 44 b1 be da 4c ef bd
       0.3034701 -0.026785577 -0.34622285 -0.1168458
000310 b2 e7 1b be 5d 9e 6c 3e 53 83 e8 3d cd cf 88 3d
       -0.15225103 0.23107286 0.11353173 0.0668026
000320 42 7c ae bd be d9 80 3e 1f 39 3a 3d 32 b6 76 bd
       -0.08519794 0.25166124 0.04546463 -0.06023235
000330 54 86 52 3d ec a1 0e be eb 62 0d 3c b4 45 af bd
       0.051397637 -0.13928956 0.008629541 -0.08558217
000340 6d 43 39 bc 6a d4 d5 3d 98 f8 c9 bc d4 7f 10 3c
       -0.011307579 0.104409054 -0.024654672 0.008819539
000350 ef a5 6d 3e a0 d2 8c be 15 4e c5 3d 53 e7 1b 3d
       0.2320783 -0.27504444 0.096340336 0.038062405
000360 cf 98 ed bd f0 f8 80 3d d8 4c 11 3e 64 e5 f9 3b
       -0.116014116 0.06297481 0.1418947 0.0076262224
000370 5e 84 c9 bd 36 61 ab 3d ce 19 03 3c 7a a3 8d be
       -0.098397 0.08368151 0.008001758 -0.27663785
000380 59 6d 80 3e 07 25 20 3e 12 4b 20 3d 9e 4a 80 be
       0.25083426 0.15639125 0.039134093 -0.25056928
000390 05 03 02 be 42 d6 36 3e 0f 70 c4 be 54 1c a0 bc
       -0.12696464 0.1785517 -0.38366744 -0.019544758
0003a0 25 e1 0d 3e 9a 90 a3 3d 30 b3 56 3e 24 01 1e 3e
       0.13855417 0.07986565 0.20966792 0.15430123
0003b0 10 da 13 3e 1d 10 17 3d ec b2 c3 bb 6a 60 a2 bb
       0.14438653 0.0368806 -0.005972257 -0.004955341
0003c0 ab d0 24 3e 02 63 c1 bc ce 9e 9f bd 3e 02 97 be
       0.16095226 -0.02360678 -0.077939615 -0.29493898
0003d0 ec d2 28 3d 04 36 c3 3b b2 92 a6 3c ae 29 c8 bc
       0.041216776 0.005957367 0.020333622 -0.024433937
0003e0 fd b6 85 bd 3c 7b 05 3e 75 05 61 bd c3 6c 37 bd
       -0.06529043 0.13035291 -0.054936845 -0.044781458
0003f0 e5 0e 9b be 3d 7f ee 3d 5d 19 c4 be 52 51 cf 3b
       -0.302848 0.116453625 -0.383006 0.006326833

layers.2.bias f4 [128]
000000 e9 31 01 3e 82 17 b1 3e 28 f6 9a be 63 0f 72 3e
       0.12616695 0.34588248 -0.30265927 0.23638682
000010 32 91 d2 3d 9a 74 22 3d 27 5b 56 3e c8 8e 32 3e
       0.102816 0.03966198 0.2093321 0.17437279
000020 56 a1 9f 3d 4f 32 74 be ee d7 1c 3e d0 a1 f1 3b
       0.07794444 -0.23847316 0.15316746 0.007374026
000030 d1 1c 14 3d bf d3 5f be a4 44 ba bc fb 7b 36 3e
       0.036160294 -0.21858118 -0.022737809 0.17820732
000040 5e bc 7f 3e a7 95 95 3e cc ec 4a 3e 22 a8 a4 3d
       0.249742 0.29215738 0.19816893 0.08039881
000050 fe a3 82 bd 49 ee af 3e a6 e6 5f be b6 fa ca bd
       -0.06378935 0.34361485 -0.21865329 -0.099111006
000060 42 79 26 be 12 d8 d8 bd b3 24 12 3e 20 c4 09 3d
       -0.16257194 -0.10588087 0.14271812 0.033634305
000070 80 78 da 3d c6 16 df bd 42 5c 89 be dc f3 a2 bd
       0.10667515 -0.108930156 -0.268282 -0.07956669
000080 16 ef c8 3c 2f 00 18 3e e8 62 88 3d 4d bb 52 3e
       0.024528068 0.1484382 0.0665949 0.20579262
000090 9c 8f 2d be dc b9 bb 3e 47 0a 41 be 5f 66 6f 3e
       -0.16949314 0.36665237 -0.18851577 0.23378895
0000a0 7d 90 88 be 7d f0 9f 3d d9 1c 5e be 00 58 20 3e
       -0.26672736 0.078095414 -0.21690692 0.1565857
0000b0 58 53 81 3d 21 24 4e bd f7 80 0e be d0 2c 25 3d
       0.06314725 -0.050327424 -0.13916384 0.04032594
0000c0 ca c9 8f 3e 2a 83 d4 3c 86 0b 46 3e 7c 5c 7a 3e
       0.2808364 0.02594145 0.19340333 0.24449342
0000d0 f2 c8 2e bd 4b 1b 6f bd ed ef 84 3e 62 94 8d 3e
       -0.042672105 -0.058375638 0.259643 0.2765227
0000e0 2e 32 4b bc eb 5e db be 38 12 2f bd 8e 12 a4 be
       -0.0124021005 -0.42845854 -0.042741984 -0.32045406
0000f0 85 7e 72 3d 20 7d 48 bb 18 de 19 3e 6a 43 80 3e
       0.05920269 -0.0030592158 0.15026128 0.25051433
000100 5a ce be be b9 9a 8b 3e 64 ec 9c bd 0b 29 d8 3d
       -0.3726681 0.27266482 -0.076622754 0.10554703
000110 f2 60 57 3e 2c 37 40 3e c7 75 73 3e 65 3a ed 3d
       0.21033075 0.18771046 0.23775397 0.115834035
000120 74 d2 48 be c1 cc 49 3e a4 59 11 3e ef e9 4b 3d
       -0.19611531 0.19707014 0.14194351 0.049783643
000130 e4 81 4c 3e b4 36 34 3d fc 13 72 3d 8c d1 b6 bd
       0.19971424 0.04399748 0.05910109 -0.08926687
000140 4a f7 1a 3e 29 4b b7 be b2 77 87 bd 4a 12 f1 3d
       0.15133396 -0.3579953 -0.06614627 0.117710665
000150 1f 9f 35 3e 1a 3f ed 3d 68 c8 7e 3e 52 e6 87 3d
       0.17736481 0.11584301 0.24881136 0.06635727
000160 cc 0f 58 3e 49 dc 4f 3d 1c 20 9e bd 1b 14 76 be
       0.21099776 0.05074719 -0.07720968 -0.24031107
000170 a8 ea 9e 3e 87 b2 86 3e e6 05 7d 3e 17 c2 1e 3e
       0.31038404 0.2630808 0.24709281 0.15503727
000180 2f b2 91 3e fa b6 c5 3e 5b 1e 2b bd e9 95 4f be
       0.28456256 0.38616163 -0.041776996 -0.2027203
000190 5a 98 23 be d7 a6 eb bc 4c 81 b0 3d d8 02 f2 3c
       -0.15976086 -0.028766079 0.086184114 0.029542372
0001a0 25 47 d2 bc 72 a0 84 bd f7 6b f4 bd 45 98 82 3e
       -0.02566869 -0.06475915 -0.11934655 0.25506797
0001b0 86 e4 44 be e5 02 b8 bd ed 29 dd bd a7 c1 26 be
       -0.192278 -0.08984927 -0.10799012 -0.1628481
0001c0 30 4c af bd 59 2f a0 be e1 35 8e 3d 79 32 54 bc
       -0.085594535 -0.31286123 0.0694387 -0.012951487
0001d0 85 17 cb bc 66 2b 13 3e 34 b0 ac 3d 50 ab 12 3e
       -0.024791488 0.14372024 0.084320456 0.14323163
0001e0 e9 62 1c 3e 0a dc 9b be 34 de 39 bc 9e 40 0c 3e
       0.15272106 -0.30441314 -0.011344481 0.13696525
0001f0 56 27 2f be 47 97 ad 3d 0c 49 81 3e dc 4f 8d 3e
       -0.17104849 0.084761195 0.25251043 0.2759999

layers.4.weight f4 [6, 128]
000000 0f 40 64 bc 06 57 23 3f 46 64 65 be 02 74 05 bf
       -0.013931288 0.6380466 -0.22401533 -0.5213014
000010 0a 60 49 3e 23 f7 76 bc 37 33 9f 3e 4a ee cd bd
       0.19665542 -0.01507357 0.3109376 -0.10055216
000020 d9 f5 25 be 73 17 45 3d 79 94 95 3e 0e 3c 3d 3c
       -0.16207065 0.048118066 0.29214838 0.011549963
000030 41 35 00 bf 12 19 5f be 51 94 ae 3d aa ad 1c bb
       -0.5008126 -0.21786907 0.08524383 -0.0023907223
000040 4e 08 9b 3e 61 b9 55 be 13 da 5b be 97 a0 05 3e
       0.30279773 -0.20871498 -0.21469907 0.13049541
000050 95 d7 f2 be f7 10 7f 3f 25 a5 0b be a6 9f 0c bf
       -0.474301 0.9963526 -0.13637216 -0.54931104
000060 b1 6d b9 be 0c e7 6c be a9 2b 12 be 11 34 51 bd
       -0.362165 -0.23135012 -0.14274468 -0.051075045
000070 7a cd b5 3e d7 d2 d2 be 68 a0 46 be 48 28 8d bd
       0.3550833 -0.41176483 -0.19397128 -0.06892449
000080 b3 bf 77 3e 99 14 bb bd 84 99 79 be 3d 8c 07 3e
       0.24194221 -0.09134788 -0.24374968 0.1323709
000090 36 a8 38 3e 56 a1 71 3e 99 8b 9f 3d 61 60 81 3e
       0.18032917 0.23596701 0.07790298 0.25268844
0000a0 96 f7 a8 3e 0c 7d 63 be 30 37 43 3e d1 bb 09 3f
       0.33001393 -0.2221567 0.19064021 0.5380221
0000b0 bc 40 05 be 17 77 99 be cf d5 fa 3e 55 4c 85 be
       -0.13012975 -0.2997367 0.48991248 -0.260348
0000c0 87 d2 81 be 8a b7 9a 3e a1 85 e8 bc 64 16 dc 3d
       -0.25355932 0.30218154 -0.028384032 0.10746458
0000d0 eb 68 8b be 75 7b dd bd 0b 05 78 3e fb 2c 07 3c
       -0.27228484 -0.10814563 0.24220674 0.00825047
0000e0 19 43 5d be 21 00 a6 3e 31 e4 de bd 60 1c 01 be
       -0.21607627 0.32421973 -0.10883368 -0.1260848
0000f0 5a cc 15 bd 7d 18 84 be ca ec db 3d d0 88 90 3d
       -0.036571838 -0.25799933 0.10738523 0.07057345
000100 c9 d2 06 bf 90 bb 6e 3e d2 a6 b5 3d f8 7d c5 bd
       -0.5266538 0.23313737 0.08869709 -0.09643167
000110 7c 49 cf bd 18 cc 37 3e fd ef 03 be d6 8e fc be
       -0.10121438 0.1794895 -0.12884517 -0.49327725
000120 dc 04 a6 be af 32 6b 3e 63 47 4d 3d 14 b0 8e be
       -0.32425582 0.22968553 0.050116908 -0.27868712
000130 d2 31 8f 3d 40 a8 19 bd 81 16 06 3f 4a 3d ef be
       0.06991924 -0.03751397 0.5237809 -0.46726447
000140 3c 8f c6 bd 6a dd c1 bd 35 76 53 be b2 10 e0 bd
       -0.096952885 -0.094660595 -0.20650561 -0.109406844
000150 f2 fa 44 3e 39 4e 3c 3e b8 fb 0f 3e ba 22 0e be
       0.19236353 0.18389215 0.14060867 -0.13880435
000160 60 03 9c 3e df b3 34 bd a7 51 c9 3e 11 c5 69 bd
       0.30471325 -0.04411685 0.39320108 -0.057072703
000170 ad ab 33 3c 1b 13 0a bd ac 1e 03 3f 11 7b 6e 3c
       0.010966224 -0.033709627 0.51218677 0.0145557085
000180 89 b2 1e 3e 66 fe 09 bd 0c f7 17 3e fc 7b 12 3e
       0.15497793 -0.03368988 0.14840335 0.14305109
000190 c4 66 5e 3e 0f 26 8f 3f 6d 8b 17 bd d5 f1 ba bc
       0.2171889 1.118349 -0.0369982 -0.022820393
0001a0 e7 00 ab bd 4d ad 8c bd f9 8b 57 be 98 4e a6 3e
       -0.083497815 -0.06868992 -0.21049489 0.32481837
0001b0 33 b2 2f bd 6d 11 4b 3e 45 b7 66 3e 01 f2 03 3f
       -0.042894553 0.19830866 0.2253085 0.51541144
0001c0 12 ee 89 be 99 96 db bd c9 19 fe bd 93 05 34 be
       -0.26939446 -0.107220836 -0.12407262 -0.17580251
0001d0 95 af d1 be a6 c2 9a 3e 79 a7 50 be 28 fe b9 bd
       -0.4095427 0.3022663 -0.20376386 -0.090816796
0001e0 97 1f 2b bc bc 9a 91 3d 0a d8 b5 3e eb 41 70 3f
       -0.010444543 0.07109591 0.35516387 0.9385058
0001f0 f8 02 53 be 75 54 0c 3d e3 0d 1d be d1 60 b3 3d
       -0.20606601 0.034260232 -0.15337329 0.08758701
000200 81 1b b5 3d fe b0 9b 3d 30 12 c7 3e cd 1c a8 be
       0.088431366 0.07602118 0.38881063 -0.32834473
000210 68 9b f7 bd 2b 33 0d 3e ce 12 9d be bf ec 1b 3e
       -0.12090188 0.1378905 -0.3067841 0.1522703
000220 dc 73 d9 be 98 54 15 3f 18 fe 2d 3d bb b7 87 3d
       -0.42471206 0.58332205 0.04247865 0.06626841
000230 fc 22 60 3e e0 e3 61 be 06 3d 27 3e 1e 93 9e bc
       0.21888345 -0.22059584 0.16331872 -0.01935726
000240 ad 0b d4 bc 5c 28 33 be 8b 15 46 be a9 8c d8 3d
       -0.025884474 -0.17495865 -0.19344155 0.10573704
000250 51 a1 95 3d 7d 71 2a 3e 78 e5 51 bc e8 a4 91 be
       0.07306159 0.16644855 -0.012811057 -0.28446126
000260 2e 0c b6 bd 27 5c 53 3d 5d ce 53 3c f1 b8 14 3d
       -0.08889042 0.051601555 0.012927619 0.036309186
000270 e8 90 b2 3e 09 08 de bd 89 67 47 3e 30 64 6b 3d
       0.3487618 -0.10841376 0.1947309 0.057468593
000280 2d 90 d5 3c 1e 0c 8d bc 9a 9b 32 3d 30 3f 21 be
       0.026069725 -0.017217692 0.043605424 -0.1574676
000290 91 bd 96 be 3e ea ed be 33 93 42 bf fd c0 60 be
       -0.29441503 -0.46467775 -0.7600586 -0.21948619
0002a0 0c b0 d6 3d 0e c1 bc be 05 a2 97 3e 9a 92 60 bd
       0.10482797 -0.3686604 0.296158 -0.05482731
0002b0 d9 e0 32 3e cf 6d 0c 3e d9 e2 87 3d b2 d7 98 3e
       0.17468585 0.13713764 0.06635065 0.29852062
0002c0 ff 41 91 be 11 58 73 3d 78 01 a9 3d 5b bf a2 be
       -0.28370664 0.05941016 0.08252233 -0.31786618
0002d0 16 54 5e be 9a ae 36 3c 13 c2 21 be 74 21 de bd
       -0.21711764 0.011150027 -0.1579669 -0.108462244
0002e0 6d 44 c3 bc 3b f4 16 3f a4 05 45 3d ac 3d d4 be
       -0.023836339 0.58966416 0.048101082 -0.41453302
0002f0 18 85 e5 3e 28 de 9e 3e a2 5c 64 bd 6e 57 1e be
       0.44828105 0.31028867 -0.055752404 -0.1546304
000300 2f 7a 6d bd 41 d0 5b be db dd 8a 3e 25 7e 88 be
       -0.05797785 -0.21466161 0.27122387 -0.2665874
000310 f1 fa 65 bd fb 71 81 be 37 1f b2 3d 3b 07 70 be
       -0.05614752 -0.25282273 0.0869736 -0.23440258
000320 a5 c7 26 be bc a2 2b 3d f4 fd 2c 3a 3f 1e 81 3d
       -0.16287096 0.041903242 0.0006599121 0.06304597
000330 83 82 b6 3d 03 50 6e 3e 9e b7 00 3f 25 72 cc 3e
       0.08911612 0.2327271 0.5028018 0.39930835
000340 da 7f 4d 3d 57 39 22 3e 9c d3 8f bc d5 9f ce 3c
       0.050170757 0.15842186 -0.017556958 0.025222698
000350 cc 55 1c bb f6 5c c4 be df 9a f1 bd cd fb 05 3f
       -0.002385485 -0.38352174 -0.117971174 0.5233734
000360 74 c6 87 3e 34 3a d9 be 92 cb 21 3e 33 26 89 3e
       0.26518595 -0.42427218 0.15800312 0.26786956
000370 b6 ca 3a be 7f 34 b9 bd 9e ff 28 3e 09 96 9f be
       -0.1824139 -0.09043216 0.1650376 -0.31169155
000380 0b 70 9b 3c 1b 5c 5d bc 60 55 2c 3f c2 90 94 3e
       0.018974325 -0.013510729 0.6731777 0.2901669
000390 71 d1 84 3d 16 eb e9 3d 4b 6c d7 be 46 a4 ae 3d
       0.0648526 0.11421792 -0.42074808 0.085274264
0003a0 d8 d0 b1 3d b9 46 aa 3d 06 8a 70 3e b0 ae 94 bd
       0.08682412 0.083142705 0.23490152 -0.072598815
0003b0 b7 3c 06 3f ed f8 7a 3e 48 70 5d be 43 c1 7c 3e
       0.52436393 0.2450902 -0.21624863 0.24683098
0003c0 92 42 cc 3d 2a 18 c3 3e 9e c6 19 3d 75 20 2f 3e
       0.09973635 0.38104373 0.03754293 0.17102225
0003d0 14 bc 0b 3d 6b f8 98 be 1d 69 d3 be b0 a2 ec 3d
       0.034114912 -0.29877028 -0.41291133 0.11554468
0003e0 fc 6a fe 3d 5c 6e 4f 3e 2f 4f 0f bc 9e 80 83 3e
       0.124227494 0.20256943 -0.008746906 0.25684065
0003f0 5f 4d be 3d 09 90 fd bd 93 4c 3a 3d a4 68 56 bc
       0.09292101 -0.12380988 0.045483183 -0.013086472

layers.4.bias f4 [6]
000000 42 a3 92 3d f1 2e 51 be f2 ca be 3e af 72 88 3e
       0.07160045 -0.20428063 0.3726421 0.26649997
000010 79 c5 17 bd 27 9b 00 3b
       -0.03705356 0.0019623728
