hw2/coding_part/preTrained/CartPole_0.01.pth (torch_old, 5231 bytes, 5 tensors)

shared_layers.0.weight f4 [128, 4]
0.203583 0.15125945 0.6267163 0.36597234 0.26839182 0.13883707 0.46252874 0.39840034
-0.25409174 0.2396045 0.4985242 0.39814 -0.09412916 0.15102904 0.5874219 0.34446517
-5.465583e-05 -0.30985135 -0.66365993 -0.34077892 -0.08317926 -0.14150399 -0.61576766 -0.14838776
0.024817852 -0.31134868 -0.7565873 -0.4414452 -0.17591253 -0.048321467 -0.31837362 -0.2690529
-0.054564234 0.08036999 0.7469311 0.41255575 -0.05582103 0.20779002 0.7760738 0.37145904
0.117061935 -0.09269218 0.23437099 -0.09340217 -0.039970614 -0.12025402 0.6462653 0.42146254
-0.1599945 -0.08700457 -0.6860379 -0.25741407 -0.08114625 0.11367646 0.021908715 0.17550328
-0.078030296 0.12126111 0.6554491 0.38985303 -0.2584185 -0.11087587 -0.72645277 -0.28578058
-0.0136696035 -0.15728511 0.45175543 0.22565283 0.027053177 -0.36685866 -0.6942198 -0.3477009
0.00016629568 -0.21243845 -0.7384057 -0.39848801 0.19622223 0.08628941 0.7985299 0.36048993
-0.17519066 0.16451475 0.3584376 0.20684771 0.32110867 0.24111384 0.5585402 0.4413521
0.15865764 0.27156156 0.75229603 0.37083763 0.22571959 0.37902716 0.80885285 0.3277184
-0.2013096 -0.13806032 0.33227992 0.4358928 0.14883429 0.26672336 0.79095685 0.26150152
0.17848887 0.19517569 0.5297752 0.39368215 -0.21186927 -0.12997873 -0.4324544 -0.2701764
-0.10713238 0.1102243 0.3810579 0.21305327 0.07156344 0.2954362 0.4462519 0.20786104
-0.050326988 -0.20504148 -0.8241817 -0.11405589 -0.10401144 -0.17078312 -0.6582808 -0.37917057
0.26341173 0.062132727 0.6163052 0.4058261 -0.05284967 -0.2599213 -0.68685424 -0.41572142
-0.24359398 -0.022267643 0.360088 0.30302814 -0.24036081 -0.19699036 -0.63191235 -0.35075822
-0.16320702 0.20211309 0.6083041 0.13929054 -0.04852739 -0.11002765 -0.57368827 -0.08000269
-0.13180609 -0.003149324 -0.6511774 -0.42207083 -0.07876016 0.19688827 0.711037 0.38407338
0.14858039 -0.021628313 0.21636407 0.029819787 -0.18257666 -0.101195365 -0.5820596 -0.29286703
-3.9268285e-05 -0.25291446 -0.53636086 -0.13751373 -0.2168542 0.18220414 0.025131237 0.08632334
-0.044298448 0.15659806 0.7424624 0.35536513 0.03160495 -0.27866858 -0.73049533 -0.20043068
0.10396376 0.02098662 0.24077056 0.034924567 -0.008493412 -0.31692716 -0.52937937 -0.3053062
-0.18965614 -0.106656745 0.6592395 0.3228241 0.28816044 0.1774611 0.5691196 0.17832407
-0.13991322 0.19283302 0.6761086 0.4474622 -0.28958347 -0.043451052 0.6855769 0.3121302
-0.20836721 0.2518273 0.48509428 0.29058516 0.19988587 0.1271921 0.71247524 0.3977613
-0.17012893 -0.052369054 -0.8040676 -0.16918026 -0.06141727 -0.14253825 -0.41529152 -0.23847765
0.28913713 0.15024848 0.8852471 0.33173814 -0.12326974 0.036911808 0.8354767 0.29042187
-0.039721865 -0.21996303 -0.89660794 -0.33827087 -0.06102303 -0.16464931 -0.6399529 -0.3886096
-0.012215028 0.01785842 0.7460126 0.25668648 -0.2550996 0.1121218 0.852756 0.44626734
-0.06334694 0.17601682 0.56593955 0.35132256 -0.28092852 0.10838665 0.22387843 0.39002398
00000000: 1078 503e c2e3 1a3e 7b70 203f ba60 bb3e
00000010: a76a 893e 4e2b 0e3e 91d0 ec3e 21fb cb3e
00000020: 5018 82be e25a 753e 903e ff3e 02d9 cb3e
00000030: cac6 c0bd 5ba7 1a3e 4861 163f bd5d b03e
00000040: 403e 65b8 d6a4 9ebe 9ee5 29bf 937a aebe
00000050: e359 aabd 6ce6 10be f3a2 1dbf f6f2 17be
00000060: cf4e cb3c 1869 9fbe b5af 41bf 1b05 e2be
00000070: 6a22 34be bbec 45bd de01 a3be 4dc1 89be
00000080: bf7e 5fbd 0599 a43d e036 3f3f 823a d33e
00000090: 98a4 64bd e8c6 543e c6ac 463f e12f be3e
000000a0: 2bbe ef3d 66d5 bdbd f3fe 6f3e a349 bfbd
000000b0: 3ab8 23bd bd47 f6bd a571 253f f0c9 d73e
000000c0: 99d5 23be 742f b2bd 2ea0 2fbf c7cb 83be
000000d0: 0130 a6bd 34cf e83d e879 b33c 22b7 333e
000000e0: 59ce 9fbd bf57 f83d 83cb 273f d19a c73e
000000f0: 6e4f 84be e312 e3bd cff8 39bf d551 92be
00000100: 79f6 5fbc 590f 21be 7d4c e73e 8911 673e
00000110: a09e dd3c e6d4 bbbe 64b8 31bf da05 b2be
00000120: a85f 2e39 7789 59be 2808 3dbf 9f06 ccbe
00000130: 7bee 483e 81b8 b03d 756c 4c3f 2392 b83e
00000140: 2e65 33be 8e76 283e 2285 b73e e3cf 533e
00000150: 5b68 a43e 8ce6 763e 7efc 0e3f e7f8 e13e
00000160: 2677 223e 1e0a 8b3e 7996 403f 6ede bd3e
00000170: 0923 673e d90f c23e fb10 4f3f b5ca a73e
00000180: 1b24 4ebe af5f 0dbe 9820 aa3e 572d df3e
00000190: 0468 183e f78f 883e 267c 4a3f 87e3 853e
000001a0: c9c5 363e 23dc 473e 599f 073f b590 c93e
000001b0: 42f4 58be 2519 05be aa6a ddbe 9054 8abe
000001c0: 3968 dbbd 47bd e13d 051a c33e a32a 5a3e
000001d0: da8f 923d 6a43 973e 217b e43e 86d9 543e
000001e0: ac23 4ebd 65f6 51be 92fd 52bf 2296 e9bd
000001f0: f303 d5bd c5e1 2ebe 1785 28bf a522 c2be
00000200: e7dd 863e e37e 7e3d 2dc6 1d3f 70c8 cf3e
00000210: e578 58bd 6814 85be aed5 2fbf 70d9 d4be
00000220: b370 79be a26a b6bc 745d b83e 8126 9b3e
00000230: 2521 76be d7b7 49be 02c5 21bf 9596 b3be
00000240: be1f 27be bcf6 4e3e d1b9 1b3f 2ea2 0e3e
00000250: a8c4 46bd 2d56 e1bd 3cdd 12bf 73d8 a3bd
00000260: 2df8 06be e464 4ebb 90b3 26bf ab19 d8be
00000270: 024d a1bd 149d 493e 8506 363f 44a5 c43e
00000280: 7525 183e dc2d b1bc 8b8e 5d3e a048 f43c
00000290: 60f5 3abe 843f cfbd dc01 15bf abf2 95be
000002a0: 00b4 24b8 017e 81be f24e 09bf 66d0 0cbe
000002b0: 070f 5ebe b993 3a3e 06e0 cd3c 4bca b03d
000002c0: 4a72 35bd 3e5b 203e 0412 3e3f 6bf2 b53e
000002d0: 3174 013d a6ad 8ebe be01 3bbf b33d 4dbe
000002e0: f4ea d43d 22ec ab3c 8f8c 763e 100d 0f3d
000002f0: f427 0bbc 4744 a2be 6885 07bf 1851 9cbe
00000300: 3835 42be da6e dabd ebc3 283f 3349 a53e
00000310: c489 933e 5db8 353e d2b1 113f 969a 363e
00000320: 6945 0fbe 0576 453e 7415 2d3f c419 e53e
00000330: 4944 94be bbf9 31bd f881 2f3f 88cf 9f3e
00000340: 375e 55be 82ef 803e 475e f83e 94c7 943e
00000350: e2ae 4c3e a53e 023e c764 363f 5ea7 cb3e
00000360: 4736 2ebe ef80 56bd 60d7 4dbf 973d 2dbe
00000370: ad90 7bbd 8cf5 11be 17a1 d4be 7c33 74be
00000380: c809 943e bdda 193e 8e9f 623f 95d9 a93e
00000390: d874 fcbd d630 173d cde1 553f 2db2 943e
000003a0: 65b3 22bd fd3d 61be 1988 65bf d731 adbe
000003b0: 49f3 79bd d499 28be f4d3 23bf d6f7 c6be
000003c0: 8a21 48bc d24b 923c affa 3e3f 696c 833e
000003d0: 6a9c 82be 1da0 e53d 384e 5a3f 277d e43e
000003e0: 0abc 81bd c13d 343e 6ae1 103f 8de0 b33e
000003f0: ddd5 8fbe d2f9 dd3d 6340 653e 39b1 c73e

shared_layers.0.bias f4 [128]
0.07043329 0.13333125 0.031046243 0.029454138 0.10288412 0.036103282 0.14459233 0.059932042
0.054008137 0.18171477 -0.12049142 -0.0066343425 0.09415785 0.0026656073 0.06982785 0.09339634
-0.021173088 0.115517035 0.1075535 0.15294193 0.018537456 0.13097811 0.116332754 0.09567726
-0.007908926 0.084584735 0.08325833 0.096347764 -0.050637763 0.07351922 0.08208774 0.13212153
0.13684307 0.13338815 -0.03706776 0.1088371 0.022513654 0.049578506 0.13909924 0.17152911
-0.1011764 0.10209121 0.056161355 -0.107373774 0.15577716 0.09603494 -0.09693151 0.06826699
-0.042340104 0.081912115 0.09752019 0.017902631 0.02142528 0.13223903 0.09205827 0.0802558
0.098345816 0.042040106 0.09751439 0.16563645 0.07136757 0.07565761 0.12437022 0.025703758
-0.12770793 0.022351753 0.033432752 -0.12298019 -0.07866722 0.10232352 -0.005062517 0.07212141
0.0110843405 0.09230644 0.08347978 0.072702065 -0.07148566 0.03782023 0.18079151 0.08074095
-0.15255143 0.03218415 0.06346952 0.13147558 -0.18389301 0.04320395 0.1267183 -0.07159353
0.1100061 -0.0019185807 -0.04963553 -0.08928729 0.037520777 0.101213 0.01587624 0.0987752
0.09177818 0.08084387 0.085572496 -0.04271374 0.09512554 0.18666656 0.1454198 0.20376818
0.13764903 0.07807425 0.015197261 0.12682348 -0.0029369364 0.038855657 -0.0050643235 0.090005405
-0.13045606 0.09809934 0.0913884 0.16113245 -0.09141443 0.137898 0.09545095 0.068184555
0.0958468 -0.13052425 0.12710653 0.13417177 0.10754148 -0.05652037 0.061463144 0.012046161
00000000: 543f 903d fd87 083e b154 fe3c ce49 f13c
00000010: e9b4 d23d 09e1 133d 0310 143e 4d7b 753d
00000020: a337 5d3d 7013 3a3e 35c4 f6bd e664 d9bb
00000030: d5d5 c03d 78b1 2e3b e701 8f3d 9546 bf3d
00000040: 2f73 adbc 3294 ec3d 0245 dc3d cf9c 1c3e
00000050: dddb 973c 201f 063e de3f ee3d 70f2 c33d
00000060: 7194 01bc c33a ad3d 5883 aa3d fa51 c53d
00000070: 8b69 4fbd 3f91 963d 9e1d a83d de4a 073e
00000080: 9720 0c3e e796 083e 5dd4 17bd fce5 de3d
00000090: 8e6e b83c d512 4b3d 0870 0e3e 54a5 2f3e
000000a0: 9335 cfbd 3215 d13d 7309 663d c8e6 dbbd
000000b0: 0c84 1f3e f7ad c43d 0784 c6bd 90cf 8b3d
000000c0: d16c 2dbd 8ac1 a73d aab8 c73d 8aa8 923c
000000d0: 1284 af3c ab69 073e 0c89 bc3d 275d a43d
000000e0: 8869 c93d 3f32 2c3d a0b5 c73d 9a9c 293e
000000f0: 2929 923d 61f2 9a3d d0b5 fe3d b090 d23c
00000100: dec5 02be 061b b73c c8f0 083d 0add fbbd
00000110: 481c a1bd fe8e d13d 78e3 a5bb 64b4 933d
00000120: 189b 353c 290b bd3d 72f7 aa3d d2e4 943d
00000130: 1367 92bd 63e9 1a3d 6921 393e 835b a53d
00000140: 7136 1cbe 87d3 033d 4ffc 813d 89a1 063e
00000150: 734e 3cbe a0f6 303d 71c2 013e a19f 92bd
00000160: e14a e13d e378 fbba a04e 4bbd 41dc b6bd
00000170: 63af 193d c348 cf3d e30e 823c a74a ca3d
00000180: 33f6 bb3d 7991 a53d a240 af3d 9af4 2ebd
00000190: 2ed1 c23d 8525 3f3e eee8 143e 9ba8 503e
000001a0: def3 0c3e 64e5 9f3d effd 783c 04de 013e
000001b0: 9e79 40bb 1c27 1f3d a0f2 a5bb c154 b83d
000001c0: 4696 05be 4fe8 c83d d729 bb3d e8ff 243e
000001d0: 7d37 bbbd 2235 0d3e ca7b c33d 58a4 8b3d
000001e0: 544b c43d 26a8 05be 3728 023e 5364 093e
000001f0: b53e dc3d e781 67bd c7c0 7b3d 435d 453c

actor.0.weight f4 [2, 128]
-0.16019414 -0.33521187 -0.28820255 -0.29337513 0.35043722 -0.06454291 0.3869388 0.039870348
-0.24734116 -0.3924018 0.15243824 0.0150048435 0.093400374 0.019952256 -0.0775879 0.113434404
-0.15835719 0.16439296 0.4015608 -0.33445555 0.07354436 -0.33033717 -0.4208311 -0.05007758
-0.101580314 -0.28961837 -0.28619432 0.22250299 -0.054808646 -0.23831765 0.07994671 0.2683676
-0.32320368 0.4489498 -0.20730522 0.04016897 -0.16243744 0.1001023 0.15847841 -0.44188827
0.11199203 0.24435255 0.117968395 -0.07643177 -0.34337452 0.15165128 -0.05279047 0.30773464
-0.052685026 0.121029094 -0.12676975 -0.0596911 -0.2626489 -0.3437147 0.113070644 0.14742635
-0.12079077 -0.30055752 0.2957194 0.15992971 -0.048869994 -0.28510883 -0.37901595 -0.07494173
0.09089612 -0.10577862 -0.041949317 -0.118260704 0.1210751 -0.36194053 -0.14798887 0.043908447
0.10317883 -0.1554852 -0.1976418 0.28998804 0.09351738 0.017524706 0.2838456 0.28292054
0.06771843 -0.20750578 0.07071856 -0.03635383 0.13371085 0.1738126 0.33262876 -0.17447926
-0.3072996 -0.022266986 -0.020378336 -0.12595995 0.08526265 0.22841932 0.11451574 -0.22745118
0.30682492 0.05847513 -0.3944979 0.01696201 0.054684505 0.2674934 0.08817401 0.4014934
0.19807883 0.24907236 -0.02517222 -0.03812707 -0.14545016 -0.09116391 -0.12555024 -0.15683697
0.024532663 0.3021719 -0.06894331 0.47212628 -0.14714012 -0.15931036 0.23515631 0.22828805
0.321365 0.16271676 0.3678943 0.321842 0.34492594 0.14048195 0.09921065 -0.22837918
0.12640733 0.36264867 0.054698173 0.14108318 -0.16911423 -0.23747586 -0.25952992 -0.12073419
0.17330405 0.35437575 0.12801465 0.22661275 -0.28128713 0.061561264 0.26984707 -0.13415621
0.10361337 -0.4236862 -0.2936419 0.21412134 0.18178582 0.38519517 0.0007189112 0.3457507
0.10499173 -0.0074081966 0.11474061 -0.18694839 0.019494375 0.05961428 -0.16069971 -0.39508748
0.118002325 -0.08106319 0.08141928 -0.28013527 0.017054368 -0.06646136 -0.30227393 0.40746337
0.11403879 -0.035307653 -0.11401263 0.05497568 0.41207212 -0.3021811 0.0073101916 -0.1264354
0.18709636 0.26759148 0.36662805 0.2769597 0.03342196 0.19246073 -0.24532858 -0.013953348
0.27938914 0.24268754 -0.30033648 -0.24398221 0.27358603 0.2537008 0.024472803 0.15042761
0.03237722 0.18473105 0.29419577 -0.018648999 0.20477279 0.36456558 0.18860392 -0.19687794
-0.0038838245 0.15946583 0.3015859 -0.11809208 0.09271404 -0.10242028 -0.41089907 -0.17236075
0.087213375 0.21719182 0.32134894 0.2917736 0.18809 -0.038771473 -0.29248983 -0.006900984
0.300704 -0.12635021 -0.107914045 -0.10066859 -0.21788324 -0.19187926 0.19727202 0.15917483
-0.06848058 0.23311064 0.05487318 0.020863824 -0.3164467 -0.4156429 -0.17089874 -0.37069485
-0.018802648 -0.12143508 0.22533807 0.39424604 0.1255694 0.28889927 0.087712765 0.26420966
-0.052994054 -0.38238704 0.34930703 -0.4796047 -0.0056360783 0.34488365 -0.11109448 -0.07518379
-0.2572284 0.17050569 -0.35508886 -0.33611715 -0.33966625 0.095809445 -0.13940078 -0.07331311
00000000: ef09 24be e4a0 abbe 498f 93be 4435 96be
00000010: 826c b33e 132f 84bd d81c c63e 174f 233d
00000020: 0047 7dbe e4e8 c8be c518 1c3e e0d6 753c
00000030: b248 bf3d ea72 a33c 68e6 9ebd 4c50 e83d
00000040: 6328 22be a156 283e 6199 cd3e c23d abbe
00000050: 6d9e 963d f421 a9be 2d77 d7be 261e 4dbd
00000060: 5709 d0bd dc48 94be 1088 92be d3d7 633e
00000070: 087f 60bd 8b09 74be 1abb a33d 7a67 893e
00000080: f47a a5be c0dc e53e d247 54be 3888 243d
00000090: 0056 26be 6f02 cd3d 2a48 223e 2e3f e2be
000000a0: 145c e53d 8e37 7a3e 6a99 f13d 4388 9cbd
000000b0: c9ce afbe 794a 1b3e d23a 58bd 658f 9d3e
000000c0: 41cc 57bd 1ade f73d eecf 01be a87e 74bd
000000d0: eb79 86be 60fb afbe 9591 e73d eff6 163e
000000e0: 2761 f7bd ade2 99be 8868 973e 9dc4 233e
000000f0: e72b 48bd c9f9 91be 610e c2be 0d7b 99bd
00000100: bf27 ba3d 76a2 d8bd 0cd3 2bbd ab32 f2bd
00000110: 39f6 f73d 4550 b9be 658a 17be 58d9 333d
00000120: 6c4f d33d 8337 1fbe 9d62 4abe 5079 943e
00000130: 0a86 bf3d f98f 8f3c 3654 913e f6da 903e
00000140: f6af 8a3d 657c 54be e4d4 903d c1e7 14bd
00000150: 7feb 083e eefb 313e 514e aa3e b1aa 32be
00000160: 6056 9dbe 4169 b6bc 78f0 a6bc a5fb 00be
00000170: 2f9e ae3d c1e6 693e 3a87 ea3d f6e8 68be
00000180: 2818 9d3e 9e83 6f3d a1fb c9be eaf3 8a3c
00000190: dcfc 5f3d e5f4 883e 9394 b43d 8b90 cd3e
000001a0: 2dd5 4a3e d30c 7f3e f935 cebc 212b 1cbd
000001b0: e3f0 14be 25b4 babd 3e90 00be df99 20be
000001c0: b9f8 c83c 46b6 9a3e 2632 8dbd 89ba f13e
000001d0: e6ab 16be 4122 23be d1cc 703e 58c4 693e
000001e0: f489 a43e 399f 263e a45c bc3e 7ac8 a43e
000001f0: 229a b03e 80da 0f3e f42e cb3d 3bdc 69be
00000200: ec70 013e 16ad b93e 310b 603d 1c78 103e
00000210: 482c 2dbe df2c 73be 1be1 84be 7d43 f7bd
00000220: 9e76 313e bd70 b53e 4616 033e 2c0d 683e
00000230: de04 90be aa27 7c3d 6529 8a3e 3f60 09be
00000240: 3f33 d43d 66ed d8be 3b58 96be a042 5b3e
00000250: 1026 3a3e 4d38 c53e 5075 3c3a 3c06 b13e
00000260: e705 d73d 75c0 f2bb 20fd ea3d 666f 3fbe
00000270: abb2 9f3c 1a2e 743d 778e 24be e848 cabe
00000280: 34ab f13d 7504 a6bd 27bf a63d e46d 8fbe
00000290: 9ab5 8b3c e51c 88bd a6c3 9abe 0a9f d03e
000002a0: 2b8d e93d c29e 10bd 747f e9bd 2e2e 613d
000002b0: 1efb d23e 7bb7 9abe 558a ef3b 4878 01be
000002c0: 3096 3f3e c001 893e acb6 bb3e a9cd 8d3e
000002d0: 77e5 083d 6d14 453e 6a37 7bbe 959c 64bc
000002e0: 180c 8f3e 1583 783e b4c5 99be 79d6 79be
000002f0: 7813 8c3e 12e5 813e 307b c83c b209 1a3e
00000300: fa9d 043d 232a 3d3e d4a0 963e c9c5 98bc
00000310: f5af 513e 57a8 ba3e 6321 413e 5f9a 49be
00000320: c387 7ebb 034b 233e 7869 9a3e 43da f1bd
00000330: dce0 bd3d b9c1 d1bd 5d61 d2be 567f 30be
00000340: ed9c b23d 8867 5e3e d987 a43e 5963 953e
00000350: aa9a 403e d6ce 1ebd 3ac1 95be a621 e2bb
00000360: e0f5 993e f361 01be 0a02 ddbd 552b cebd
00000370: c91c 5fbe ff7b 44be ad01 4a3e bafe 223e
00000380: 8c3f 8cbd 8eb4 6e3e b3c2 603d 9cea aa3c
00000390: 4d05 a2be 25cf d4be 1400 2fbe b7cb bdbe
000003a0: 0308 9abc f5b2 f8bd 06bf 663e 9eda c93e
000003b0: 4495 003e 9bea 933e c0a2 b33d 7d46 873e
000003c0: 4b10 59bd 3cc8 c3be 5fd8 b23e bf8e f5be
000003d0: daae b8bb 9794 b03e 8185 e3bd f5f9 99bd
000003e0: 71b3 83be 0b99 2e3e 35ce b5be 8c17 acbe
000003f0: bce8 adbe be37 c43d 14bf 0ebe 2f25 96bd

actor.0.bias f4 [2]
0.09700031 0.10299971
00000000: 19a8 c63d 83f1 d23d

critic.weight f4 [1, 128]
-0.21431619 0.17075932 0.063599825 0.09063941 -0.15565273 -0.14225516 -0.06626105 0.09624803
-0.03473082 0.034553617 0.20021605 -0.07686894 0.05538416 0.07902247 -0.053383738 -0.11999262
0.12646812 -0.14904734 0.19853085 0.003580466 0.09051612 -0.11016759 -0.088248074 0.053536415
-0.1417098 0.046946973 -0.11236405 -0.0073833317 0.04124424 0.019647017 0.06704593 -0.007944211
-0.18893844 0.10934678 -0.089956075 -0.17775851 0.15827206 0.18719977 0.070938796 -0.0054593235
-0.0533704 -0.09601823 0.022168756 -0.12666985 0.17568347 0.07069367 -0.13493374 0.118622035
-0.07818173 0.1034013 0.06410122 0.11478883 0.09989518 0.18345118 0.03496039 -0.06661238
-0.07162097 -0.083867475 -0.07258144 -0.119341046 -0.14936109 0.16458815 0.010166481 0.17265606
0.20998597 0.16263467 0.13691878 -0.099497296 -0.02543363 0.055140227 -0.1820899 0.12982658
0.04512024 -0.15221421 0.001921311 0.08919674 0.15632063 0.17574516 -0.014574185 -0.025978044
0.17208639 -0.084440544 -0.044245273 -0.035152763 0.041270763 0.0048247874 0.1337412 0.04466319
0.053588033 -0.049298808 0.1993027 0.000113382936 -0.21054325 0.03887263 0.10927045 -0.033267826
-0.19940516 0.021931678 0.18086672 0.06718388 0.04782906 -0.21293871 0.005869925 -0.13971299
0.18767458 -0.21124305 0.07404679 -0.1451802 0.12781635 -0.12637025 0.038594007 0.20316488
0.099205285 0.07235217 0.20976391 -0.007924572 -0.16473255 -0.11607745 0.12724787 -0.20307364
0.021809638 0.0029764771 -0.14196765 -0.040034965 -0.14610845 -0.0883939 -0.15903251 0.1290524
00000000: b475 5bbe 88db 2e3e a040 823d 28a1 b93d
00000010: 6e63 1fbe 56ab 11be e0b3 87bd b01d c53d
00000020: e841 0ebd 1888 0d3d 7005 4d3e 766d 9dbd
00000030: 80da 623d 88d6 a13d e8a8 5abd b1be f5bd
00000040: dc80 013e de9f 18be ac4b 4b3e 40a6 6a3b
00000050: 8460 b93d 8c9f e1bd 68bb b4bd 0049 5b3d
00000060: 601c 11be 784b 403d 1f1f e6bd e0ef f1bb
00000070: b8ef 283d c8f2 a03c 604f 893d 7028 02bc
00000080: 1479 41be 34f1 df3d e43a b8bd 5406 36be
00000090: 1212 223e 4cb1 3f3e 5c48 913d 20e4 b2bb
000000a0: ec9a 5abd 35a5 c4bd 409b b53c beb5 01be
000000b0: 5ee6 333e d8c7 903d 122c 0abe 1cf0 f23d
000000c0: be1d a0bd 10c4 d33d 8047 833d 6816 eb3d
000000d0: d895 cc3d a0da 3b3e a032 0f3d 126c 88bd
000000e0: 04ae 92bd b6c2 abbd 94a5 94bd 1469 f4bd
000000f0: 1df2 18be cc89 283e 5091 263c c0cc 303e
00000100: 9006 573e b489 263e 7034 0c3e 3dc5 cbbd
00000110: 305a d0bc b8da 613d c675 3abe 42f1 043e
00000120: 00d0 383d 0bde 1bbe 80d4 fb3a c8ac b63d
00000130: 8412 203e 8af6 333e 90c8 6ebc e8cf d4bc
00000140: 6a37 303e 2aef acbd 883a 35bd 58fc 0fbd
00000150: 880b 293d 4019 9e3b 74f3 083e c0f0 363d
00000160: 207f 5b3d 8ced 49bd 0216 4c3e 00c8 ed38
00000170: a698 57be e838 1f3d 30c9 df3d d843 08bd
00000180: de30 4cbe 10aa b33c 2035 393e b497 893d
00000190: 68e8 433d 9b0c 5abe 8058 c03b ec10 0fbe
000001a0: c42d 403e 1950 58be d8a5 973d 1eaa 14be
000001b0: 4ae2 023e 3467 01be c014 1e3d 740a 503e
000001c0: 242c cb3d 602d 943d 5acc 563e 10d6 01bc
000001d0: a6af 28be 04ba edbd 444d 023e 89f2 4fbe
000001e0: 20aa b23c 0011 433b f85f 11be b4fb 23bd
000001f0: 749d 15be dc07 b5bd 6bd9 22be 5026 043e
