hw2/coding_part/preTrained/LunarLander_0.016.pth (torch_old, 74641 bytes, 7 tensors)

shared_layers.0.weight f4 [128, 8]
000000 93 d3 c5 bc 4d 49 3d bf 9c 9b 94 3e 8e 5a 60 bf
       -0.024148738 -0.73939973 0.2902497 -0.87638175
000010 ec c1 fa be 23 3e 0e bf 4c 4d 1c bf 32 32 6a bf
       -0.48976076 -0.55563563 -0.61055446 -0.9148284
000020 b9 76 77 3f 31 84 11 be df d5 e4 be 45 9b 29 3f
       0.9666553 -0.14210583 -0.4469442 0.6625255
000030 1c 26 39 be 6f 6c 82 bd 80 bb c2 3e c7 19 9e be
       -0.18080944 -0.06368338 0.38033676 -0.30879042
000040 a7 13 43 3e fd 56 e2 bd ff 8a 92 bd e4 86 9a 3e
       0.19050466 -0.11051748 -0.07155418 0.30181038
000050 98 25 b0 3d c8 b4 3a 3d c4 57 ed bd 04 4d 1b bf
       0.086009204 0.045582563 -0.115890056 -0.6066439
000060 89 fa f5 be d4 8e 95 be dc 92 aa be ef ff cd 3b
       -0.48042706 -0.29210532 -0.3331517 0.006286613
000070 12 29 9a 3f 60 dd 5d 3f 95 d2 38 bf 98 3e 14 bd
       1.2043784 0.86665916 -0.7219632 -0.036192507
000080 6c d9 27 3e c5 c2 6b be 49 d5 fb bd 63 6e e2 3e
       0.16391534 -0.23023517 -0.1229654 0.44224843
000090 01 c1 b4 bc b1 59 6e be 44 65 10 be 2c c3 bd be
       -0.022064688 -0.23276402 -0.1410113 -0.37062967
0000a0 8e ef 6f bd db 04 d8 bd 7d 33 1e 3e 07 52 ff 3e
       -0.058578067 -0.10547801 0.15449329 0.4986727
0000b0 1d fb 15 3d 0d 67 00 3e fa f2 6d be f9 cb ce bd
       0.036616433 0.12539311 -0.2323722 -0.100974984
0000c0 6d 7b 9f be 70 2d 2d be 50 37 f6 bb af 67 96 3e
       -0.31148854 -0.16911864 -0.007513918 0.2937598
0000d0 cc 3f 00 3e 0e 43 98 3c 64 69 b6 3b 5b 16 9b be
       0.12524337 0.018586662 0.0055667628 -0.30290493
0000e0 b0 c9 f4 be 11 01 a4 be 99 ac 92 be b5 ed 0c 3d
       -0.47810125 -0.32032064 -0.28647307 0.034406383
0000f0 b7 29 55 3e 8b c7 33 3e 8b b4 1c bd 18 d2 0a bf
       0.20816694 0.17556588 -0.038258117 -0.5422683
000100 55 54 d2 3d d9 4d cd bc b8 10 a9 3d f0 4f 07 3f
       0.10269991 -0.025061535 0.08255142 0.5285635
000110 69 dd 25 bd ee d7 aa 3d 27 98 a5 be 28 c1 16 bd
       -0.040494356 0.083419666 -0.32342646 -0.036805302
000120 cc cb ed 3d 5e ab a1 be 4f ee b3 be 98 42 e5 3f
       0.11611137 -0.31576055 -0.35142753 1.7910948
000130 7f f7 2a 3f 29 43 52 3e 6c a8 e3 be 26 4f b8 be
       0.667839 0.20533432 -0.44464433 -0.35997885
000140 59 6b 4c bf 47 2e 65 be 7f 6d fb be 41 73 35 3f
       -0.798513 -0.22380935 -0.49106976 0.7087899
000150 36 2f 93 3e 32 2d 10 be 3c 32 47 3e 9a e1 1f bf
       0.28746957 -0.1407974 0.19452757 -0.62453616
000160 38 1e b1 be f6 14 c7 be b5 17 81 be 84 1f 83 bd
       -0.34593368 -0.3888318 -0.252134 -0.064024955
000170 3c 77 2e 3f fb f7 d1 3e e4 5d 16 be 48 0c 9d bd
       0.6815069 0.41009507 -0.14684254 -0.07668358
000180 20 d6 82 bd f4 cf c2 be da 18 d8 3d 6c ce 3d 3e
       -0.06388497 -0.3804928 0.10551615 0.18535775
000190 d3 ff 73 3d bb ee 62 be 71 8b 4f bf 85 1d 20 bf
       0.059570145 -0.22161381 -0.81072146 -0.62545043
0001a0 7b fb 0c be d3 d6 e1 bd e7 5b a1 3e f0 49 4e 3c
       -0.13767807 -0.110273026 0.31515428 0.01259087
0001b0 bb d3 97 be 3c c8 4a 3f 35 5d 5e 3e c0 ee 38 3d
       -0.29653725 0.79211783 0.21715243 0.045149565
0001c0 74 4c 1d ba 95 1b 1e bd 66 56 a1 3c b7 e7 03 3e
       -0.0006000467 -0.038600523 0.019694518 0.12881361
0001d0 77 d6 b5 3c 37 55 0e 3e b3 45 48 be 40 fa 0c bf
       0.022196991 0.13899694 -0.19557838 -0.5506935
0001e0 8a 68 60 bc c0 79 d1 bd 39 82 a2 3e c9 a0 07 3f
       -0.013696799 -0.102283 0.31739977 0.52979714
0001f0 f0 1d 8e bc 92 c7 07 bf 88 7d 4d be b4 36 20 be
       -0.01734826 -0.53038895 -0.20067418 -0.15645868
000200 88 6f 3e 3e da 9d f2 be b0 cc 65 be 27 f3 14 3e
       0.18597233 -0.47386056 -0.22441363 0.1454588
000210 1b 2d e1 3e 7d 22 36 be da e8 4f bd 0a a0 77 bf
       0.43979725 -0.17786594 -0.050759174 -0.96728575
000220 56 06 93 3e 1f 01 f4 bd 23 b2 d4 be 9f c0 42 3f
       0.2871577 -0.11914276 -0.41542158 0.76075166
000230 07 a2 03 3f 0e f8 4c be 8b b2 c1 3e d4 b1 1b be
       0.5141911 -0.200165 0.3783153 -0.15204555
000240 37 31 bf 3d 31 84 20 bd ed 5d fc bd 2c 64 11 3e
       0.09335559 -0.039188568 -0.123226024 0.14198369
000250 ac 5a 73 3e 1b 23 f4 3f 14 f9 c1 bb d9 eb c1 3d
       0.23765057 1.9073213 -0.005919585 0.094688125
000260 60 11 5b 3f b0 f3 51 bf 3e ac 8f 3d b4 c0 c9 3e
       0.8557339 -0.8201246 0.070152745 0.39404833
000270 3d d1 3e be df 07 f1 3d b2 07 22 bf a5 52 36 3e
       -0.18634506 0.117690794 -0.6329299 0.17804964
000280 f1 4d a5 3d 0f 06 87 bd 13 80 5d bc 87 69 99 3e
       0.08071507 -0.065929525 -0.013519305 0.29963323
000290 00 9d af 3d 4a d0 40 3e f1 18 1a be 3a 09 bc bd
       0.08574867 0.18829456 -0.15048577 -0.09181447
0002a0 ea 75 67 3c 98 0e ad be 07 e6 92 3d eb 6b 03 3e
       0.014127234 -0.33800197 0.071727805 0.12834136
0002b0 56 e6 bc 3d e3 f8 82 bd 54 c8 68 bd eb 4d b4 be
       0.092236206 -0.063951276 -0.056831673 -0.35215697
0002c0 c5 e4 86 3e e0 db 98 bf 69 a5 36 3d 41 56 68 be
       0.26346412 -1.19421 0.04459134 -0.22689153
0002d0 95 2c 57 3f a9 01 80 3d 27 f3 6d be c2 26 f0 be
       0.840524 0.06250317 -0.23237287 -0.4690457
0002e0 ef 65 52 3d 1f da 9b bd 97 c7 96 bd ea d2 da 3d
       0.051366743 -0.07609963 -0.073622875 0.1068476
0002f0 7c 32 cf bd 6e 7b a1 3d 69 8b 12 be f6 a3 ac be
       -0.10117051 0.078848705 -0.14310993 -0.33718842
000300 df 2d c9 bd 4c a8 bc bd be 7a d2 be 2f 4a a3 3d
       -0.09823202 -0.092117876 -0.4110927 0.07973134
000310 41 95 15 bd 45 26 ab 3e 84 26 50 bd 2f 5c b4 3e
       -0.036519293 0.33427635 -0.05081798 0.3522658
000320 4e 42 02 3d b7 16 1f bd 60 71 5e 3e 62 55 cf 3e
       0.031801514 -0.038840022 0.21722937 0.4049483
000330 bc 15 5b bd 2c c4 18 be 3c bf 96 3d a9 6e 02 bf
       -0.053487524 -0.14918584 0.07360694 -0.50950104
000340 e8 48 5c 3e 26 b1 82 be a5 0b a3 bd 8a 40 5e 3e
       0.21512187 -0.2552578 -0.079612054 0.21704307
000350 35 78 9a bd b3 c3 2a 3e 49 14 38 be 33 8e 26 bf
       -0.07542459 0.16676216 -0.17976488 -0.6506073
000360 ed 71 ee bc 0d 3c 7e be f5 11 29 3e 9c a8 5b 3e
       -0.029107058 -0.24827595 0.16510756 0.21451038
000370 ee 41 61 3e 61 5e 7b be 7a d0 af be f3 2e 2a bf
       0.21997806 -0.24547721 -0.34338742 -0.6647789
000380 94 d7 cd 3e 8c c2 b8 be ee d0 70 3e a0 2f d7 3e
       0.40203536 -0.36085927 0.235172 0.42028522
000390 1d db 85 bf d3 8a 7d 3e 07 a5 c0 bd 75 b6 8d be
       -1.0457493 0.24759988 -0.094064765 -0.27678266
0003a0 f3 12 c5 bf d2 25 ea be 2a e4 36 bc ec ad 5e 3f
       -1.5396408 -0.4573198 -0.011162797 0.86984134
0003b0 3b 08 2c 3f 52 79 ff bd 5b 00 dc 3e 7f 6d 83 bd
       0.6720006 -0.12474312 0.4296902 -0.06417369
0003c0 09 25 b1 bf 7b 43 9c bf 7b b3 02 bf dc 96 a2 3e
       -1.3839427 -1.2208093 -0.51055115 0.31755722
0003d0 f4 f4 1d 3f 5f c0 da bd 14 fd c3 3e b2 cf 22 be
       0.61701894 -0.10681223 0.3827902 -0.15899542
0003e0 a0 f4 13 bf 59 10 50 be 74 03 ba be 87 63 14 3f
       -0.57795143 -0.20318736 -0.3633076 0.57964367
0003f0 b5 bc de 3e 39 0f 4d 3e d5 9b 90 be 1d 88 5f 3e
       0.43503347 0.20025338 -0.2824389 0.21829267

shared_layers.0.bias f4 [128]
000000 4d f1 08 3f 02 50 0e bf 1a 4f 83 be 3f da cb be
       0.53493196 -0.5559083 -0.25646287 -0.39814946
000010 a4 0f 07 bf 24 16 37 be 59 4e ef be 1a 5c f2 be
       -0.5275824 -0.1787954 -0.46739462 -0.47335893
000020 d7 cf 8b be 80 16 ad 3e d4 ed 44 bf 15 97 d9 be
       -0.27307007 0.3380623 -0.76925397 -0.4249808
000030 52 ca b6 be 30 59 43 bf 23 c0 f5 bd 87 75 d8 be
       -0.35701233 -0.76307964 -0.11999538 -0.42277166
000040 d1 0b fe be d8 74 26 bf 1a 2b 24 bf 46 af 1b bf
       -0.4961839 -0.6502204 -0.6412827 -0.6081432
000050 90 09 31 be 6f fe 7f be fc eb 07 bf 35 f7 11 be
       -0.17288804 -0.24999402 -0.5309446 -0.14254458
000060 b9 fc cf be fa c4 9f be 5d db fa be 20 9b 87 be
       -0.406225 -0.3120497 -0.48995486 -0.26485538
000070 d4 f5 2a bf 8d d5 01 bf b3 7b b6 be f8 85 f8 be
       -0.66781354 -0.5071648 -0.3564125 -0.4853971
000080 29 b9 c4 3e ff dd bf be 7f d7 87 be 04 00 f8 bd
       0.38422516 -0.37474057 -0.26531598 -0.12109378
000090 ea 92 70 be 97 bc c9 be e3 91 e5 be 9a cb 26 bf
       -0.23493543 -0.39401695 -0.44837865 -0.6515442
0000a0 6f 40 1f bf e8 be 8d be dc 02 fc be 7d 9d f7 bd
       -0.6220769 -0.27684712 -0.49220932 -0.120905854
0000b0 8d 43 09 3f dc fa ba be 8d 6c 09 bf 57 be fa bd
       0.536187 -0.36519516 -0.5368126 -0.12243336
0000c0 6c 02 db be 7f 3b f3 be 26 2b 0f 3d 40 d8 83 be
       -0.42775285 -0.4750633 0.03495326 -0.25750923
0000d0 6a cf eb bd 5e 7f 17 be 32 03 ae bd f8 86 89 be
       -0.115141705 -0.1479468 -0.08496703 -0.26860785
0000e0 11 54 03 be 1f b7 bc be c5 c5 47 be 39 4f 77 bd
       -0.12825038 -0.3685846 -0.19509037 -0.060378287
0000f0 78 62 d4 be 2f 30 9b be 01 aa 2c be af e1 91 be
       -0.41481376 -0.303102 -0.16861726 -0.28492495
000100 b8 1b c2 be 37 ba da be 95 49 ec be a8 8a 84 be
       -0.37911773 -0.42720196 -0.4614989 -0.25887036
000110 61 4f 8c be 67 99 06 bf 19 f1 c8 bd b9 02 8c be
       -0.2740431 -0.52577823 -0.09811611 -0.27345827
000120 00 6d 97 be c8 be e9 be e7 f5 25 3f 5c b7 ad be
       -0.29575348 -0.45653367 0.6482834 -0.33928955
000130 e3 f1 8e be 85 cd 1e be 66 95 02 bf a1 f2 3b be
       -0.2791892 -0.15508087 -0.51009214 -0.18354274
000140 c3 fd cd be b1 57 7d be d6 d2 79 be b6 60 9c be
       -0.40232667 -0.24740483 -0.24396834 -0.30542535
000150 cd 9b 3f bf f8 54 9e 3d f2 ad 1a bf 1d 34 df be
       -0.7484711 0.0773105 -0.6042167 -0.43594447
000160 f5 66 46 bf 3e 19 0e bf 46 16 f2 be f0 34 7e be
       -0.7750085 -0.55507267 -0.47282618 -0.24824882
000170 76 05 e0 be 02 c6 89 be 10 45 58 be 80 20 ac 3e
       -0.43754166 -0.2690888 -0.21120095 0.33618546
000180 d2 c9 07 bf fb ae af be ff dd 05 bf 59 de 2b be
       -0.5304233 -0.34313187 -0.52291864 -0.16784038
000190 8c b9 71 3d 52 d3 5d be 77 81 30 be f7 87 99 be
       0.059014842 -0.21662644 -0.17236887 -0.29986545
0001a0 2c 22 05 3e ee d2 b2 be c6 73 38 bf ad a2 5b be
       0.13001317 -0.34926552 -0.72051656 -0.21448775
0001b0 5c 44 5e be b4 3e 76 be 6e a0 fa be 1a 49 38 bf
       -0.21705765 -0.24047357 -0.48950523 -0.71986544
0001c0 d3 9a b8 be e2 a2 59 be e9 28 42 be 11 86 9a be
       -0.36055622 -0.21253541 -0.18960918 -0.3018041
0001d0 ff bd d3 be fd df e8 be f3 42 66 be 37 f2 7e be
       -0.41355893 -0.4548339 -0.22486477 -0.24897085
0001e0 0e 05 f2 be d0 69 04 bf 34 29 c2 be cb de 95 be
       -0.4726948 -0.5172396 -0.3792206 -0.2927154
0001f0 a7 51 1a bd f5 b2 fd bd 15 44 ff be f2 fb bb be
       -0.037675526 -0.12387649 -0.4985663 -0.36715657

actor.0.weight f4 [4, 128]
000000 37 3a 7f bf b6 f9 5e bd 9c c2 a2 3e 59 97 82 be
       -0.99698204 -0.05443736 0.317891 -0.25506094
000010 9b 05 c5 3f 75 91 11 3e c4 43 00 3e 8a 12 08 be
       1.5392336 0.14215644 0.1252585 -0.13288322
000020 8d 8b ec bd 07 76 81 3d a7 68 44 bd 51 23 3a 3e
       -0.11550055 0.0632134 -0.047951367 0.18177535
000030 a9 e6 24 3f 30 21 21 3e 91 79 b4 3d dd d0 ca 3d
       0.6441446 0.15735316 0.088122495 0.09903119
000040 4f da 12 3f 66 7e ae be 85 5a a0 3d 17 0d 6c be
       0.5736436 -0.3408081 0.07829765 -0.23051868
000050 11 f3 86 3e fe e2 01 3e 4c c1 8e 3e 95 04 8a 3e
       0.2635732 0.12684247 0.2788185 0.2695662
000060 d9 0c 9f bc ee e2 8d be ac 44 a2 bc b4 dc d6 3e
       -0.019415306 -0.27712196 -0.019808136 0.41965258
000070 74 f6 26 3f 8f 0e ac be b4 7a b6 bd 8e 5d e2 3d
       0.6521981 -0.33604857 -0.089101225 0.110530004
000080 d9 c6 00 bf 65 5e 00 3e ab 94 8c bd e9 59 34 be
       -0.5030342 0.12536009 -0.06864294 -0.17612423
000090 b4 d3 ff 3e a3 11 d1 3e 2c 5e 44 3e d5 24 84 3e
       0.49966204 0.40833768 0.19176549 0.2580935
0000a0 c1 3a 1d 3d 6d ea 3c 3e 03 13 5c 3d 50 fc 15 3e
       0.03838611 0.18448801 0.05372907 0.14647031
0000b0 3c e8 42 bf 8d 0c 73 3e b1 52 9b 3e 65 09 f9 3e
       -0.7613561 0.23735256 0.30336526 0.4863998
0000c0 f9 e2 81 be 16 c0 2e 3f 77 70 36 bf 09 a4 02 3d
       -0.2536848 0.6826185 -0.7126536 0.031894717
0000d0 7f e8 60 be d4 1b 7e 3e 34 fe 96 be 95 16 7a bf
       -0.2196369 0.24815303 -0.29490817 -0.9769071
0000e0 a0 26 6d 3e c3 af 42 bb 83 ce 0d 3f c4 56 09 3f
       0.23159266 -0.0029706813 0.55393237 0.5364802
0000f0 af 0b a8 3e dc 95 86 bf e9 04 32 3f ce 0c 02 3f
       0.32821414 -1.0514483 0.6953874 0.5080079
000100 38 13 6a 3e 38 5c 17 3f 56 75 47 3d 24 35 90 3e
       0.22858894 0.5912509 0.048695885 0.28165543
000110 4c ed 80 3f 72 1e da 3d ef 4c a0 3d 49 02 3e 3e
       1.0072417 0.10650338 0.07827174 0.18555559
000120 00 9d 77 3d e7 2b 12 be 91 ff a3 be e4 93 75 3e
       0.06045246 -0.1427456 -0.3203092 0.23982197
000130 e4 72 51 bc d7 b0 72 3f 73 92 31 3e b9 9f 40 be
       -0.01278374 0.94801086 0.17341022 -0.1881093
000140 f3 95 97 3e 1d 5f 5c 3e 8e a7 7f bd db e4 96 3e
       0.2960659 0.21520658 -0.062415652 0.29471478
000150 db 57 47 bf ad 8b 3c bf 8a 49 2c be b7 07 a3 bd
       -0.7786843 -0.7365063 -0.16824928 -0.07960456
000160 0e 89 46 3e d9 1e ec 3e 8a 3a 5f 3d b1 ba 82 3e
       0.1938822 0.46117285 0.054499187 0.2553306
000170 0b c4 30 3c ce 25 12 3f c6 83 16 3f b2 2e 28 3e
       0.010788928 0.57088935 0.5879482 0.16424063
000180 00 e8 a9 3e c8 55 aa be 2c 2b 83 3e 14 32 b3 3d
       0.33184814 -0.3326857 0.25618875 0.08749786
000190 48 cb 06 be 1d 15 b0 3d ed a1 2e 3e b3 fe 0e be
       -0.13163483 0.08597777 0.17053957 -0.13964348
0001a0 08 3b 46 be 92 9f 05 be a8 63 a0 be e9 53 24 be
       -0.19358456 -0.13049152 -0.31326032 -0.16047634
0001b0 2f 6d ef 3e 21 ae 32 3e 52 f9 38 bc 11 65 25 bf
       0.46762988 0.17449237 -0.011289911 -0.6460734
0001c0 6f 3f 94 bc 4b b9 27 3f 2c 08 f7 3d 83 dd f0 3e
       -0.018096654 0.6551711 0.120621055 0.47044
0001d0 04 11 16 3f 4d 86 3d 3e 76 1f 81 bf 26 a0 de 3e
       0.58619714 0.18508263 -1.0087726 0.4348156
0001e0 54 55 05 be c8 10 22 bd 14 0c 05 bf ca 94 66 3f
       -0.13020831 -0.039566785 -0.51971555 0.90070784
0001f0 97 de a6 3e 9f 9d 97 bd f0 10 ac 3d cb e2 b5 3e
       0.32591698 -0.07403111 0.08401668 0.35524592
000200 71 f4 28 3f cf cd 4a bf 3d e4 a1 bd f7 90 18 c0
       0.6599799 -0.7922029 -0.07904861 -2.383848
000210 19 fd 5d bf 3c 5a a6 be fa 0e 2c be 99 53 5c be
       -0.8671432 -0.32490718 -0.16802588 -0.21516265
000220 5d 4b 9f be 04 c0 0f 3f cf e1 3f bf e6 ad 15 bf
       -0.31112185 0.5615237 -0.7495393 -0.5846847
000230 3d f5 44 bf cd a1 5b bd 6a 29 cf be fd 7c c6 3e
       -0.76936704 -0.053621102 -0.40461284 0.38767233
000240 e4 cc e7 bc be e2 83 be 6b 21 ad 3e e7 aa 94 3f
       -0.028295942 -0.25758928 0.33814558 1.1614655
000250 f8 a4 81 3d 93 48 c6 3d 2f 42 15 be 4c d4 10 3e
       0.063302934 0.09681811 -0.14576028 0.14143485
000260 16 df 5f be 32 87 64 3e 30 cf 0f 3e 14 88 01 be
       -0.21862444 0.22317198 0.1404388 -0.12649566
000270 91 65 38 bf 63 3e 5f bf d6 b2 b4 bf 90 9f 71 bf
       -0.7202998 -0.8720457 -1.4117076 -0.943841
000280 47 e7 e7 bd a6 7c 03 bd cd ea 1e bf e9 43 f0 bf
       -0.113234095 -0.032101296 -0.6207703 -1.8770725
000290 c3 90 cf bd aa 56 7f 3e 46 ae ea 3e 9c ce 30 bf
       -0.10135033 0.24935403 0.45836085 -0.6906526
0002a0 a6 e1 27 3e 7f 5d 8b be 35 e7 b8 3e 3a c0 46 be
       0.16394672 -0.2721977 0.36113897 -0.19409266
0002b0 53 e6 9a 3e 8f e7 99 be 8f 5a d0 bd a1 20 fc be
       0.30253848 -0.30059478 -0.10173523 -0.49243644
0002c0 8e 80 f4 be 5a 03 96 3e 53 01 c7 bf 72 10 8f bd
       -0.4775433 0.29299432 -1.5547279 -0.069855586
0002d0 04 80 26 3d d6 b2 8f bb 4b 53 9b 3e de 6d 4f c0
       0.04064943 -0.0043853326 0.30336985 -3.2410808
0002e0 25 58 19 be c5 d1 b3 be b8 4a 15 3e 90 cd 33 3f
       -0.1497503 -0.3512098 0.14579284 0.7023554
0002f0 79 7f a2 3e 87 72 7d 3f f8 09 04 3f 50 c1 ec be
       0.3173788 0.9900288 0.5157771 -0.46241236
000300 d3 a9 a5 be 5a 4e 7e be 7a af 35 bf f3 64 ff 3d
       -0.32356128 -0.24834576 -0.7097088 0.124704264
000310 00 0e 6b be 27 57 df bf 7f 98 59 be 21 1d 89 be
       -0.2295456 -1.7448472 -0.21249579 -0.26780036
000320 1f 57 1d be 63 9a 80 bf 43 ad fa bd d5 23 6e bd
       -0.15365265 -1.0047115 -0.12240078 -0.05813964
000330 4d a5 d4 3d aa f0 6f bf 61 42 b4 be 6e 4b ff 3e
       0.10383091 -0.937266 -0.35206893 0.49862236
000340 b1 3f 83 bd fa f8 1a be 6c 78 16 3e a3 c6 41 bd
       -0.064086325 -0.1513404 0.14694375 -0.047308575
000350 c8 d8 2c 3f 30 89 f1 3e ea fc 54 be 33 47 3e be
       0.6751828 0.47174978 -0.20799604 -0.18581848
000360 4e eb d8 be 60 8f ce 3e 1d c7 46 3d e9 4c 67 be
       -0.42367023 0.4034376 0.048529733 -0.22587933
000370 42 33 a8 3e 85 9c a5 3c 2e d6 04 3e 10 9b e0 3f
       0.32851607 0.020216236 0.12972328 1.7547321
000380 a1 d0 7a 3e 49 59 24 3e 76 cc 43 be 79 c3 48 3e
       0.24493648 0.16049685 -0.19120964 0.19605817
000390 98 bb a7 3e 07 17 dd bd 99 fc fb bd 40 04 90 3e
       0.3276031 -0.10795408 -0.123040386 0.28128242
0003a0 bc 5d 05 3f 0d c1 78 3e cb c4 97 be 73 d5 63 3f
       0.5209615 0.24292393 -0.2964233 0.8899757
0003b0 bd cf ec be 6f 42 44 bc 0a bf 87 be d5 74 c5 3e
       -0.46252242 -0.01197873 -0.2651294 0.38565698
0003c0 94 94 0e 3f b0 97 7b 3d b6 a4 4b be 55 92 59 be
       0.5569546 0.061423957 -0.19887051 -0.21247227
0003d0 59 ad fb 3e bc b8 b4 3e 2c 96 26 3f 40 c6 a3 bc
       0.4915569 0.3529719 0.65072894 -0.019991994
0003e0 73 d2 e0 be 61 f1 bc bf b4 b6 4a 3e 7b 17 ff be
       -0.4391056 -1.4761163 0.19796258 -0.49822602
0003f0 66 6e e0 bd 09 92 0f bf d6 f4 83 3e 5e c9 53 bd
       -0.10958557 -0.56082207 0.25772732 -0.05170571

actor.0.bias f4 [4]
000000 02 29 66 bf a4 85 28 3e d1 d8 5b 3f 33 02 8c 3e
       -0.8990632 0.1645723 0.8587771 0.27345428

critic.0.weight f4 [128, 128]
000000 37 2f d6 bd e5 a0 76 be 35 7d fc bd 77 92 42 be
       -0.10458224 -0.24084814 -0.12328569 -0.19001184
000010 bb a8 99 be 51 96 4a be 63 db 65 bd 66 e4 ef 3c
       -0.30011544 -0.19783904 -0.056117427 0.029283714
000020 60 4e 44 bd 38 f8 8c be d2 7a 6d bd 1f ba 46 be
       -0.047926307 -0.27533126 -0.05797846 -0.19406937
000030 83 e9 37 3b 3d b8 e6 3c 07 ac 1b be c0 46 4e be
       0.0028062768 0.028164024 -0.15202342 -0.20144176
000040 56 81 63 be 65 93 27 be ae 89 a4 3d bb 2e 33 be
       -0.22217306 -0.1636482 0.08034073 -0.17498295
000050 d6 8a 09 3d 41 fd 74 bc 56 28 b0 bd 2d a0 21 bb
       0.03357967 -0.014952959 -0.086014435 -0.0024662123
000060 90 4f ce bd f9 19 75 be 94 19 eb be 6c a6 d5 3d
       -0.10073769 -0.23935689 -0.45917952 0.10432133
000070 d0 5b 11 3e a7 9a 17 3e 5e b1 ab bd 7a 65 04 bd
       0.1419518 0.14805089 -0.083834395 -0.032323338
000080 6e 35 31 3d a8 90 86 be 8b d8 54 be 79 34 24 be
       0.043263845 -0.2628224 -0.2078573 -0.16035642
000090 39 3b 55 be c9 63 a0 be 56 4f 07 3b dc 2d 67 bc
       -0.20823373 -0.3132613 0.0020646653 -0.014110055
0000a0 b4 7a e4 bd 26 b8 c2 3d b0 43 c6 bc ee 48 42 bd
       -0.11156216 0.0950778 -0.024202198 -0.047432832
0000b0 c8 f3 a4 be 07 51 34 3e 7e 9a 28 3e cb 75 11 bd
       -0.3221724 0.17609034 0.16465184 -0.035512727
0000c0 67 a9 45 bd 67 05 6a be f8 72 05 be 8a ba 04 be
       -0.048257258 -0.22853623 -0.13032138 -0.12961784
0000d0 03 e5 5e be c5 fd 7f be 42 a9 2e bd 6a b7 97 be
       -0.21767049 -0.24999149 -0.042641886 -0.2963212
0000e0 3c 61 b2 3d ad 36 88 bd 97 e8 a7 be 59 ba fc ba
       0.08709952 -0.066510536 -0.3279464 -0.001928161
0000f0 0e ec 31 be 7a d0 58 be 62 6c 8f bd 49 77 f6 3d
       -0.17375204 -0.21173277 -0.07003094 0.120344706
000100 3c 9a 05 3e 2f 15 a4 bd 18 c1 c3 3c d7 a2 dc bb
       0.13047117 -0.08011853 0.023895785 -0.006733279
000110 0d 54 bf bd a5 76 22 be 55 1c ca 3d 6b fd 32 3d
       -0.09342203 -0.15865572 0.09868685 0.04369871
000120 d1 19 6f bd 93 68 86 bd e7 54 5e bf 69 14 b0 be
       -0.05837423 -0.06562915 -0.868483 -0.34390572
000130 6a c4 54 3d f6 90 75 3c d5 58 1b be 71 39 3c 3d
       0.051945128 0.014988175 -0.15170605 0.045953218
000140 74 7e 57 bc 59 2f 18 3e 0a a8 63 bb 3c 06 98 be
       -0.013152707 0.14861812 -0.003473761 -0.29692256
000150 45 f5 aa 3d b7 14 18 be 3f 38 9a 3d a6 06 2f be
       0.08347563 -0.14851652 0.07530259 -0.1709238
000160 7b 53 01 be 8f d2 79 be af 03 a5 3c 18 c6 81 bc
       -0.12629502 -0.24396728 0.020143358 -0.015841529
000170 ce cc fe 3d d5 2d ab be cc 3a fd 3d 79 dd 80 be
       0.12441407 -0.33433405 0.1236473 -0.2516897
000180 f3 86 0f 3d 87 a8 c1 bc ca 7b 24 3d fa 12 a9 3d
       0.035040807 -0.02363993 0.040157117 0.082555726
000190 b3 3f c7 3d 86 ba 01 3c 3e f2 8b 3c 30 f6 0b be
       0.097289465 0.007918006 0.017083284 -0.13668132
0001a0 75 c1 23 be e7 05 11 bd 68 b7 03 be 15 a3 e6 bd
       -0.15991767 -0.03540602 -0.12862933 -0.11261574
0001b0 d0 12 c8 bc f2 63 e4 bd 97 25 8f bd fa e8 06 3e
       -0.024423033 -0.111518756 -0.069895916 0.13174811
0001c0 df cf 29 be a1 90 aa be 4b a9 e0 bd 7d 8c 8b bd
       -0.16583203 -0.33313468 -0.1096979 -0.068139054
0001d0 e9 f4 a2 bb 86 b1 7d be 45 8b da bd f0 49 e2 bd
       -0.004973043 -0.24774751 -0.10671095 -0.11049259
0001e0 7d 36 8e be 1b 10 99 be 2e ea 59 be fd e7 77 be
       -0.27775946 -0.298951 -0.21280739 -0.2420959
0001f0 03 6a 00 bf 12 50 ed 3c c3 98 b0 bc 33 eb 72 3e
       -0.5016176 0.028968845 -0.021557217 0.23722534
000200 e9 f9 1b bf e7 a6 a7 bd 30 71 de bd b0 4f a3 be
       -0.6092821 -0.08186131 -0.108614326 -0.31896734
000210 ec a9 5d be 00 1e 2a bd 83 5c 00 be 18 ef 93 3c
       -0.21646851 -0.041532516 -0.1253529 0.018058345
000220 ee eb c8 bd 18 00 f6 bd 18 43 96 be 3f 34 11 be
       -0.09810625 -0.12011737 -0.29348063 -0.14180087
000230 8a e5 50 be 2e eb 11 be cc 10 07 3e 2b d3 9e 3d
       -0.20400062 -0.1424987 0.13190001 0.07755121
000240 fa a5 20 be 39 c2 8e bb 9e 1b be 3c 27 9a 11 3e
       -0.15688315 -0.0043566492 0.023206528 0.1421896
000250 d5 d7 21 bd 68 22 af 3d be e1 f4 bd 58 80 c2 3d
       -0.039512474 0.08551484 -0.119571194 0.09497136
000260 a5 76 55 3d 2d 99 17 be 2f 76 0e 3e ab 04 fb bd
       0.0521151 -0.14804526 0.13912271 -0.1225675
000270 93 08 8b be 3c 24 cf 3d 54 c3 8f be 04 b4 33 3c
       -0.2715498 0.10114333 -0.2807871 0.010968212
000280 d2 3f c7 3a a7 2f c5 3d ff 44 c5 bd 8d 2f 20 be
       0.0015201515 0.096282296 -0.096323006 -0.15643139
000290 0a e9 68 be 6d 5a be be 0f f1 57 3d 20 dc 8f be
       -0.22745147 -0.37178364 0.052720126 -0.2809763
0002a0 45 1c 54 3e 64 05 d3 bd e4 65 b0 bd 9b 6a a0 3d
       0.20713909 -0.103037626 -0.08613184 0.078328334
0002b0 87 ae ed be 84 f4 93 be 1e ab ce 3c 5c ef 89 be
       -0.46422216 -0.28897488 0.02522808 -0.2694043
0002c0 ef 46 32 3c 24 ea e2 bc 61 0f 73 be c6 f7 08 3d
       0.01088117 -0.027699538 -0.23736335 0.03343942
0002d0 6f 58 c3 3d 03 77 4e bc 9a 30 fc be 19 0b 95 be
       0.09538352 -0.012601617 -0.4925583 -0.2911003
0002e0 a5 24 34 bc 9c 92 10 bd f3 9e c5 bd b2 73 d4 bd
       -0.010995065 -0.035296068 -0.09649458 -0.1037363
0002f0 6a 25 a1 be f7 97 d2 bd 04 49 c1 be 7a 57 af 3d
       -0.31473857 -0.10282891 -0.3775102 0.08561607
000300 7a 1b 9f 3d 5c c1 ff bd 78 65 28 be 18 0f 3d bd
       0.077689126 -0.12488052 -0.16444957 -0.046156973
000310 0f 79 86 be 21 f4 03 be 32 c8 e9 3d 84 d9 42 be
       -0.26264235 -0.12886097 0.11415137 -0.19028288
000320 43 46 13 be 20 52 96 be 0a 5a bc be c4 db 35 be
       -0.14382271 -0.2935953 -0.36787444 -0.17759615
000330 62 88 42 3e 5e 20 0b bd e0 5b c1 bd 05 4b 96 3e
       0.18997338 -0.033966415 -0.09441352 0.2935411
000340 1f c4 c0 bd 69 a7 b7 3d 08 e8 e0 bd 51 c9 79 be
       -0.09412407 0.08967478 -0.109817564 -0.24393202
000350 f9 5c 99 3e 8a 0d c9 be 94 b2 8c 3c be cc a9 bd
       0.29953745 -0.39268142 0.017174996 -0.082910046
000360 b4 69 21 be 63 27 59 3c 84 99 8f 3e 5b ce 24 be
       -0.15762979 0.013254019 0.2804681 -0.16094343
000370 2e 23 8c 3e a8 a1 71 be fb 27 ac bd 96 4e 59 be
       0.2737059 -0.23596823 -0.08406063 -0.21221384
000380 f2 d2 45 bd 0a 8f 05 be e1 40 17 be 4d ec 5f 3e
       -0.048296876 -0.13042846 -0.14770843 0.21867485
000390 51 22 99 3e b4 0e ac be 2b be ef 3d 44 8b 90 bd
       0.29908994 -0.33604968 0.117061935 -0.07057813
0003a0 33 2d b6 bd 84 d4 9a 3d 9c 16 ac bb 9b 41 67 be
       -0.0889534 0.075600654 -0.0052517187 -0.2258362
0003b0 d7 99 e2 3d 70 bf a2 3e a1 f5 ec bd 9d db 05 be
       0.11064499 0.3178668 -0.115702875 -0.13072057
0003c0 91 c4 a0 3d a2 1d b1 be 25 64 5a 3e eb ba 8d be
       0.07849992 -0.3459292 0.21327265 -0.2768167
0003d0 f9 6d 0c be 5f 81 7d 3d d3 f4 aa be fe e4 3f 3e
       -0.13713826 0.061890956 -0.3338991 0.18739697
0003e0 f8 7c 35 be fd de 9f bd 2b 04 f8 bd 18 e3 f6 bd
       -0.17723453 -0.078062035 -0.1211017 -0.120550334
0003f0 1d 3d 08 bf 38 09 e4 3d 81 3c 6b 3d 01 43 4d 3e
       -0.5321825 0.11134571 0.057430748 0.20045091

critic.0.bias f4 [128]
000000 3d 39 0e be bb 33 9a bd 67 bc 96 bc bd 8f 9d bb
       -0.13889022 -0.07529398 -0.018400384 -0.0048083947
000010 be 07 c8 bd fc 44 c2 bc b0 90 2b 3f 7e 32 99 bb
       -0.09767102 -0.023714535 0.6701765 -0.0046752086
000020 f5 c4 41 be d9 fb a3 3d 1e 37 84 bd a0 35 4a 3c
       -0.1892279 0.080070205 -0.06455825 0.012341887
000030 85 7d 20 bd 58 84 a1 be f6 98 60 be 8f 05 cd bc
       -0.039182205 -0.31546283 -0.2193335 -0.025027065
000040 a5 be 4c 3c 61 84 58 be fb 5d 55 3c d3 64 a9 bd
       0.012496625 -0.21144249 0.013022895 -0.08271184
000050 18 a2 4b be 58 8e c0 bc 78 96 51 be b1 a8 15 bc
       -0.19886053 -0.023505375 -0.20467556 -0.009134457
000060 fa 20 5b be 7d 8f a7 bd 62 16 01 be 6a e3 f2 3a
       -0.21399298 -0.08181665 -0.12606195 0.001853091
000070 44 c6 e0 bd 63 93 f9 bc 88 e0 1d bd 2d 91 32 be
       -0.10975316 -0.030465787 -0.038544208 -0.17438193
000080 9f b6 68 be f5 76 0f bf e5 c0 c3 bd df b9 df bd
       -0.22725914 -0.5604089 -0.09558276 -0.10924124
000090 ae 81 99 bd 9f bd 17 3d f7 29 fa 3c 32 72 03 bc
       -0.074954376 0.03704607 0.030537589 -0.008022832
0000a0 2d d8 46 bf e8 04 87 bd 98 c6 4a bc 1b 5e 9b be
       -0.7767361 -0.06592733 -0.01237645 -0.30345234
0000b0 65 65 e6 3c 61 ca d3 3b 81 2f 80 3b 26 8a e2 bc
       0.02812452 0.0064633344 0.003911913 -0.027653765
0000c0 e8 92 dc bc 53 fa 04 3c 92 05 b1 be 39 07 0c bc
       -0.02692552 0.008116323 -0.34574562 -0.008546644
0000d0 e5 e9 8d 3b 88 d8 0d bc d6 4c 0d bd e2 52 11 bf
       0.004330861 -0.008657582 -0.034497105 -0.56767094
0000e0 76 33 cd 3b a8 6d d4 be d3 09 c3 3c 81 5e b7 bd
       0.006262238 -0.4148991 0.023808395 -0.08953572
0000f0 48 2b 3a bc cd 2e a7 3e 3b 60 e1 bd bf 60 68 bd
       -0.011362858 0.32652894 -0.11004683 -0.05673289
000100 ee 93 a0 bc 2b 98 ca bc 42 21 30 bd 46 66 40 be
       -0.019601788 -0.024730762 -0.043000467 -0.18789014
000110 2f b1 b5 3c c2 53 3a bd 64 a0 d6 3c 54 be 94 be
       0.022179214 -0.045490034 0.026199527 -0.2905146
000120 d2 6c 4a 3b ad b2 38 be 31 e9 1c be da 0b 47 bc
       0.0030887616 -0.1803691 -0.1532333 -0.012148822
000130 20 8e 80 be e4 6f a9 be 46 9f 2f bf f5 4e 35 bd
       -0.25108433 -0.33093178 -0.68602407 -0.044264752
000140 6d 56 37 be b7 bf cc bc 37 85 3a 3b 28 8d d1 3c
       -0.17904063 -0.02499376 0.002846075 0.025580004
000150 bd 0b 5b 3b f8 41 6b bd 07 9f 6e 3c 4d 80 ad bc
       0.0033423745 -0.05743596 0.014564282 -0.021179343
000160 ed 79 89 3d ee 03 1d bb 53 43 d1 bd 63 a4 3c 3f
       0.067127086 -0.002395864 -0.10217919 0.73688334
000170 60 81 1d be d3 35 1b bd ee 20 2d bd 58 ee b7 be
       -0.15381384 -0.037893128 -0.042267732 -0.3592403
000180 19 6f 14 bf ea 34 01 3c 82 bd a9 bc c8 e4 14 be
       -0.5798202 0.007886151 -0.020720247 -0.14540398
000190 fc cc 4f bd 04 2f 09 3c 1a 24 63 bc a9 34 4c be
       -0.050732598 0.008373026 -0.013863588 -0.19941963
0001a0 14 50 4d bd 5b f0 8a be 99 18 12 be e3 55 22 3c
       -0.050125197 -0.27136502 -0.14267196 0.009908172
0001b0 38 22 f6 3d b1 8a cc bc 08 21 b3 3c 23 ee a5 3c
       0.120182455 -0.024968477 0.021866336 0.020255154
0001c0 4d f5 ba ba 6c c1 1b be 23 37 98 be 63 1a 41 be
       -0.0014263779 -0.15210503 -0.29729566 -0.18857722
0001d0 51 c1 8b bd 04 9d 6e be 7c 2f 80 3b c2 5d 7e bd
       -0.068239816 -0.23302084 0.0039119106 -0.062101133
0001e0 7d 56 0f be e3 d6 ee bd 7d 29 d7 bc 1a 12 0e 3c
       -0.13997836 -0.1166208 -0.0262649 0.008671308
0001f0 5f e9 ec bc c4 eb 38 3d 0c d7 a7 3c a1 f5 23 bf
       -0.028919874 0.04514672 0.020488285 -0.64046675

critic.2.weight f4 [1, 128]
000000 94 80 25 be f5 c7 f3 bc 46 5e 54 3d 47 4e e2 3c
       -0.1616233 -0.029758433 0.05184772 0.027625216
000010 33 e5 82 bd 22 f8 5a bd ca 81 30 be 2a aa b2 3b
       -0.063913725 -0.053459294 -0.1723701 0.005452414
000020 9a b6 90 bc d5 99 d3 bc bd 0a 80 bd a3 48 e0 3d
       -0.017665196 -0.025830189 -0.06252048 0.10951354
000030 50 ce 8f bc 82 ad a4 3e ba 57 22 3e 05 bd 15 3c
       -0.017554432 0.32163626 0.15853778 0.009139304
000040 4c 93 c6 bb 6a 6b eb bc e6 c6 7e bd f9 ad ce bd
       -0.0060600396 -0.028737742 -0.062201403 -0.100917764
000050 69 29 99 3d 3c 7f dd 3c 5a 9b 91 be 57 7f 95 3d
       0.074786015 0.02703821 -0.28438836 0.07299679
000060 27 65 d0 3d 00 22 83 3d d5 55 ba bd 19 44 00 3d
       0.10175543 0.06402969 -0.090984024 0.031314943
000070 e8 b6 ab 3d 5a 1a 1c 3d d0 80 cf 3c ab 9b 21 3e
       0.08384496 0.03811107 0.025329977 0.15782039
000080 dc 60 74 3d f5 cd 2c 3b 18 0f c1 bd 70 e0 d8 bd
       0.059662685 0.0026367877 -0.09426707 -0.10589683
000090 70 db f9 bd 16 d2 0e be d7 55 7b 3c 27 bb 0e 3a
       -0.122000575 -0.13947329 0.01534029 0.0005444758
0000a0 91 59 dc 3c 0a e5 d8 3d b5 74 5e bd f9 da 37 be
       0.026898177 0.10590561 -0.05431052 -0.17954625
0000b0 fc 3c d7 bb 78 5b fa 3c 2c 71 bc bb bb 15 12 be
       -0.006568549 0.030561194 -0.005750796 -0.14266102
0000c0 06 4f 05 bd 91 d5 6d bd 98 68 c1 bd fd e4 60 bc
       -0.032546066 -0.058065 -0.09443778 -0.01372647
0000d0 91 55 84 3b eb 92 eb 3c e0 3a a5 bd 58 34 0f be
       0.0040385206 0.02875658 -0.0806787 -0.13984811
0000e0 6e df 27 bd fb 45 08 be ff c0 b0 3c be 5c 85 bc
       -0.040984564 -0.13307945 0.021576403 -0.016279574
0000f0 17 2c 4e be 5a 0b 22 bd 3a 6b 3f bd fe 82 87 bd
       -0.20134006 -0.039561607 -0.04673312 -0.06616782
000100 ba 26 97 bc c1 38 ab 3c f3 09 26 bd ef 71 6e 3b
       -0.018451083 0.020901086 -0.040536832 0.0036383828
000110 1a 55 74 3c ae 50 bd 3d 0b 23 3f 3d e2 14 88 bb
       0.014912868 0.09243904 0.04666428 -0.00415288
000120 5e 6c 84 3c ea 5f 3e 3e 70 c5 9b 3d 77 02 b4 3c
       0.016164955 0.18591276 0.076060176 0.021973832
000130 e0 93 1d 3e 21 d9 7b 3d f2 4b b6 3d f5 0c a6 bd
       0.15388441 0.061486367 0.08901204 -0.0810794
000140 ca 88 c7 3e 46 10 08 bd 71 c9 82 3c 5a c4 38 bd
       0.3897155 -0.033218645 0.015965195 -0.04510913
000150 2c e5 b8 b9 3b 09 6a 3d 73 8c d9 3c 99 c1 84 3d
       -0.0003526596 0.05713771 0.02655623 0.06482238
000160 2f 05 62 bc 09 32 44 3c 56 ac 35 3e 3a 3d 81 be
       -0.013795181 0.01197482 0.17741522 -0.25242025
000170 17 a6 59 3d 94 b0 40 3d bc c3 ad bc 75 a6 6e bd
       0.05313691 0.047043398 -0.021211497 -0.058264215
000180 0c 41 26 3e e0 c6 ab 3c 5b 12 a1 bc bd 93 84 3e
       0.16235751 0.020968854 -0.019662073 0.25893965
000190 54 dd 95 3b 56 ec 1e 3d 0a 9e 69 bc 01 28 ae 3d
       0.0045735035 0.038799606 -0.014258871 0.08503724
0001a0 31 23 b0 bd d7 d7 10 be e0 6e c1 3c eb e1 9a bd
       -0.08600462 -0.14144836 0.02361244 -0.07562622
0001b0 e3 53 36 bd 8c 93 94 3d e3 29 28 3b c7 7c 0a 3e
       -0.044513594 0.07254705 0.0025659732 0.13524161
0001c0 af 6a 40 bc 39 b3 27 bd 79 0d 88 bd c5 c2 36 bd
       -0.011744185 -0.040942404 -0.06643195 -0.04461934
0001d0 07 ca 03 3e 42 3b 91 3d a7 90 07 bd 85 ee 30 3d
       0.12870036 0.07091381 -0.033096936 0.04319622
0001e0 73 e3 1f 3e 60 20 30 bd 50 13 09 be e6 1b c5 bc
       0.15614109 -0.042999625 -0.13386273 -0.024061155
0001f0 57 3f b3 3c af 8a 8c 3c 01 8a c9 3c 9b e1 d8 bd
       0.021880789 0.017155973 0.024601938 -0.10589906
